notebooks/models/fare_adult-17_03_2023.pth (torch, 97901 bytes, 38 tensors)

encoder.l1.weight f4 [30, 46]
0	0x3c4a713b	0.012356098
1	0xbc018223	-0.007904562
2	0x3e568d5a	0.20952359
3	0x3d2808a6	0.041023873
4	0x3e25ed8a	0.16203895
5	0x3bad6eab	0.0052927337
6	0x3d2f9eda	0.042876102
7	0x3d817c64	0.06322554
8	0x3e11dde4	0.14244801
9	0xbd69daa5	-0.05709328
10	0x3d40a2ff	0.047030445
11	0x3ddeb7dd	0.10874913
12	0x3e73d227	0.23810636
13	0x3dfc11f1	0.123081096
14	0xba4ed5d0	-0.0007890137
15	0x3bc3bf80	0.0059737563
16	0x3e359249	0.17731585
17	0xbdef0db4	-0.116725355
18	0x3dab9b57	0.08379238
19	0x3e506082	0.20349315
20	0x3c9cdd95	0.019148627
21	0x3c3aaf84	0.011394385
22	0x3d0df1c7	0.034654405
23	0x3d497033	0.049179267
24	0xbd568b39	-0.052378867
25	0xbd58fe85	-0.052977104
26	0xbd0da260	-0.03457868
27	0x3e6724dd	0.22572656
28	0xbd37594d	-0.0447629
29	0xbc88f5c4	-0.016718753
30	0x3c6ef484	0.014584664
31	0x3d9d83be	0.076911435
32	0x3e40fe4a	0.18847004
33	0x3dfe9374	0.12430468
34	0x3e056d56	0.1302999
35	0x3e02334e	0.12714884
36	0x3d355158	0.04426703
37	0xbdb00216	-0.08594148
38	0xbd4419bb	-0.0478761
39	0xbd82b81e	-0.06382774
40	0x3d7d7030	0.06187457
41	0x3e541168	0.20709765
42	0xbd9174b1	-0.07102335
43	0x3dc6344b	0.09677943
44	0xbde2c551	-0.11072791
45	0x3e0ab6e2	0.13546327
46	0x3e442213	0.19153623
47	0xbd894590	-0.06702721
48	0x3d5c7639	0.053823683
49	0xbc33f88a	-0.010984549
50	0x3e35ab89	0.17741217
51	0xbc43aa33	-0.011942434
52	0x3e2bbcb8	0.16771209
53	0x3da764cd	0.08173523
54	0x3e70b039	0.23504724
55	0x3c1063c6	0.00881285
56	0x3dd5e5ae	0.104441985
57	0x3dfef7e1	0.12449623
58	0x3dec2827	0.11531096
59	0x3e0859b5	0.1331547
60	0x3d34d4d4	0.04414828
61	0x3e1b0c05	0.15141304
62	0xbd37926f	-0.044817384
63	0xbc9e76cf	-0.019343762
64	0x3e528ca3	0.20561461
65	0x3e451348	0.19245636
66	0xbc59854e	-0.013276411
67	0x3e19ed88	0.15032017
68	0xbd4804e7	-0.0488328
69	0x3d2543de	0.040347926
70	0x3cb02f5d	0.02150696
71	0x3cbe8fa2	0.023261849
72	0x3d69577b	0.056968194
73	0x3e1d1451	0.15339781
74	0xbdbc4a58	-0.091938674
75	0x3d55f19f	0.05223238
76	0x3db3e3dd	0.08783696
77	0x3ca09efd	0.019607062
78	0x3e440250	0.19141507
79	0x3e0011fe	0.12506863
80	0xbcdbbaab	-0.026822409
81	0x3e4b8e8f	0.198786
82	0x3d2823e7	0.041049864
83	0x3c0eea2a	0.008722821
84	0x3b465734	0.003026438
85	0x3d8ceefa	0.06881519
86	0x3cee56a8	0.029094055
87	0x3eb6f04d	0.3573021
88	0x3cb71661	0.022349538
89	0xbd07caad	-0.03315227
90	0xbe3459d2	-0.17612389
91	0x3db14285	0.08655266
92	0x3e3a537a	0.18195906
93	0xbd4bc483	-0.049747955
94	0x3e1219d0	0.14267659
95	0x3d9c7de1	0.07641197
96	0x3e529990	0.20566392
97	0xbb58061e	-0.003296263
98	0x3d2e46e6	0.042548083
99	0x3d522c32	0.05131168
100	0x3ea4bf46	0.3217718
101	0xbdf9efc7	-0.12203937
102	0xbd931318	-0.07181376
103	0x3e37c547	0.17946349
104	0x3e421e0b	0.18956773
105	0x3d48343f	0.04887795
106	0x3e2a2f7a	0.16619673
107	0x3c79e9a9	0.015253463
108	0x3dc39455	0.095497765
109	0xbc1d63a8	-0.009606279
110	0x3c5caa96	0.013468405
111	0x3e1c5609	0.15267195
112	0xbd32688c	-0.043556735
113	0x3e143d11	0.1447642
114	0x3d720cd3	0.05909426
115	0x3e0c2de5	0.13689382
116	0xbe19c8f7	-0.15018068
117	0xbd47b6d3	-0.04875834
118	0x3e3e05cc	0.18556899
119	0x3d5d992e	0.05410116
120	0xbdb76014	-0.08953872
121	0x3d98ef24	0.074674875
122	0xbd750892	-0.059822626
123	0x3d739e19	0.059476946
124	0xbcfb1aca	-0.030652422
125	0x3e5ae8bf	0.21377848
126	0x3e52bee4	0.20580631
127	0x3e88c0f1	0.26709703
128	0xbe009231	-0.12555768
129	0xbc6769d9	-0.014124357
130	0xbcdbf7e9	-0.026851611
131	0x3d6d1849	0.05788449
132	0xbd9a98a0	-0.07548642
133	0x3e46f78b	0.19430368
134	0xbdfaec51	-0.12252105
135	0x3d863b0b	0.0655423
136	0xbea3cf02	-0.31993872
137	0x3d7e7932	0.0621273
138	0x3d7252e1	0.05916107
139	0x3cdb7a43	0.026791697
140	0x3e4dd8a2	0.2010217
141	0x3e0f713b	0.14008038
142	0x3dc76930	0.0973686
143	0xbc23d34c	-0.009999108
144	0x3e36c487	0.17848407
145	0x3e345b6b	0.17612998
146	0x3d88e9df	0.06685232
147	0xbdc6ae97	-0.09701269
148	0x3cfc1fca	0.030776877
149	0x3e1d2bcd	0.1534874
150	0x3e0b02c6	0.13575277
151	0x3d894c02	0.067039505
152	0x3e0206eb	0.12697951
153	0xbd16aeb1	-0.036787692
154	0x3dd6626f	0.104679935
155	0xbe1f82f9	-0.15577306
156	0xbe8d476b	-0.2759355
157	0x3e042a64	0.12906796
158	0xbd994914	-0.07484642
159	0x3ca054e1	0.019571723
160	0x3ccc8d87	0.02496983
161	0xbd01c86c	-0.031685278
162	0xbe09abbb	-0.13444416
163	0x3d06f36a	0.03294698
164	0xbca18a8b	-0.019719383
165	0x3e7f0dfb	0.24907677
166	0xbc86031a	-0.0163589
167	0xbeee249c	-0.46512306
168	0x3e05edab	0.13078944
169	0x3e348567	0.17629014
170	0x3d2f2c36	0.042766772
171	0x3d9caa57	0.07649677
172	0x3ea6997b	0.3253897
173	0x3e8d7066	0.27624816
174	0xbc98672d	-0.018603886
175	0xbd07e5de	-0.033178203
176	0xbdf32f96	-0.11874311
177	0xbe1ed40d	-0.15510578
178	0x3e44836c	0.19190758
179	0x3e843b36	0.25826424
180	0x3d906c7d	0.070519425
181	0xbde99e9d	-0.11407206
182	0xbee53dcc	-0.4477371
183	0x3c8afcdf	0.016966281
184	0x3cfe6df5	0.031058291
185	0xbdff212e	-0.124575004
186	0x3debb984	0.11509994
187	0x3d5b3dc5	0.053525705
188	0x3d97bd19	0.074091144
189	0x3dbca875	0.09211818
190	0x3d55c356	0.05218824
191	0x3e3fb1cc	0.18720168
192	0x3e0f7ee1	0.14013244
193	0x3dd5474d	0.1041399
194	0x3e8295c3	0.25504884
195	0x3e2c4902	0.16824725
196	0x3da86b65	0.08223609
197	0x3e2babfc	0.16764826
198	0x3d8aa8ff	0.06770515
199	0x3e8f6c81	0.2801247
200	0x3e3a8de7	0.18218194
201	0x3d8887e8	0.06666547
202	0x3e23b1c5	0.15985782
203	0x3d9a2b8c	0.07527837
204	0x3e361bef	0.17784093
205	0x3e3063ed	0.17225619
206	0xbda9607f	-0.08270358
207	0xbe56cc9f	-0.20976494
208	0x3e09ac68	0.13444674
209	0x3da629b9	0.08113427
210	0xbc8da504	-0.0172906
211	0x3d99ba8c	0.07506284
212	0xbb35a23c	-0.0027715107
213	0x3dba2ca6	0.09090547
214	0x3d0ec305	0.034853954
215	0x3e171155	0.14752705
216	0x3db81edd	0.08990262
217	0x3d34dce6	0.044155978
218	0x3cbdb3da	0.023157049
219	0x3e7795f4	0.24178296
220	0x3db35748	0.08756882
221	0x3e1251dd	0.14289041
222	0x3e14c358	0.14527643
223	0x3d81fc2f	0.06346928
224	0x3de84f6a	0.11343272
225	0x3ed2ca27	0.41169855
226	0x3daeb0e9	0.08529837
227	0x3e0cf311	0.13764597
228	0x3c63c8f3	0.0139028905
229	0x3e1fff3f	0.15624712
230	0x3e794078	0.24340999
231	0xbcd10107	-0.025513185
232	0x3de44b64	0.11147192
233	0x3d1e0c74	0.038586095
234	0x3de78a9a	0.11305733
235	0x3d04601a	0.032318212
236	0x3e2aee0c	0.1669237
237	0x3dc63550	0.09678137
238	0x3e8df4a9	0.27725723
239	0x3dc8801b	0.09790059
240	0x3dd44dfc	0.10366437
241	0x3d14dffa	0.036346413
242	0x3e791e91	0.24328066
243	0xbd21edf8	-0.039533585
244	0xbd3f8165	-0.04675426
245	0x3dedf133	0.11618271
246	0x3e02822b	0.12744968
247	0x3c47142e	0.012150807
248	0x3dd97918	0.106188
249	0x3ddd8a32	0.10817374
250	0xbbc975c3	-0.0061480715
251	0x3e3a7747	0.18209563
252	0xbda33043	-0.079681896
253	0xbccc3358	-0.024926826
254	0x3d5f5732	0.054526515
255	0xbc5106bc	-0.012757953

encoder.l1.bias f4 [30]
0	0xbcb46139	-0.022019016
1	0x3dba90eb	0.09109672
2	0x3e029d1e	0.12755248
3	0xbbf7c819	-0.0075616953
4	0x3c9e3f2d	0.019317234
5	0x3debc646	0.11512427
6	0x3df777fc	0.12083432
7	0x3e0d75b5	0.13814433
8	0x3e1c9034	0.15289384
9	0x3c9e37a3	0.019313639
10	0x3d9570c5	0.072969
11	0x3e09a123	0.13440375
12	0xbaa523f3	-0.0012599215
13	0x3d3564cb	0.044285577
14	0x3df81d2d	0.1211494
15	0x3dede1f7	0.11615365
16	0x3de057d7	0.10954254
17	0x3e6f08e9	0.23343243
18	0x3d9ea1e9	0.07745726
19	0x3d41b58b	0.047292273
20	0x3ca63385	0.020288238
21	0x3d380c35	0.044933517
22	0x3e1ece17	0.15508305
23	0x3d5e7838	0.05431387
24	0x3dad7718	0.08469981
25	0x3dc06325	0.0939391
26	0x3d9df289	0.077122755
27	0x3e3448af	0.17605852
28	0xbbadeb5e	-0.005307599
29	0x3d718505	0.058964748

encoder.l2.weight f4 [30, 30]
0	0xbe0bb0c4	-0.1364165
1	0xbd39a448	-0.045322686
2	0x3aa90bff	0.0012897252
3	0xbea7be18	-0.32762218
4	0x3dfa784c	0.12229976
5	0xbe05a696	-0.13051829
6	0x3d893631	0.06699789
7	0x3db28c80	0.087182045
8	0x3d4d6679	0.050146554
9	0xbc4d1139	-0.012516313
10	0xbf01ee1c	-0.5075395
11	0xbbff69d5	-0.0077945986
12	0xbd2aaa9c	-0.041666612
13	0x3d0f19f2	0.034936853
14	0x3cd70719	0.026248502
15	0xbe317815	-0.17330964
16	0xbde5c4b0	-0.11219156
17	0xbe5b5666	-0.21419677
18	0x3f17e84f	0.5933885
19	0x3bb16e06	0.005414727
20	0x3db9c2f4	0.090703875
21	0xbe926df4	-0.28599513
22	0xbe261581	-0.1621914
23	0xbeb31644	-0.34977925
24	0xbef85db3	-0.48508987
25	0x3d9d4975	0.076800264
26	0x3d03e749	0.032202993
27	0xbe8d8ba7	-0.2764561
28	0xbe82bb3c	-0.25533473
29	0x3da9770d	0.0827466
30	0x3d22613e	0.03964352
31	0x3d3c8966	0.04602947
32	0x3c611f0d	0.013740313
33	0x3e47f1ec	0.1952588
34	0x3d5e5049	0.054275785
35	0x3e0f0eae	0.13970444
36	0x3d3ab0d4	0.045578793
37	0x3e1c004d	0.1523449
38	0x3d847e5e	0.06469415
39	0x3da9d30b	0.082922064
40	0x3ec6ab1f	0.3880243
41	0x3de16c56	0.110069916
42	0x3da6e643	0.08149388
43	0x3e284531	0.16432644
44	0x3e3938b0	0.18088031
45	0x3e336413	0.17518644
46	0x3e2a365d	0.166223
47	0x3ec1fcb6	0.37888116
48	0xbef22913	-0.47296962
49	0x3d6d359c	0.057912454
50	0x3d835852	0.0641333
51	0x3e6ec27c	0.23316377
52	0x3e1e4944	0.15457636
53	0x3e5f9868	0.21835482
54	0x3ec2cc9b	0.38046727
55	0x3dc6ddf7	0.09710305
56	0x3e78908b	0.24273889
57	0x3e812295	0.25221696
58	0x3eab6d96	0.33482045
59	0x3d82026f	0.063481204
60	0x3dc27703	0.09495356
61	0x3bcf7ac8	0.0063317753
62	0x3cd5bb6b	0.026090344
63	0x3e6bf4ee	0.23042652
64	0x3e055385	0.13020141
65	0x3dead4c7	0.11466365
66	0x3c9f503d	0.01944744
67	0x3dfe9bf1	0.12432087
68	0x3e06e2b8	0.13172424
69	0x3e19ecb6	0.15031704
70	0x3f03a2fc	0.5142057
71	0x3daa5ae3	0.083181165
72	0x3db431b1	0.087985404
73	0x3e0d214f	0.13782237
74	0x3d6712f6	0.056414567
75	0x3e1ea7be	0.15493676
76	0x3e2a62ce	0.16639253
77	0x3ea9eae4	0.3318702
78	0xbedfe445	-0.43728843
79	0x3e312436	0.1729897
80	0x3c76a2a7	0.015053428
81	0x3e84d71c	0.25945365
82	0x3e873e03	0.264145
83	0x3e8991ab	0.26868948
84	0x3e8757ac	0.26434076
85	0x3d82686f	0.063675754
86	0x3d825924	0.063646585
87	0x3e847e2a	0.25877506
88	0x3e70aa85	0.23502548
89	0x3d5ee250	0.054415047
90	0x3d82bc1c	0.06383535
91	0xbd8b54cc	-0.06803283
92	0x3d833f65	0.06408576
93	0x3e3c6a18	0.18399847
94	0xbda7357f	-0.081645004
95	0xbdd21038	-0.10257
96	0x3dc00375	0.093756594
97	0xbd90191c	-0.07036039
98	0x3e16a79b	0.14712374
99	0xbdfcd4ea	-0.12345298
100	0x3c442cfd	0.011973617
101	0x3d5eddd2	0.054410763
102	0x3dd80c0e	0.10549174
103	0x3d8cefe4	0.06881693
104	0xbe1f800f	-0.15576194
105	0x3d828eac	0.06374869
106	0x3e047c1f	0.12937973
107	0xbe46d8f2	-0.19418696
108	0xbd26b54e	-0.04070025
109	0x3daf1f39	0.08550877
110	0x3e041019	0.12896766
111	0x3e5b1cdc	0.21397728
112	0x3d0ad8ca	0.033898152
113	0x3e84e9c7	0.25959608
114	0x3e750209	0.23926558
115	0x3dc9a300	0.09845543
116	0xbd503dd8	-0.05084023
117	0x3e14b2a7	0.14521275
118	0x3c7412a1	0.01489702
119	0x3d5f58ac	0.054527923
120	0x3da95a24	0.08269146
121	0x3e0c5e1a	0.13707772
122	0x3be8c5ad	0.007103643
123	0x3e904b68	0.2818253
124	0x3dfb6468	0.1227501
125	0x3d93c7ee	0.07215868
126	0x3dc3dcaf	0.095635764
127	0x3e270fa2	0.16314557
128	0x3e32a555	0.17445882
129	0x3de6f414	0.11277023
130	0x3ec2243d	0.37918273
131	0x3d955bad	0.072928764
132	0x3df71db7	0.120662145
133	0x3da7d827	0.08195525
134	0x3d9fa131	0.07794417
135	0x3e4e8aa1	0.2017007
136	0x3e17fb96	0.14842066
137	0x3e96b653	0.29435977
138	0xbed47f8d	-0.41503564
139	0x3d819122	0.0632651
140	0x3d9f7810	0.07786572
141	0x3e2fa8af	0.17154191
142	0x3e04a504	0.12953573
143	0x3e73af28	0.23797286
144	0x3ea90cfe	0.33017725
145	0x3dcb650c	0.099313825
146	0x3d1e85d5	0.03870185
147	0x3df7de3c	0.12102935
148	0x3e60e82c	0.21963567
149	0x3e052178	0.13001049
150	0xbdda4287	-0.1065722
151	0x3c131913	0.008978146
152	0xbce5bbc3	-0.028043633
153	0xbe21f665	-0.15816648
154	0xbe32f75e	-0.17477176
155	0xbdf0f7ec	-0.11766037
156	0xbd991496	-0.074746296
157	0xbdaba614	-0.08381286
158	0xbe0ca419	-0.13734473
159	0xbdbf7264	-0.0934799
160	0xbef2781a	-0.47357255
161	0x3c166aab	0.009180705
162	0xbdb44f99	-0.088042445
163	0xbdec040d	-0.1152421
164	0xbda8c415	-0.08240525
165	0xbe63fb2b	-0.22263782
166	0xbe900749	-0.28130558
167	0xbe9f9bc1	-0.31173518
168	0x3f1da245	0.6157573
169	0xbbc16567	-0.0059019807
170	0xbd12e7ea	-0.0358657
171	0xbe8505be	-0.25980943
172	0xbe84bbbc	-0.2592448
173	0xbe8b7d67	-0.27244112
174	0xbea3163f	-0.3185291
175	0xbda488fa	-0.08033939
176	0xbe42cac6	-0.19022664
177	0xbe0b24e7	-0.13588296
178	0xbebd9ac4	-0.3703214
179	0xbdb9f3f7	-0.09079736
180	0xbbe1473e	-0.006874948
181	0xbe23db8f	-0.16001724
182	0xbe883730	-0.26604605
183	0xbdfb0558	-0.122568786
184	0xbe09fef3	-0.13476162
185	0xbdddd9ff	-0.10832595
186	0xbe4ae94e	-0.19815561
187	0xbe4455b6	-0.19173321
188	0xbe82366d	-0.2543215
189	0xbdf0929e	-0.11746715
190	0xbeb58303	-0.35451517
191	0xbe0e5877	-0.13900934
192	0xbe2b3103	-0.16717915
193	0xbe2b52ba	-0.16730776
194	0xbd8edec0	-0.0697608
195	0xbe89767f	-0.26848218
196	0xbe004169	-0.12524952
197	0xbe71a931	-0.23599698
198	0x3e9d3387	0.30703375
199	0xbe2a24bf	-0.1661558
200	0xbe2bbb95	-0.16770776
201	0xbe532db7	-0.20622908
202	0xbdd3ca97	-0.10341375
203	0xbe61770d	-0.2201807
204	0xbe9f7ef8	-0.31151557
205	0xbe93b9c1	-0.28852656
206	0xbe2afea4	-0.166987
207	0xbe207040	-0.1566782
208	0xbe09f068	-0.13470614
209	0xbe488189	-0.19580664
210	0xbdb45233	-0.08804741
211	0x3d559296	0.05214175
212	0xbd7edfe5	-0.06222524
213	0xbe8ec396	-0.27883595
214	0x3c3ed960	0.011648506
215	0xbdc295c3	-0.09501221
216	0xbd41586d	-0.04720347
217	0xbcb22f6f	-0.021751134
218	0xbdcd0771	-0.10011185
219	0x3d7329da	0.059366085
220	0xbe95b74f	-0.29241416
221	0xbd13069a	-0.035894968
222	0x3d287f2f	0.041136917
223	0xbd21c0ef	-0.039490636
224	0x3b7d6159	0.003866276
225	0xbe0b5e4e	-0.13610193
226	0xbe29906a	-0.16558996
227	0xbda2f44c	-0.07956752
228	0x3eb9387f	0.36175916
229	0xbdfdcabb	-0.123921834
230	0xbcd1177c	-0.025523894
231	0xbe88b06f	-0.26697108
232	0xbd740d98	-0.059583277
233	0xbeb922ee	-0.36159462
234	0xbe76ea33	-0.24112777
235	0xbc7213db	-0.014775242
236	0x3b6a3759	0.0035738556
237	0xbe6d787c	-0.23190492
238	0xbe5da04d	-0.21643181
239	0x3dc23e30	0.094845176
240	0x3da86b02	0.08223535
241	0x3dcfcbd5	0.101463
242	0xbd94ed1b	-0.07271787
243	0x3e951da4	0.29124177
244	0x3e351378	0.17683208
245	0xbd389eec	-0.045073435
246	0xbbcbfbc0	-0.0062250793
247	0x3dd9ed9e	0.10641025
248	0xbd9570d4	-0.07296911
249	0x3dfe399a	0.124133304
250	0x3f004ecc	0.50120234
251	0xbdba9a4b	-0.0911146
252	0xbdec812c	-0.11548075
253	0x3d1c850f	0.038212832
254	0x3e3d03d5	0.18458493
255	0x3eaed892	0.34149605

encoder.l2.bias f4 [30]
0	0xbdad5815	-0.08464066
1	0x3dfb6ed4	0.12276998
2	0x3d748622	0.05969823
3	0x3d17f9ea	0.03710357
4	0x3e33fb24	0.17576271
5	0xbe16c873	-0.14724903
6	0xbe14db3a	-0.14536753
7	0x3d1f9366	0.03895893
8	0xbc8045a9	-0.015658217
9	0xbdb9c5fa	-0.09070964
10	0x3df820c8	0.121156275
11	0x3d1c6c9b	0.03818951
12	0xbda74cac	-0.08168921
13	0x3e3e0b03	0.18558888
14	0x3e116572	0.14198855
15	0xbe3e887d	-0.18606754
16	0xbe2326b0	-0.15932727
17	0x3e4acc54	0.19804507
18	0x3e110409	0.14161696
19	0x3e1781da	0.14795628
20	0xbd09e30f	-0.033663806
21	0xbe02d281	-0.12775613
22	0x3e03de31	0.12877728
23	0x3e158917	0.14603077
24	0xbc73fd70	-0.014891967
25	0xbd95aba9	-0.07308132
26	0xbe2ae94f	-0.16690563
27	0x3e1d13ee	0.15339634
28	0xbdf6c90e	-0.12050067
29	0x3e30b7e6	0.17257652

lstm.weight_ih f4 [120, 30]
0	0xbd358aa3	-0.044321667
1	0x3c4d2149	0.012520143
2	0x3c5f0714	0.013612527
3	0x3cd606f9	0.026126372
4	0x3da6762b	0.081280075
5	0xbd96fbde	-0.073722586
6	0xbdcb253f	-0.099192135
7	0x3ceae37f	0.028672932
8	0x3d04a560	0.032384276
9	0xbd3eed28	-0.04661289
10	0x3df12a81	0.11775685
11	0xbdd631c5	-0.104587115
12	0xbe06bc2d	-0.13157721
13	0x3d64f58f	0.055898245
14	0x3d876009	0.06610114
15	0xbccc8a1c	-0.0249682
16	0x3ca656e2	0.0203051
17	0xbb866197	-0.004100989
18	0x3e0e67c6	0.13906774
19	0x3d68be4b	0.056822103
20	0xbbfd6cad	-0.0077339024
21	0xbc5553df	-0.013020485
22	0x3dbb7bba	0.09154458
23	0x3ddf0ffe	0.10891722
24	0xbe20b7dd	-0.15695138
25	0xbcd0ac8d	-0.025472904
26	0xbc9dee91	-0.019278796
27	0x3e188128	0.14893019
28	0xbdc8a97e	-0.09797953
29	0x3d511589	0.05104593
30	0xbe3cfad3	-0.18455057
31	0x3e1e9a27	0.15488492
32	0x3d9dc7bc	0.07704112
33	0x3e0a2404	0.13490301
34	0x3dfa928a	0.12234981
35	0xbdddf55e	-0.10837816
36	0xbd58e1f9	-0.05294988
37	0xbe03a77f	-0.12856863
38	0x3db639b2	0.08897723
39	0xbdc6ce1f	-0.09707283
40	0x3e4bd164	0.19904095
41	0xbdd4c710	-0.10389531
42	0xbd59db6a	-0.053187765
43	0x3cf12bc8	0.029439822
44	0x3e3347f8	0.17507923
45	0xbe0901c6	-0.13379583
46	0xbce082f3	-0.027406191
47	0x3cf3d5e1	0.029765071
48	0x3d97a095	0.074036755
49	0x3d67cef0	0.056593835
50	0xbd9f4ef1	-0.07778729
51	0xbe057e26	-0.13036403
52	0x3d80c43b	0.06287428
53	0x3d8fbcc0	0.07018423
54	0xbd9f17f1	-0.07768238
55	0xbd0e8c2a	-0.03480164
56	0xbd6b8c53	-0.05750687
57	0x3e1aeeba	0.1513013
58	0xbe3f85ac	-0.18703336
59	0x3da1a8ef	0.0789355
60	0xbd92a828	-0.071609795
61	0x3d6a7b07	0.057246234
62	0x3e1175a9	0.1420504
63	0x3dccdd15	0.100031056
64	0xbbe54eb2	-0.0069979066
65	0xbd7f333e	-0.062304728
66	0xbd959d23	-0.07305362
67	0xbb58c9d5	-0.0033079286
68	0x3bcf9684	0.0063350815
69	0xbde4c9a9	-0.11171276
70	0xbb997809	-0.0046834988
71	0x3cfa67f1	0.030567141
72	0xbe9c6ce5	-0.3055183
73	0x3e08b550	0.13350415
74	0x3e29bca4	0.16575867
75	0xbe3593b6	-0.17732129
76	0xbdb3e0b1	-0.08783091
77	0x3e61897a	0.220251
78	0x3c24263b	0.0100188805
79	0x3e3e9eeb	0.1861531
80	0xbd4fdf62	-0.050750144
81	0x3d99e648	0.07514626
82	0x3d81db3b	0.06340643
83	0x3e878c61	0.26474288
84	0xbe686204	-0.2269364
85	0xbe67e482	-0.22645763
86	0xbd7289be	-0.059213392
87	0xbc6f5907	-0.014608628
88	0xbe1dc726	-0.15408
89	0x3e06df12	0.13171032
90	0xbe9085e9	-0.28227165
91	0x3ef8bf64	0.4858352
92	0x3ee83322	0.4535151
93	0x3e888a0d	0.26667824
94	0x3e96204e	0.29321522
95	0xbeaedc86	-0.3415262
96	0xbededc7b	-0.43527588
97	0xbea0a9c8	-0.31379533
98	0x3ee1b07c	0.4407996
99	0xbe976928	-0.29572415
100	0x3ea20396	0.3164336
101	0xbee1c544	-0.44095814
102	0xbe772d60	-0.24138403
103	0x3ec2f0aa	0.38074237
104	0x3ea794ad	0.32730618
105	0xbe82d366	-0.2555191
106	0xbee532fa	-0.44765455
107	0x3ecff6d5	0.40618005
108	0x3ecc287f	0.39874646
109	0x3ec1d26c	0.37855852
110	0xbe8fed51	-0.28110746
111	0xbeee09fa	-0.46491987
112	0x3efae3ab	0.49001822
113	0x3ed429b8	0.4143808
114	0xbead24fb	-0.33817276
115	0xbebdaabb	-0.3704432
116	0xbef794b1	-0.4835563
117	0x3ecc3c46	0.39889735
118	0xbecc8b4c	-0.39950025
119	0x3ecf9a41	0.40547374
120	0xbe1359af	-0.1438968
121	0x3d8f82bf	0.0700736
122	0x3da29a8f	0.07939636
123	0x3d845a09	0.06462485
124	0x3db63b3a	0.08898015
125	0xbe04c35c	-0.12965149
126	0xbd8cef60	-0.06881595
127	0xbe57cdc1	-0.21074583
128	0x3e4b9210	0.19879937
129	0xbd41647d	-0.047214974
130	0x3c9db07e	0.019249197
131	0xbdb02d65	-0.08602408
132	0xbdd5da91	-0.10442079
133	0x3dd0869b	0.10181924
134	0x3e387398	0.18012846
135	0xbe29c12b	-0.16577594
136	0xbe4b686a	-0.1986405
137	0x3d7644ea	0.060124315
138	0x3e158731	0.14602353
139	0x3e3d3cd1	0.18480231
140	0xbd946ea0	-0.072476625
141	0xbbdc3c11	-0.0067210277
142	0x3d13fb30	0.036128223
143	0x3e432a13	0.19059019
144	0xbdfffe55	-0.12499682
145	0xbe16211a	-0.14661065
146	0xbdcaea3d	-0.09907959
147	0x3d85c020	0.065307856
148	0xbe11edda	-0.1425089
149	0x3d30a9c8	0.043130666
150	0xbe012f4a	-0.12615696
151	0x3e22346c	0.1584031
152	0x3d0f6cdc	0.035015926
153	0x3d2a0167	0.041505244
154	0x3e57806f	0.21045087
155	0xbe4c93db	-0.19978277
156	0xbe1d1623	-0.15340476
157	0xbd15dcdb	-0.036587577
158	0x3e0fb322	0.14033177
159	0xbd7f3bac	-0.062312767
160	0x3e226561	0.15858985
161	0xbc4e9d25	-0.012610708
162	0xbd8e6781	-0.069533356
163	0x3e672b09	0.2257501
164	0x3ddee70b	0.10883912
165	0xbe4c8770	-0.1997354
166	0xbd75fa9e	-0.06005346
167	0x3e4eec67	0.20207368
168	0x3ddb681c	0.10713217
169	0x3dc0526e	0.09390722
170	0xbe1aaecc	-0.15105742
171	0xbe334e4b	-0.17510335
172	0x3d8959d4	0.067065865
173	0x3d4fc11a	0.050721265
174	0xbe108445	-0.14112957
175	0xbd9f7f5b	-0.07787963
176	0xbdd28f3c	-0.10281226
177	0x3d5a2d3b	0.05326579
178	0xbdcfcc2b	-0.10146364
179	0x3e12dde1	0.14342453
180	0x3e239c3e	0.1597757
181	0xbca2803e	-0.019836541
182	0x3dbc809d	0.092042185
183	0x3d8ee78e	0.06977759
184	0x3dad83f7	0.08472436
185	0x3dd81c14	0.105522305
186	0xbd8e690b	-0.06953629
187	0xbdc6936b	-0.096960865
188	0xbe7bd0a0	-0.24591303
189	0xbe884b4a	-0.2661994
190	0x3ba863a4	0.005138831
191	0x3d94cb8b	0.07265385
192	0xbdb635e2	-0.08896996
193	0x3d8422a5	0.064519204
194	0x3d186ca4	0.037212983
195	0xbe148d45	-0.14507015
196	0x3e11a90c	0.14224643
197	0x3e102b95	0.14079125
198	0xbc3c71c5	-0.011501734
199	0x3e0d064c	0.13771933
200	0xbda5bc73	-0.080925845
201	0xbc04e245	-0.0081105875
202	0xbdc456f4	-0.095868975
203	0x3e242274	0.16028768
204	0xbe775ba0	-0.24156046
205	0xbe625ed5	-0.22106488
206	0x3e0bd6f4	0.13656217
207	0x3cd33393	0.025781428
208	0xbc358577	-0.011079184
209	0x3d2a073e	0.041510813
210	0xbe922af6	-0.28548402
211	0x3e9736a6	0.2953388
212	0x3e914c16	0.2837836
213	0x3e500bc5	0.2031699
214	0x3e990e65	0.29893795
215	0xbe6d422c	-0.23169774
216	0xbecc319b	-0.39881596
217	0xbecf0072	-0.40430027
218	0x3e9d34e5	0.30704418
219	0xbe5c14da	-0.21492329
220	0x3ea06087	0.31323645
221	0xbed1fb84	-0.41012204
222	0xbe656ba5	-0.22404344
223	0x3eca1fd9	0.39477423
224	0x3e7582e9	0.2397572
225	0xbe9c5bcf	-0.30538794
226	0xbe8208e4	-0.25397408
227	0x3eb9176c	0.36150682
228	0x3ed7de5c	0.42161834
229	0x3e809d95	0.25120226
230	0xbe7633e5	-0.24043234
231	0xbebc2f2d	-0.36754742
232	0x3edc3143	0.43006334
233	0x3e904b50	0.2818246
234	0xbe5dd32b	-0.21662585
235	0xbe631b98	-0.22178495
236	0xbee0322b	-0.43788275
237	0x3ec72c4d	0.38900986
238	0xbe8415fd	-0.25798026
239	0x3ecd6a04	0.40119946
240	0xbd015b00	-0.031580925
241	0x3e2e4afd	0.17020793
242	0x3d853ac9	0.06505353
243	0xbc0b06e6	-0.008485531
244	0x3c6bfe9d	0.014403966
245	0xbe0564f0	-0.13026786
246	0x3c2cde91	0.010551111
247	0xbe0cf935	-0.1376694
248	0x3c7e4f14	0.015521783
249	0x3b715248	0.0036822725
250	0x3ccf6dc8	0.025320902
251	0xbd9b6bc9	-0.07588918
252	0xbe2c61ba	-0.16834155
253	0xbc6058f8	-0.013693087
254	0xbc009df6	-0.007850161
255	0xbc266ad4	-0.010157306

lstm.weight_hh f4 [120, 30]
0	0x3dfaf474	0.12253657
1	0xbe8bfdc2	-0.2734204
2	0xbe37fbae	-0.17967102
3	0xbe46eacb	-0.19425504
4	0xbdcabaf4	-0.0989894
5	0x3e85a1e7	0.26100084
6	0x3e2c30a8	0.16815436
7	0x3df13324	0.117773324
8	0x3eb72fd0	0.35778666
9	0x3f17dcb7	0.5932116
10	0xbe65a8b9	-0.22427644
11	0xbdbb39bb	-0.091418706
12	0xbe5e55ca	-0.21712413
13	0x3df2c816	0.118545696
14	0x3d4d500a	0.05012516
15	0xbe3ded32	-0.18547514
16	0x3e4a6a4d	0.19767113
17	0xbdefc6ff	-0.11707877
18	0x3d40f4e5	0.04710855
19	0xbd182dc3	-0.037153017
20	0x3e45232c	0.19251698
21	0xbd9b7465	-0.0759056
22	0x3e1a3f9e	0.1506333
23	0x3d20603e	0.039154284
24	0xbe82db25	-0.2555782
25	0x3e153345	0.14570339
26	0xbdcb1ff4	-0.09918204
27	0xbe07e2ec	-0.13270158
28	0x3e70bc9b	0.23509447
29	0x3e4da316	0.20081744
30	0x3e800b26	0.25008506
31	0xbe0e8423	-0.13917594
32	0xbdc6373d	-0.096785046
33	0xbd8f2c8a	-0.06990917
34	0xbdc5d838	-0.09660381
35	0x3e45b66a	0.19307867
36	0x3e47b243	0.19501595
37	0x3de9e88a	0.114213064
38	0x3ec36d0e	0.3816914
39	0x3e6b88dd	0.23001428
40	0xbe9921a3	-0.29908475
41	0xbe19a530	-0.1500442
42	0xbe6bae0d	-0.23015614
43	0x3d142a37	0.03617307
44	0xbd952f74	-0.072844416
45	0xbe0462cf	-0.12928317
46	0x3e5b2162	0.21399453
47	0xbe19526f	-0.14972852
48	0x3dc0097c	0.09376809
49	0x3de8b2d3	0.11362233
50	0x3e86a1bc	0.2629527
51	0xbe28cc88	-0.16484272
52	0x3e677d1a	0.22606316
53	0xbd4be783	-0.049781334
54	0xbe910e24	-0.283311
55	0x3cdb34fb	0.026758661
56	0xbe692a69	-0.22770084
57	0xbe36e259	-0.17859782
58	0x3da7735a	0.081762984
59	0x3d85985a	0.065231994
60	0x3ca6f4f2	0.02038047
61	0x3d48965a	0.04897151
62	0x3bbd2359	0.005772036
63	0x3eb1a23b	0.34694085
64	0x3ea7f56d	0.32804433
65	0x3daea7c8	0.085280955
66	0xbe67672b	-0.22597949
67	0x3f2f22bb	0.6841237
68	0xbdbf69d5	-0.09346358
69	0xbeeae76b	-0.45879683
70	0x3c68633f	0.014183818
71	0x3ee69b23	0.45040235
72	0x3e2b8306	0.167492
73	0xbf15d168	-0.58522654
74	0xbf18522f	-0.595004
75	0x3e124693	0.14284734
76	0xbed16bd8	-0.4090259
77	0xbf87f9d7	-1.062312
78	0xbdb7cc7d	-0.0897455
79	0x3e8e88a7	0.27838632
80	0xbc4d2cd9	-0.0125229
81	0x3d013d9c	0.031552896
82	0x3d8cd743	0.068769954
83	0xbea2877c	-0.3174399
84	0x3e430a1b	0.19046824
85	0x3edb2881	0.4280434
86	0xbd90f926	-0.07078771
87	0x3e14163f	0.14461611
88	0xbceaf39a	-0.028680611
89	0x3f671c40	0.9027748
90	0xbd10784a	-0.035270967
91	0xbda56759	-0.080763526
92	0x3e9c1ff0	0.30493116
93	0x3e1579fc	0.14597315
94	0x3e8475b9	0.25871065
95	0xbcee5ee6	-0.029097985
96	0x3d7d6875	0.061867196
97	0x3f04e15c	0.5190637
98	0xbdc7aa37	-0.09749263
99	0xbee43f6a	-0.4457963
100	0x3dce9518	0.10087031
101	0x3e91401d	0.28369227
102	0xbf31d056	-0.6945852
103	0xbee88c56	-0.45419568
104	0xbf0974e2	-0.53693974
105	0xbd1d5c48	-0.038418084
106	0xbea0cc08	-0.31405663
107	0xbc1d54f7	-0.009602777
108	0x3eb45f0b	0.35228762
109	0x3e97692e	0.29572433
110	0xbe010c8d	-0.12602444
111	0xbc5a5d64	-0.01332793
112	0xbe0e403f	-0.13891695
113	0xbea989d6	-0.33112973
114	0x3e105b09	0.14097227
115	0x3dd521be	0.104068264
116	0xbd33e392	-0.0439182
117	0x3d6e8c5b	0.058239322
118	0xbd2aab38	-0.041667193
119	0xbdc5d65e	-0.09660028
120	0x3e5f1b16	0.21787676
121	0xbd9cb2ac	-0.076512665
122	0xbd4900a4	-0.049072877
123	0xbe286a04	-0.16446692
124	0xbe24efb5	-0.16107066
125	0x3dad7f67	0.08471566
126	0x3e40903d	0.18805023
127	0x3d87fd4b	0.06640109
128	0x3e643711	0.22286631
129	0x3e854755	0.26030985
130	0xbe7ff97b	-0.24997513
131	0xbcd8c5fc	-0.026461594
132	0xbddc4da8	-0.10756999
133	0x3e37813c	0.17920393
134	0x3d9d66da	0.07685633
135	0xbddf8e06	-0.10915761
136	0x3de32636	0.110912725
137	0xbc9d0a8f	-0.019170074
138	0xbcc610f9	-0.024178015
139	0x3cb497b6	0.022044998
140	0x3da92765	0.08259467
141	0xbd362ddc	-0.04447733
142	0x3d82b4e4	0.063821584
143	0x3d9def58	0.07711667
144	0xbe0edbf7	-0.13951097
145	0x3c8f20af	0.01747164
146	0xbdd4df55	-0.1039416
147	0xbe1904d2	-0.14943245
148	0x3d3be8d1	0.045876328
149	0x3c96d822	0.018413607
150	0x3e559105	0.20856102
151	0xbe88360d	-0.26603737
152	0x3d445778	0.04793498
153	0x3d3215bd	0.043477762
154	0xbd3ee7d7	-0.04660782
155	0x3e8c1026	0.2735607
156	0x3d4400b0	0.04785222
157	0x3e82c6cc	0.25542295
158	0x3e045fe4	0.12927204
159	0xbe6b2801	-0.22964479
160	0xbe495e90	-0.19664979
161	0x3e076b72	0.13224581
162	0xbe0cd118	-0.13751638
163	0xbe803baf	-0.25045535
164	0xbeb3f167	-0.35145113
165	0xbe8dbf70	-0.27685118
166	0x3bea650c	0.007153159
167	0xbe864984	-0.26227963
168	0xbc534917	-0.012895844
169	0x3e4894db	0.19588034
170	0x3e6ce746	0.23135099
171	0xbd94c176	-0.07263462
172	0xbae5a2c6	-0.0017519824
173	0x3c1d6761	0.009607167
174	0x3def8e19	0.11697025
175	0x3e20b8e6	0.15695533
176	0xbd3e45bc	-0.046453223
177	0xbe315dfd	-0.1732101
178	0x3da4d03a	0.080475286
179	0x3e58573f	0.21127032
180	0x3d0fe998	0.03513488
181	0x3cbecef7	0.023292048
182	0x3ed61673	0.41814002
183	0x3f248866	0.6427063
184	0x3e983f97	0.29736015
185	0x3c97710b	0.01848652
186	0xbd2b83a3	-0.041873585
187	0x3f76bb96	0.96379983
188	0xbdc654a4	-0.09684113
189	0xbf06f111	-0.5271159
190	0xbd0eeadb	-0.034891944
191	0x3f35c61d	0.7100542
192	0xbea78392	-0.32717568
193	0xbf763182	-0.9616929
194	0xbf78b024	-0.9714377
195	0xbdab3f0f	-0.08361637
196	0xbe567607	-0.20943461
197	0xbf7da9c0	-0.9908714
198	0xbe863987	-0.26215765
199	0x3e1d51c3	0.15363221
200	0xbdcaf877	-0.09910672
201	0xbd5681b0	-0.052369773
202	0xbe8f30e1	-0.2796698
203	0xbe9db836	-0.30804604
204	0x3ec1b329	0.37832
205	0x3e69bed3	0.228267
206	0xbe2a78df	-0.16647671
207	0xbda9d273	-0.08292093
208	0x3dd32ab4	0.10310879
209	0x3f6bf45a	0.92169726
210	0xbcb92ef9	-0.022605406
211	0xbb8044b2	-0.003914439
212	0x3dc91ac6	0.0981956
213	0x3d38069b	0.044928174
214	0x3e2ca85a	0.16861096
215	0xbdd9803d	-0.10620163
216	0x3d652ac4	0.055948988
217	0x3d99e01b	0.07513448
218	0xbe4a3286	-0.19745836
219	0xbe97c6e7	-0.29643938
220	0x3d15e29f	0.036593076
221	0xbe0d1faf	-0.13781618
222	0xbf4af53d	-0.79280454
223	0x3ec5c3c4	0.3862592
224	0xbebd039b	-0.36916813
225	0xbced969d	-0.029002482
226	0xbe3558f3	-0.17709713
227	0x3ce93060	0.02846545
228	0x3f22efbb	0.6364705
229	0x3e016106	0.12634668
230	0xbd851796	-0.06498639
231	0xbdcc9631	-0.09989584
232	0xbe4ee5c2	-0.20204833
233	0xbe0ec72f	-0.1394317
234	0x3d632359	0.055453632
235	0x3e21d0f2	0.15802363
236	0x3c92f6cc	0.017939948
237	0xbc816bb5	-0.015798429
238	0xbd94e5a6	-0.072703645
239	0xbf547910	-0.82997227
240	0x3e63f1d9	0.22260226
241	0xbe3588ea	-0.1772801
242	0xbe78a71d	-0.24282499
243	0xbdb03046	-0.086029574
244	0xbe9479a6	-0.2899906
245	0x3d7341f5	0.059389073
246	0x3e0a1e5b	0.13488142
247	0xbca03f16	-0.019561332
248	0x3e5c7ac9	0.21531214
249	0x3f20d0c5	0.6281856
250	0xbe8d503b	-0.27600273
251	0xbe632f06	-0.22185907
252	0x3e0d3abc	0.13791937
253	0x3ea31264	0.31849968
254	0x3e0357e4	0.12826496
255	0xbe494f85	-0.1965924

lstm.bias_ih f4 [120]
0	0x3e2d8368	0.16944659
1	0x3e4bc0b2	0.19897726
2	0x3e557549	0.20845522
3	0x3e90cf50	0.28283167
4	0x3d791d71	0.060819093
5	0x3e45eb36	0.19328007
6	0x3e185386	0.14875612
7	0x3eb6bf0c	0.35692632
8	0x3e2ce5c0	0.16884518
9	0xbc7cede9	-0.015437582
10	0x3de102e1	0.10986877
11	0x3e2598fd	0.16171642
12	0x3e41106b	0.18853919
13	0x3dbdaf4b	0.0926195
14	0x3e5a739d	0.21333165
15	0x3d498ade	0.0492047
16	0x3ba1e812	0.004940995
17	0x3e9bd481	0.30435565
18	0x3d56b1d0	0.05241567
19	0x3e1f2e46	0.15544996
20	0x3e479362	0.19489816
21	0x3e6ce42c	0.23133916
22	0x3e99b8e0	0.3002386
23	0x3e428fa4	0.19000107
24	0x3c2ef996	0.010679623
25	0xbc82476a	-0.015903194
26	0x3e49047b	0.19630615
27	0x3e2be8de	0.1678805
28	0x3dbace3d	0.09121368
29	0x3e4aa9f6	0.19791397
30	0x3e37f38c	0.17964
31	0x3e4029c7	0.18765937
32	0x3d0d93ee	0.034564905
33	0xbba4de2b	-0.0050313673
34	0xbb4ea42b	-0.0031530957
35	0x3e0ecd51	0.1394551
36	0x3c67c0e6	0.014145112
37	0xbe9c804c	-0.30566633
38	0x3de62f01	0.11239434
39	0x3da8e0d2	0.08246006
40	0x3d9eb44e	0.07749234
41	0xbde7b378	-0.11313528
42	0xbc8b8e67	-0.017035676
43	0x3dd0163b	0.1016049
44	0xbd823772	-0.063582316
45	0x3e0e80bc	0.13916296
46	0xbcd0e1b0	-0.025498241
47	0xbe38c5bc	-0.1804418
48	0xbde0b2d2	-0.10971607
49	0xbe6a0bff	-0.22856139
50	0x3e1cc655	0.15310033
51	0xbe22b253	-0.15888338
52	0xbcd0a105	-0.025467405
53	0x3d4c7acc	0.049921796
54	0x3dc88201	0.09790421
55	0xbe706cca	-0.23479
56	0x3e491c13	0.19639616
57	0x3e22c566	0.15895614
58	0x3dc9144b	0.09818324
59	0xbdf031cb	-0.11728247
60	0x3e22d9d4	0.15903407
61	0xbd680cd0	-0.056652844
62	0xbd7046aa	-0.05866114
63	0xbdb038d1	-0.08604587
64	0xbc92cb2f	-0.017919151
65	0x3de64189	0.112429686
66	0x3e28f27d	0.16498752
67	0x3cd6520f	0.026162175
68	0x3dd80ff4	0.10549918
69	0x3d04e07a	0.03244064
70	0xbda53025	-0.080658235
71	0xbe151905	-0.14560325
72	0x3daca16a	0.08429225
73	0xbd19c208	-0.03753856
74	0x3d5bcb01	0.053660396
75	0xbe06df27	-0.13171063
76	0x3cb8d0f2	0.02256057
77	0x3d2ab524	0.041676655
78	0xbc7d6ce6	-0.015467858
79	0xbe0df937	-0.13864599
80	0x3db931f0	0.09042728
81	0xbe3b89ae	-0.1831424
82	0x3e0d03ce	0.13770983
83	0x3dbe94b9	0.0930571
84	0xbdfc36e2	-0.123151556
85	0x3e076400	0.1322174
86	0xbe0d018d	-0.13770123
87	0xbe13cf58	-0.14434564
88	0x3dbb997a	0.09160133
89	0xbcd6aafd	-0.02620458
90	0x3d2d47b2	0.042304702
91	0x3dec5846	0.11540274
92	0x3e80f196	0.25184315
93	0x3e1ebeb0	0.15502429
94	0x3d16d1bd	0.036821116
95	0x3e122e7f	0.1427555
96	0x3da01b4e	0.07817708
97	0x3e1e5139	0.15460671
98	0x3e233d8d	0.15941449
99	0x3c0e14b2	0.008671926
100	0x3d8f23ef	0.06989276
101	0x3da5629f	0.08075451
102	0x3e2f9aee	0.17148945
103	0x3e2cf5cd	0.1689064
104	0x3e182bc6	0.14860448
105	0x3d28799b	0.041131597
106	0x3e141184	0.14459807
107	0x3dedfb3f	0.11620187
108	0x3dc94668	0.09827882
109	0x3e51c5dd	0.20485635
110	0x3e0b0ebd	0.13579841
111	0x3e2f5579	0.17122449
112	0x3e20dc65	0.15709074
113	0x3d8fd360	0.070227385
114	0x3d735f2a	0.059416927
115	0x3dcf5345	0.10123304
116	0x3de8d10e	0.11367999
117	0x3d1242e0	0.03570831
118	0x3ded19ae	0.11577164
119	0x3e4349d4	0.19071132

lstm.bias_hh f4 [120]
0	0x3bb25112	0.0054417932
1	0x3e182e33	0.14861374
2	0x3d9d8de1	0.07693077
3	0x3e85182d	0.25995007
4	0x3d2d7ed7	0.042357292
5	0x3d922132	0.07135238
6	0x3e07b088	0.13250935
7	0x3e95b18f	0.2923703
8	0x3d8e74c2	0.069558635
9	0x3ddb7ef1	0.107175715
10	0x3dcea30b	0.10089692
11	0x3e2c64ef	0.16835378
12	0x3e82a771	0.25518373
13	0x3decc44d	0.11560879
14	0x3eac35d4	0.33634818
15	0x3e293351	0.16523482
16	0x3d3cd136	0.046097957
17	0x3e0ce85a	0.1376051
18	0x3da0a8e7	0.078447156
19	0x3c3aef17	0.0114095425
20	0x3dab4de8	0.08364469
21	0x3e873d85	0.26414123
22	0x3e4d8c80	0.20073128
23	0x3e2416ab	0.16024272
24	0x3e09ae0a	0.13445297
25	0x3df19804	0.11796573
26	0x3e10d38c	0.14143199
27	0x3d6b5836	0.05745717
28	0x3dad20c7	0.084535174
29	0x3e3f058c	0.1865446
30	0x3e07d151	0.13263442
31	0x3df7c450	0.120979905
32	0xbde60ffc	-0.112335175
33	0xbd250a2d	-0.040292908
34	0x3dec0ff4	0.1152648
35	0x3e2864d3	0.16444711
36	0x3d292032	0.04129047
37	0xbeee6c7b	-0.4656714
38	0x3d72a452	0.05923874
39	0x3dba8004	0.09106448
40	0x3e139176	0.14410958
41	0xbe294ca0	-0.16533136
42	0xbd058706	-0.03259947
43	0x3e3bce55	0.18340428
44	0xbc7e606f	-0.015525921
45	0x3dc98f65	0.098418035
46	0x3c11a8c1	0.008890332
47	0xbeaf530d	-0.3424305
48	0xbe0eedb0	-0.13957858
49	0xbe0a9bff	-0.1353607
50	0x3e627b9e	0.22117469
51	0xbe3a84fe	-0.18214795
52	0xbd28a115	-0.041169245
53	0xbc426498	-0.011864804
54	0x3cee7741	0.0291096
55	0xbe208b90	-0.15678239
56	0x3e3c7928	0.18405592
57	0x3d45dc2f	0.048305687
58	0x3e17467b	0.1477298
59	0xbdc468bc	-0.09590289
60	0x3dcb4e2f	0.09927022
61	0xbe0308cf	-0.12796329
62	0xbdda7192	-0.10666193
63	0xbd7979e0	-0.060907245
64	0xbdb70624	-0.08936718
65	0x3d255ed5	0.040373642
66	0x3e0baf70	0.13641143
67	0xbd9a1717	-0.07523935
68	0x3ce409bc	0.027836673
69	0x3d87aa92	0.066243306
70	0xbbf872a6	-0.0075820265
71	0xbc0c8b82	-0.008578183
72	0x3d963ff9	0.073364206
73	0x3e03627b	0.12830536
74	0x3d391037	0.04518148
75	0xbd458cce	-0.048229985
76	0x3e1b261a	0.15151253
77	0xbd23955c	-0.039937362
78	0x3dd14a5a	0.102192596
79	0xbc2eb1c7	-0.010662503
80	0x3e0d0003	0.13769536
81	0xbe1a690a	-0.15079132
82	0x39940928	0.00028235582
83	0x3d71cb77	0.05903193
84	0xbcad0f0b	-0.021125337
85	0x3e048d62	0.12944558
86	0xbe29483e	-0.16531464
87	0xbdf267df	-0.11836218
88	0x3e0214bd	0.12703224
89	0xbd7664dd	-0.060154784
90	0x3c9cad2c	0.019125544
91	0x3dd47370	0.103735805
92	0x3e777031	0.24163891
93	0x3e7d5b46	0.2474185
94	0x3cd5c410	0.026094466
95	0x3e394206	0.18091592
96	0x3e4f401a	0.20239297
97	0x3d29af58	0.041426986
98	0x3e20d80f	0.1570742
99	0x3e06c7eb	0.131622
100	0x3dbe3637	0.092876844
101	0x3e0f8e15	0.14019044
102	0x3e78c69d	0.24294515
103	0x3d2ae3b6	0.04172107
104	0x3dfbbcd2	0.12291874
105	0x3e327019	0.17425574
106	0x3cf777ad	0.030208433
107	0x3e049215	0.12946351
108	0x3ca09924	0.019604273
109	0x3c886d86	0.016653787
110	0x3e387efc	0.1801719
111	0x3e5a55ee	0.21321842
112	0x3d60b013	0.054855417
113	0x3d633132	0.05546684
114	0x3d7aeb7c	0.06125973
115	0x3d090677	0.03345343
116	0x3e0674dc	0.13130516
117	0x3e1d1c75	0.15342887
118	0x3e49153d	0.19637008
119	0x3e2904b0	0.16505694

lstm_args.weight_ih f4 [120, 30]
0	0xbdc0cb6d	-0.094138004
1	0xbca1c4b1	-0.01974711
2	0x3e12edbb	0.143485
3	0x3c3fd2be	0.01170796
4	0x3d8536fb	0.06504627
5	0xbd916af7	-0.0710048
6	0xbce15402	-0.027505878
7	0xbd3f5e32	-0.04672069
8	0x3d0e9598	0.034810632
9	0x3b1146fa	0.002216755
10	0x3e064058	0.13110483
11	0xbd6a2227	-0.057161476
12	0xbe190063	-0.14941554
13	0xbc22b131	-0.009929941
14	0x3e1a6c8a	0.15080467
15	0xbe23baee	-0.15989277
16	0xbca468f5	-0.020069579
17	0x3e0ff0dc	0.14056724
18	0x3c453c6d	0.012038332
19	0x3d93773b	0.07200476
20	0x3d11aac8	0.03556326
21	0xbdeabbb5	-0.114615835
22	0x3db9c152	0.09070076
23	0x3dbca896	0.09211843
24	0x3c3993e1	0.011326761
25	0xbe1ce751	-0.15322615
26	0x3d8f9f48	0.07012802
27	0x3dc8399c	0.09776613
28	0xbd5e80a0	-0.054321885
29	0xbcb34d26	-0.021887373
30	0x3da17ac7	0.07884746
31	0x3c995a3f	0.01871979
32	0x3d6bb749	0.05754784
33	0x3d488e7c	0.04896401
34	0x3e0ed617	0.13948856
35	0xbc988e49	-0.018622534
36	0xbd817830	-0.06321752
37	0xbddaa57e	-0.106760964
38	0xbd13c63a	-0.036077715
39	0xbe0fb628	-0.14034331
40	0x3cf168d7	0.029468937
41	0xbcfe2720	-0.031024516
42	0xbd635de7	-0.055509474
43	0x3daac60e	0.08338557
44	0x3e0905db	0.1338114
45	0xbc832576	-0.016009074
46	0xbd6d64b0	-0.05795735
47	0xbd1a6f2a	-0.03770367
48	0x3bc820d0	0.006107427
49	0x3daa6b63	0.08321264
50	0xbdd54941	-0.10414363
51	0xbdc3e823	-0.09565761
52	0xbdc38ec2	-0.09548713
53	0x3e192399	0.14954986
54	0xbe25df3c	-0.16198438
55	0x3b0237d8	0.0019869711
56	0xbd615c20	-0.055019498
57	0x3c0a2e59	0.008433902
58	0xbe02d017	-0.12774692
59	0x3d33e082	0.04391528
60	0xbd784be9	-0.06061927
61	0xbd2ae6b5	-0.041723926
62	0xbcf2a016	-0.02961735
63	0x3e2c1738	0.16805732
64	0x3d91ea09	0.07124717
65	0xbd0b083a	-0.033943392
66	0xbe2e98a2	-0.17050412
67	0x3d465d14	0.04842861
68	0xbc8d4d51	-0.017248781
69	0xbe12f8c9	-0.14352717
70	0x3de6f8df	0.11277937
71	0x3d4a6cf2	0.049420305
72	0xbc8dcbec	-0.017309152
73	0x3bf5e200	0.007503748
74	0x3db13352	0.08652367
75	0xbdba4639	-0.09095425
76	0xbddfe307	-0.10931974
77	0x3dd18b13	0.102316044
78	0xbbc2f4a0	-0.0059495717
79	0x3c00d879	0.007864111
80	0xbc914d6a	-0.01773711
81	0xbc219ecb	-0.009864519
82	0x3d8ddd9e	0.06927036
83	0x3e1b0455	0.15138371
84	0x3be11b95	0.006869743
85	0xbe2c7d8a	-0.16844764
86	0x3d9e232e	0.07721554
87	0x3b0f6f8e	0.002188656
88	0xbe098aa1	-0.13431789
89	0xbc529483	-0.012852791
90	0xbdbe7a9a	-0.09300728
91	0x3e368f94	0.17828208
92	0x3e55ee71	0.2089174
93	0x3e6fcb41	0.23417379
94	0x3ddc871a	0.10767956
95	0xbe169cbc	-0.14708227
96	0xbd6ff6c1	-0.058584932
97	0xbd83ad63	-0.06429555
98	0x3d57a096	0.05264338
99	0xbdeeaf1a	-0.11654492
100	0x3d407181	0.046983246
101	0xbdb59854	-0.08866945
102	0xbe62791d	-0.22116514
103	0x3daf655e	0.08564256
104	0x3daa03c6	0.08301501
105	0xbdc97b11	-0.09837926
106	0xbe43a25d	-0.19104905
107	0x3e63b967	0.22238694
108	0x3dc248af	0.094865195
109	0x3e18ae64	0.14910275
110	0xbcd64989	-0.026158111
111	0xbdf1e2f5	-0.11810867
112	0x3ddd14fe	0.107950196
113	0x3dabed8d	0.083949186
114	0xbe1a8d8f	-0.15093063
115	0xbe3ad86a	-0.18246618
116	0xbdafd3ee	-0.08585344
117	0x3e105ff2	0.140991
118	0xbe1be21c	-0.15222973
119	0x3d999743	0.07499554
120	0xbc0a3198	-0.008434676
121	0x3d154772	0.03644509
122	0x3c332663	0.010934445
123	0x3c950f5a	0.018195797
124	0x3d96caf7	0.07362931
125	0xbd609415	-0.054828722
126	0xbd6d37b2	-0.057914443
127	0x3d7c3245	0.06157138
128	0xbd7adeba	-0.061247565
129	0xbdd2ff60	-0.10302615
130	0x3da621d4	0.08111921
131	0xbda93a13	-0.0826303
132	0xbe25994e	-0.16171762
133	0x3dcc1949	0.0996576
134	0xbd0395a0	-0.032125115
135	0x3d57f77f	0.052726265
136	0xbdc3c22e	-0.09558521
137	0x3d5963db	0.053073745
138	0x3aac8c44	0.0013164361
139	0x3d0d33cf	0.034473237
140	0xbdc53198	-0.096286
141	0x3d550728	0.052008778
142	0xbcc177b9	-0.023616659
143	0xbd7c158c	-0.061543986
144	0x3c147719	0.009061598
145	0x3d02fb6a	0.03197805
146	0x3cb17b5f	0.021665273
147	0x3de8d5fd	0.1136894
148	0x3ca926ed	0.020648444
149	0xbcd51dac	-0.026015125
150	0xbd21ec7b	-0.039532166
151	0x3dbeb7b9	0.09312386
152	0x3cae4695	0.02127389
153	0x3d505c62	0.050869353
154	0x3e11e5dd	0.14247842
155	0xbe078ec8	-0.1323806
156	0xbd9b5655	-0.07584826
157	0xbe2b33ab	-0.16718929
158	0x3e138196	0.14404902
159	0xbde5f685	-0.112286605
160	0x3e0451fe	0.12921903
161	0xbe1e94fb	-0.15486519
162	0xbd9ba88b	-0.076005064
163	0x3d874298	0.066044986
164	0x3ddbf67b	0.10740372
165	0xbd9db739	-0.077009626
166	0xbe23397f	-0.15939902
167	0x3e3766e4	0.17910343
168	0x3e3fba5b	0.18723433
169	0x3c992a06	0.018696796
170	0xbde69b2f	-0.11260068
171	0xbd37c6b9	-0.04486725
172	0x3dd68c57	0.104759865
173	0x3dd669ad	0.10469375
174	0xbe0099f6	-0.12558731
175	0xbe30da0c	-0.17270678
176	0xbe0f20f5	-0.13977416
177	0x3dd0a012	0.10186781
178	0xbcc3ec91	-0.023916515
179	0x3e07c945	0.13260372
180	0xbd3d32d0	-0.046191037
181	0x3d9cfbfa	0.07665248
182	0xbd2f3d62	-0.04278315
183	0x3dfe1edc	0.1240823
184	0x3d86f26b	0.06589206
185	0xbdbf0d3f	-0.09328698
186	0x3d89d7c8	0.0673061
187	0x3d5fcb38	0.054637164
188	0x3d2503f6	0.04028698
189	0xbb4bc28b	-0.0031091298
190	0x3da74a22	0.081684366
191	0x3ce4ceef	0.027930705
192	0xbd3c1ef1	-0.045927946
193	0xbcbaf21a	-0.022820521
194	0x3d4d7e20	0.05016911
195	0x3d93950e	0.07206164
196	0xbdc0c1c3	-0.09411957
197	0x3d036e6b	0.032087725
198	0x3d1386ab	0.0360171
199	0x3d640756	0.05567106
200	0xbdbde9ef	-0.09273135
201	0xbd1159e7	-0.03548613
202	0xbddbaac8	-0.10725933
203	0xbb5c0e53	-0.0033577874
204	0xbd37bfe1	-0.044860724
205	0xbd84f8ec	-0.064927906
206	0x3d431dd1	0.047635857
207	0x3d749994	0.059716776
208	0x3d7e3715	0.06206425
209	0x3bf07e29	0.007339258
210	0xbdfac51a	-0.122446254
211	0x3d724c82	0.059154995
212	0x3e562060	0.20910788
213	0x3df888a8	0.1213544
214	0x3e2a62cd	0.16639252
215	0xbd8bff85	-0.06835846
216	0xbe414a07	-0.18875895
217	0xbe15f5d9	-0.14644565
218	0x3d791aeb	0.060816687
219	0xbe87e403	-0.26541147
220	0x3e7713e2	0.24128678
221	0xbe5dfcbf	-0.21678446
222	0xbdfc3f77	-0.123167925
223	0x3e280f8b	0.16412179
224	0x3e48d327	0.19611798
225	0xbe51147e	-0.20417973
226	0xbdfda559	-0.12385053
227	0x3e63cbe8	0.22245753
228	0x3de189dd	0.110126235
229	0x3da23028	0.07919341
230	0xbdcecff4	-0.10098258
231	0xbde361e2	-0.11102654
232	0x3e220eec	0.15826005
233	0x3e0af060	0.13568258
234	0xbe627eac	-0.22118634
235	0xbe40ddc7	-0.18834601
236	0xbe404c13	-0.1877902
237	0x3e51b724	0.20480019
238	0xbe3ef2bc	-0.18647283
239	0x3d8e1b63	0.06938817
240	0xbe4e1e2a	-0.20128694
241	0x3e0b6717	0.13613544
242	0x3e1256f9	0.1429099
243	0x3e3c1347	0.18366729
244	0x3e448ba8	0.191939
245	0xbd0b1e41	-0.0339644
246	0xbe78cf81	-0.24297906
247	0xbe29db09	-0.16587462
248	0x3e6158a5	0.22006471
249	0xbde85592	-0.11344446
250	0x3e044808	0.12918103
251	0xbe283a74	-0.16428548
252	0xbe599385	-0.2124768
253	0x3d6ac850	0.05731994
254	0x3e31d0cb	0.17364804
255	0xbe2ebdf8	-0.17064655

lstm_args.weight_hh f4 [120, 30]
0	0xbea5f4c1	-0.32413295
1	0x3ecc7fe8	0.39941335
2	0x3d1e6783	0.038672935
3	0xbe3b4563	-0.18288188
4	0x3e99bba9	0.30025986
5	0xbd760bb7	-0.060069766
6	0x3e17921b	0.14801829
7	0xbd02d07b	-0.031937104
8	0xbed2ac13	-0.41146907
9	0xbe14e8ab	-0.14541881
10	0xbe73e13e	-0.23816392
11	0xbe9fb3f7	-0.3119199
12	0x3df4c70e	0.11952029
13	0x3e230a15	0.15921815
14	0xbda73f66	-0.08166389
15	0xbd22288e	-0.039589457
16	0xbe6b37b0	-0.22970462
17	0xbe8ad16f	-0.2711291
18	0x3eadfd48	0.339823
19	0xbe9a7a53	-0.3017145
20	0xbda8f211	-0.082492955
21	0xbe8368da	-0.25665933
22	0xbd4f5d16	-0.050625883
23	0xbdcac4e1	-0.09900833
24	0xbeb4ea49	-0.35334995
25	0x3d646c8c	0.05576758
26	0xbe97b790	-0.29632235
27	0xbe295c65	-0.16539152
28	0xbe88afa8	-0.26696515
29	0xbdcc111e	-0.09964202
30	0xbe98712c	-0.29773843
31	0x3ebae903	0.365059
32	0xbc962b27	-0.018331124
33	0xbe360339	-0.17774667
34	0x3e3acd70	0.1824243
35	0xbe0d598b	-0.13803689
36	0x3e2197c7	0.15780555
37	0x3c8a72ff	0.016900538
38	0xbecb140f	-0.3966374
39	0xbe22d170	-0.15900207
40	0xbec213f4	-0.37905848
41	0xbed73d12	-0.4203878
42	0xba8e7286	-0.0010867871
43	0x3e0bda7e	0.13657567
44	0xbe8a300c	-0.26989782
45	0x3d28a805	0.04117586
46	0xbe7d83db	-0.2475733
47	0xbe6e1b06	-0.23252496
48	0x3e000627	0.12502347
49	0xbe845a87	-0.25850317
50	0xbe23e3ac	-0.16004819
51	0xbecfbe0f	-0.4057469
52	0xbdcb2105	-0.09918407
53	0xbccb67c4	-0.024829753
54	0xbeb3923c	-0.35072505
55	0xbb06528d	-0.0020495981
56	0xbef11528	-0.47086453
57	0xbe042e12	-0.129082
58	0xbea51979	-0.32245997
59	0xbdcb41ba	-0.09924646
60	0xbe71d27d	-0.23615451
61	0x3ed73eef	0.42040202
62	0xbb674c84	-0.003529341
63	0xbe6fc47f	-0.23414801
64	0x3de5278c	0.111891836
65	0xbeab0152	-0.33399445
66	0x3d0d12fc	0.034441933
67	0x3e76e28f	0.24109863
68	0xbed8a658	-0.4231441
69	0xbe2dfeb1	-0.16991688
70	0xbe3d7984	-0.18503386
71	0xbeadf823	-0.33978376
72	0x3dadcb7c	0.08486077
73	0x3ea1907d	0.31555548
74	0xbe3a2d7a	-0.1818141
75	0x3d4f39ba	0.05059216
76	0xbe35fe7d	-0.17772861
77	0xbe5dbda7	-0.21654378
78	0x3e0138df	0.12619351
79	0xbe80ba8d	-0.25142327
80	0xbe331545	-0.17488582
81	0xbe9aeece	-0.3026032
82	0x3d77d31b	0.06050406
83	0xbdd7aff2	-0.10531606
84	0xbec9157b	-0.392742
85	0x3d1da28b	0.03848509
86	0xbeff9e2c	-0.49925363
87	0xbe26c627	-0.16286527
88	0xbe94c18e	-0.2905392
89	0xbe611931	-0.21982266
90	0xbdc45d56	-0.09588115
91	0x3e0364ad	0.12831374
92	0xbce9e853	-0.028553164
93	0xbdfbfd60	-0.12304187
94	0x3dfecdc7	0.12441593
95	0xbd5e2355	-0.054232914
96	0x3e50432b	0.20338123
97	0x3de39006	0.11111455
98	0xbea8ded2	-0.32982498
99	0xbd6be55f	-0.057591792
100	0xbd631ece	-0.0554493
101	0xbe18899f	-0.14896248
102	0x3e014a8d	0.12626095
103	0x3cf51cc3	0.029920941
104	0xbc03aa71	-0.008036242
105	0x3bdfe023	0.006832139
106	0xbe2115e1	-0.15731002
107	0xbe665cd1	-0.22496344
108	0x3dd3912b	0.10330423
109	0xbd911935	-0.07084886
110	0xbc7537d9	-0.014966928
111	0xbe31102e	-0.17291328
112	0x3c2df45e	0.010617344
113	0xbdac047f	-0.08399295
114	0xbe99daf0	-0.3004985
115	0x3e039451	0.12849547
116	0xbe2f5777	-0.17123209
117	0xbd00e03e	-0.031463854
118	0xbe459b90	-0.19297624
119	0xbe08cb24	-0.13358742
120	0xbecc2ab7	-0.3987634
121	0x3ece310a	0.4027179
122	0x3e2de8ff	0.16983412
123	0xbea50413	-0.3222967
124	0x3decc2d7	0.115606
125	0xbe9d0add	-0.3067235
126	0x3d40ac9c	0.047039613
127	0x3ea89d22	0.32932383
128	0xbf074d7d	-0.5285261
129	0xbe57ab37	-0.21061407
130	0xbe7b1b54	-0.24522144
131	0xbef3dc71	-0.4762912
132	0x3e32681f	0.17422532
133	0x3ee32c5d	0.44369784
134	0xbea46853	-0.32110843
135	0xbd9b6b91	-0.07588876
136	0xbea4935a	-0.3214367
137	0xbdc78ad0	-0.09743273
138	0x3e7a25fd	0.24428554
139	0xbe965cd7	-0.29367706
140	0xbe98709a	-0.29773408
141	0xbef3b4a1	-0.47598746
142	0x3db130e3	0.086519025
143	0xbe91835a	-0.28420526
144	0xbed51201	-0.41615298
145	0x3e25dd9b	0.16197817
146	0xbee49066	-0.44641417
147	0xbe492fb1	-0.19647099
148	0xbe943b72	-0.28951603
149	0xbedd7719	-0.43254927
150	0xbe387435	-0.1801308
151	0x3e37e07f	0.17956732
152	0x3df931bf	0.121676914
153	0xbe57b118	-0.2106365
154	0x3e29a985	0.16568573
155	0xbd1e4908	-0.038643867
156	0x3e3658f3	0.17807369
157	0x3dc400dd	0.09570477
158	0xbea46ed9	-0.3211582
159	0xbe259892	-0.16171482
160	0xbe557f25	-0.20849283
161	0xbe85ac74	-0.26108134
162	0x3e0e91d0	0.1392281
163	0x3e4e839d	0.20167394
164	0xbd5647c5	-0.05231454
165	0x3ca453cb	0.020059487
166	0xbd6b3987	-0.05742791
167	0xbddd9734	-0.10819855
168	0x3e902e1e	0.28160185
169	0xbe8ce328	-0.27517056
170	0xbdc7ac61	-0.097496755
171	0xbe87f5f7	-0.26554844
172	0xbdae4372	-0.08508958
173	0xbd3fb24a	-0.04680089
174	0xbe9fd854	-0.31219733
175	0x3d550eca	0.052016057
176	0xbe966a62	-0.2937804
177	0xbe1aa142	-0.15100577
178	0xbe4ea0b3	-0.2017849
179	0xbddae0f5	-0.106874384
180	0xbf0368cd	-0.5133179
181	0x3efe987d	0.49725714
182	0x3e8fbd26	0.28073996
183	0xbf09eb49	-0.5387464
184	0x3ebcc1cf	0.36866614
185	0xbecdf068	-0.40222478
186	0x3e936af7	0.28792545
187	0x3ee17318	0.44033122
188	0xbf112aac	-0.5670574
189	0xbcc7b076	-0.024376135
190	0xbe749fa8	-0.23889029
191	0xbed9ed5d	-0.42563906
192	0x3e340460	0.17579794
193	0x3ecdaaa1	0.40169242
194	0xbe1bb102	-0.15204242
195	0xbe338dc8	-0.17534554
196	0xbe24e9cf	-0.16104816
197	0xbe43c894	-0.19119483
198	0x3e840609	0.25785854
199	0xbe6a4d1e	-0.2288098
200	0xbe9158ea	-0.2838815
201	0xbef8bbac	-0.48580682
202	0x3ea9d232	0.3316818
203	0xbeb29bcf	-0.34884498
204	0xbecec326	-0.4038326
205	0x3da3a092	0.07989611
206	0xbed6f267	-0.41981813
207	0xbeac74dc	-0.33682907
208	0xbedf83e6	-0.43655318
209	0xbed6751d	-0.41886225
210	0xbe3e6f5b	-0.18597166
211	0x3db83973	0.089953326
212	0x3da7ef9d	0.081999995
213	0xbd9c1105	-0.07620434
214	0x3d622ddd	0.05521952
215	0xbd3f100f	-0.046646174
216	0x3dfcfb00	0.12352562
217	0x3d8054fc	0.062662095
218	0xbdca2ec5	-0.09872202
219	0xbd17586a	-0.036949553
220	0xbc98b3be	-0.018640395
221	0xbdc656c9	-0.09684522
222	0x3d71c8b4	0.059029296
223	0x3e110608	0.14162457
224	0xbc04c258	-0.008102976
225	0xbcb3d2a0	-0.02195102
226	0x3d013a77	0.031549897
227	0xbda1c5a5	-0.07899026
228	0x3e5553ed	0.20832796
229	0xbd82a3ec	-0.06378922
230	0xbe696419	-0.2279209
231	0xbdc9c61b	-0.09852239
232	0x3e15fd1b	0.14647333
233	0xbdffe412	-0.12494673
234	0xbd91f08f	-0.07125961
235	0x3e3a8b2e	0.18217155
236	0xbddb2fb9	-0.10702462
237	0xbe176c4a	-0.14787403
238	0xbe36ca86	-0.17850694
239	0xbe3ff74e	-0.18746683
240	0xbd45da95	-0.04830416
241	0x3dcaa834	0.098953635
242	0x3d3745d7	0.04474434
243	0xbdaeda57	-0.08537739
244	0x3c8a89d1	0.01691142
245	0xbbff6212	-0.0077936733
246	0x3dbec17e	0.093142495
247	0x3d6a33a4	0.057178155
248	0xbe013e3b	-0.12621395
249	0x3d9463f6	0.072456285
250	0xbd750dc0	-0.059827566
251	0xbe489a22	-0.19590047
252	0x3e4232d9	0.1896471
253	0x3bc1437d	0.005897938
254	0x3b8f7bcf	0.004378773
255	0xbd80e352	-0.06293358
