notebooks/fare.pth (torch, 256353 bytes, 42 tensors)

encoder.l1.weight f4 [50, 103]
0.004510975 0.05680218 -0.013535082 -0.090454355 0.070250094 -0.06854695 -0.05205183 0.074042104
-0.0007703066 0.042094648 -0.09037192 -0.07973256 -0.033011068 0.08280561 -0.08649514 0.039096963
-0.018140698 -0.07694846 -0.09182806 -0.004480839 0.08744669 -0.016416037 0.093874946 -0.015506399
0.010462022 -0.0926913 0.00823307 0.00032020808 -0.05000925 -0.0458619 0.028394556 0.0533494
-0.09686879 0.032210972 -0.06217283 -0.028682327 0.038223337 -0.064990796 0.074692585 -0.09025202
0.00041313173 0.022569895 5.2404404e-05 0.061289907 -0.088806465 0.0055933 0.064366125 -0.010148776
0.058461618 0.056346573 0.012600458 -0.08683381 0.001939714 0.06439004 0.011645806 0.06758814
-0.05068449 -0.0187886 -0.07010665 0.080127075 0.023334218 0.046330392 0.09886626 0.023078883
-0.049679436 0.04198761 0.030657327 0.00387336 -0.09544001 -0.051562965 0.08164908 -0.03153131
-0.04477104 0.09816915 0.063288525 0.0106986165 0.08097346 -0.057514347 0.05983294 0.06126659
-0.011726141 0.08094036 0.05898538 0.014976895 -0.09813426 0.09325329 -0.057046425 -0.010234619
-0.08411139 -0.0448815 0.008992374 0.00081881287 -0.07367909 0.09761017 -0.044389963 -0.006873214
0.0011974334 0.06105944 0.05683521 0.043507338 0.096100286 -0.032955993 0.05037656 -0.008526015
0.08067452 -0.028697968 0.0028586627 0.06288757 0.029752994 0.043944668 -0.0065163733 0.021791626
-0.09151651 -0.006407976 0.0033894896 0.021199966 0.026193393 -0.081780195 -0.04469564 -0.09425916
-0.07636314 -0.072828256 0.060569026 0.030473424 -0.08731463 0.0572188 0.069550715 0.016700173
-0.09314241 0.048873402 -0.032306015 0.03144126 0.072073236 -0.019519651 -0.09021733 -0.015534795
-0.0039981604 0.06747474 -0.028755153 -0.064160004 -0.09924495 0.07252612 0.031391717 0.044571877
-0.024611985 -0.0023037435 0.002179897 0.028043402 -0.04117943 0.08680683 0.09070378 -0.004496896
-0.08477899 0.031686913 -0.048658025 -0.06279051 0.064704 0.0011250497 -0.07411142 -0.018866872
-0.004353714 0.025510693 0.08926397 0.012780833 0.095958464 0.038041066 0.029812265 -0.0989327
-0.06298313 0.02669983 0.003090942 -0.02055378 0.003959453 0.044255354 0.078008436 0.00089199544
-0.09747428 0.046272527 0.04411116 0.0059346915 0.09458412 0.09287912 -0.019056404 0.007225764
-0.063910924 -0.08711318 -0.09619607 0.027370358 -0.07906983 -0.021967662 -0.012824858 -0.094981946
-0.09024166 -0.099981345 -0.0036786557 0.035227157 0.04975916 0.047736373 0.05822457 -0.06969402
-0.045056988 -0.09567535 -0.040528752 -0.0128951315 0.026582945 -0.05937153 -0.08829444 -0.004261875
0.012859535 -0.011411739 -0.0022869469 0.040018536 0.041272428 0.07316699 0.09946177 -0.07136138
0.00074138644 0.046772253 0.059808757 0.089553416 0.08837751 -0.072317086 0.027641082 -0.05090418
0.0008947611 0.008701265 -0.014791548 0.02332822 -0.08012501 0.06730675 0.0858474 0.008086777
0.052478313 0.09660151 0.019242693 0.005739832 -0.049965788 -0.021196663 0.014014649 -0.038442086
0.053935397 0.07587918 -0.09004618 0.038815867 0.010798514 -0.09878518 -0.017121805 0.07301132
0.0023824573 0.036770057 -0.084769264 0.067434385 -0.09196409 0.08597346 -0.021710861 0.06600775
00000000: cdd0 933b 67a9 683d 40c2 5dbc 2240 b9bd
00000010: 48df 8f3d 5862 8cbd 4d34 55bd 63a3 973d
00000020: 67ee 49ba 706b 2c3d ea14 b9bd d34a a3bd
00000030: 9d36 07bd fd95 a93d 5d24 b1bd 2324 203d
00000040: cd9b 94bc 2797 9dbd 5a10 bcbd 00d4 92bb
00000050: 4017 b33d ed7a 86bc 8241 c03d 8d0e 7ebc
00000060: e768 2b3c f0d4 bdbd 00e4 063c 9ae1 a739
00000070: 80d6 4cbd b0d9 3bbd b39b e83c e784 5a3d
00000080: 2563 c6bd a7ef 033d f0a8 7ebd 33f7 eabc
00000090: 1390 1c3d e519 85bd 6df8 983d 0dd6 b8bd
000000a0: 9a99 d839 80e4 b83c cdcc 5b38 200b 7b3d
000000b0: 2ae0 b5bd 0048 b73b 63d2 833d 0d47 26bc
000000c0: 7375 6f3d aacb 663d 2772 4e3c edd5 b1bd
000000d0: 003e fe3a edde 833d 0dce 3e3c a76b 8a3d
000000e0: 8a9a 4fbd 8dea 99bc 1394 8fbd aa19 a43d
000000f0: 6727 bf3c f0c4 3d3d 657a ca3d ed0f bd3c
00000100: aa7c 4bbd 33fb 2b3d 1325 fb3c 33d8 7d3b
00000110: 0d76 c3bd b033 53bd a237 a73d fa26 01bd
00000120: d761 37bd e80c c93d 6a9d 813d 4049 2f3c
00000130: 6ad5 a53d 2a94 6bbd 6313 753d adf2 7a3d
00000140: 001f 40bc 0fc4 a53d a79a 713d a761 753c
00000150: 9dfa c8bd 95fb be3d 83a9 69bd 1aaf 27bc
00000160: 9842 acbd aad5 37bd c054 133c 9aa5 563a
00000170: 10e5 96bd d7e7 c73d 40d2 35bd b338 e1bb
00000180: 33f3 9c3a 7719 7a3d 0acc 683d c034 323d
00000190: 3ad0 c43d ddfc 06bd a757 4e3d b3b0 0bbc
000001a0: af38 a53d 0018 ebbc 6758 3b3b 33cb 803d
000001b0: 8dbc f33c 53ff 333d 4d87 d5bb 5a84 b23c
000001c0: 026d bbbd 00fa d1bb 3322 5e3b 8dab ad3c
000001d0: 8793 d63c 607c a7bd c712 37bd f20a c1bd
000001e0: 4764 9cbd fb26 95bd 3a17 783d 67a3 f93c
000001f0: 03d2 b2bd 435e 6a3d 9b70 8e3d cdce 883c
00000200: 73c1 bebd 7a2f 483d 5053 04bd 8dc8 003d
00000210: 229b 933d ade7 9fbc ddc3 b8bd a785 7ebc
00000220: 0003 83bb 3230 8a3d ed8f ebbc 5266 83bd
00000230: f040 cbbd 9388 943d 9a94 003d 0091 363d
00000240: 139f c9bc 67fa 16bb 9adc 0e3b 47bb e53c
00000250: c3ab 28bd c7c7 b13d e7c2 b93d b35a 93bb
00000260: 9ba0 adbd 23ca 013d a34d 47bd 5098 80bd
00000270: 8883 843d 6776 933a bac7 97bd b38e 9abc
00000280: 9aa9 8ebb cdfb d03c 07d0 b63d b366 513c
00000290: df85 c43d f3d0 1b3d da38 f43c 3a9d cabd
000002a0: 4dfd 80bd 9ab9 da3c 6791 4a3b 6760 a8bc
000002b0: 4dbe 813b 1a45 353d e3c2 9f3d cdd4 693a
000002c0: 98a0 c7bd 4388 3d3d e7ad 343d cd77 c23b
000002d0: 52b5 c13d 6837 be3d 2d1c 9cbc 1ac6 ec3b
000002e0: bbe3 82bd 6568 b2bd 7202 c5bd cd37 e03c
000002f0: 5def a1bd 87f5 b3bc 5a1f 52bc e585 c2bd
00000300: 9fd0 b8bd 05c3 ccbd 9a15 71bb 5a4a 103d
00000310: 43d0 4b3d 3787 433d e37c 6e3d bdbb 8ebd
00000320: ad8d 38bd 70f1 c3bd 7a01 26bd 1a46 53bc
00000330: 7ac4 d93c 902f 73bd b7d3 b4bd 33a7 8bbb
00000340: cdb0 523c 4df8 3abc 9ae0 15bb 7aea 233d
00000350: 470d 293d 93d8 953d 9db2 cb3d ea25 92bd
00000360: 9a59 423a 4394 3f3d 07fa 743d c867 b73d
00000370: 45ff b43d fb1a 94bd 8d6f e23c e780 50bd
00000380: 678e 6a3a c08f 0e3c 4058 72bc d31a bf3c
00000390: 9518 a4bd 1fd8 893d c3d0 af3d 677e 043c
000003a0: 80f3 563d 03d7 c53d daa2 9d3c 3315 bc3b
000003b0: eda8 4cbd a0a4 adbc b39d 653c 7375 1dbd
000003c0: 5deb 5c3d 8b66 9b3d 226a b8bd 63fd 1e3d
000003d0: 40ec 303c e24f cabd 0743 8cbc f586 953d
000003e0: 0023 1c3b 339c 163d 829b adbd 0a1b 8a3d
000003f0: ab57 bcbd da12 b03d fada b1bc 122f 873d

encoder.l1.bias f4 [50]
-0.012070859 0.050316095 -0.0397903 -0.02689116 0.039144516 -0.040455785 0.022733796 -0.093093626
-0.06096972 0.035440948 0.025254512 0.033874013 -0.04141244 0.07646085 0.043872643 -0.087806776
0.09074277 0.05166347 -0.07458724 -0.030280447 0.043575324 -0.0066336514 0.08069952 -0.031375267
0.039504435 0.04808959 -0.06351943 0.06620138 -0.013772762 0.015942419 -0.050312232 -0.053556085
-0.0817858 -0.056475032 0.04621507 -0.09642967 -0.063484095 0.03153905 -0.02610817 0.082139246
-0.08049152 0.07935142 0.07080239 -0.030937064 0.080389 0.013306379 -0.073753916 0.054582644
0.07792991 -0.064801075
00000000: dac4 45bc 4018 4e3d 27fb 22bd da4a dcbc
00000010: 0056 203d f7b4 25bd 3a3c ba3c dfa7 bebd
00000020: 63bb 79bd 872a 113d 8de2 ce3c 7abf 0a3d
00000030: 17a0 29bd 8297 9c3d cdb3 333d 0ad4 b3bd
00000040: 58d7 b93d 139d 533d 32c1 98bd b30e f8bc
00000050: 0a7c 323d 1a5f d9bb ca45 a53d 5a83 00bd
00000060: 67cf 213d 97f9 443d 7a16 82bd 9794 873d
00000070: 27a7 61bc ad99 823c 3314 4ebd a05d 5bbd
00000080: 507f a7bd 5d52 67bd 034c 3d3d eb7c c5bd
00000090: f303 82bd 172f 013d cde0 d5bc 9f38 a83d
000000a0: bdd8 a4bd ff82 a23d d800 913d ba6f fdbc
000000b0: fda2 a43d 0003 5a3c 4b0c 97bd 0d92 5f3d
000000c0: b799 9f3d 6db6 84bd

encoder.l2.weight f4 [50, 50]
0.061683144 0.08524724 0.0013899923 0.008715928 -0.06670689 -0.019314623 0.04738288 0.022023201
-0.045825567 0.066329814 0.003450644 0.09000814 0.049295522 -0.03897623 0.04790591 0.0021920563
-0.0135772 -0.08436783 -0.0461331 -0.08055136 0.041743804 -0.01882627 0.078542866 -0.021923888
-0.06661347 -0.009372855 -0.016420508 0.03259039 -0.00042721033 -0.07625812 0.042578746 0.03923445
0.050730076 0.07672858 0.067799084 0.066009834 -0.07177985 -0.06784483 0.04404844 0.035917796
0.028100848 0.029995441 -0.067891516 -0.065875314 -0.06776873 0.068385266 -0.035649695 0.07044307
-0.075785935 -0.06860304 -0.02016157 -0.0064147115 0.073309444 0.014934147 -0.06653855 -0.07638814
0.034058966 0.07462126 -0.06450285 0.089112855 -0.065872066 0.022969782 -0.05763432 0.070859924
0.031669676 0.0154092675 -0.050718095 0.025300836 0.0627887 0.09917363 0.06948892 -0.07150912
-0.0061652185 0.020197464 0.08829831 0.04427215 -0.09793335 -0.09290027 0.09205768 -0.08586233
0.066156045 0.030290974 -0.043296386 -0.0709613 0.07894974 0.07903671 -0.055473294 0.03636526
-0.030178392 0.08372661 -0.06281773 -0.05965128 -0.03929385 0.050570846 -0.08201901 -0.057635963
-0.09474883 0.038257267 0.08576881 0.09771319 0.039576687 0.07394902 -0.07205653 -0.01764728
-0.04288424 -0.071619034 -0.057982232 -0.069344126 -0.014604235 0.013428628 0.08896158 -0.050467458
0.021628916 -0.08649887 -0.044603944 -0.08392268 -0.035684872 0.047592532 0.08911421 -0.039752305
0.00197562 -0.06567009 -0.016506303 -0.051319003 0.06980848 -0.09500468 0.03997586 0.0941563
-0.039708663 0.035911944 0.041864146 -0.027782965 -0.0776821 0.09823158 -0.0013696313 -0.05654794
-0.03017174 -0.07351263 -0.013144815 -0.0632061 -0.046424177 0.049424637 0.054877996 0.0037798285
-0.046419382 -0.07926233 0.04117942 0.07278176 0.0040078997 0.015933335 0.030317664 0.02717395
0.07315383 0.013371432 0.050599743 0.051557638 -0.02717719 0.01867417 -0.031372618 0.09644633
0.041376796 0.091698505 0.02565272 0.044867385 0.0010567546 0.054093957 -0.098795794 0.023044288
-0.04826851 -0.08278698 -0.011457885 0.026276935 0.009820354 -0.09398329 0.06552845 0.059099555
-0.086840056 0.031255305 -0.023993468 -0.067271434 -0.022615766 9.047985e-05 0.065767996 0.014978766
0.071307935 0.02370659 -0.054274976 0.09815615 0.05082667 -0.067054175 -0.08527409 -0.04542042
-0.09616444 0.013272727 -0.09396445 -0.017883813 -0.076921694 0.027412808 0.06629707 0.05390376
-0.059667554 0.053091656 -0.07778456 -0.040687084 -0.06894884 0.010670686 0.05230818 -0.034035362
-0.07857736 0.006041098 -0.08364411 -0.097821765 0.07998456 -0.009420049 0.05266248 0.08576848
-0.019455303 0.09410578 0.06250113 0.064483024 0.02931732 -0.011641944 -0.015337467 -0.04701164
-0.037594438 -0.00025122167 0.022334946 0.07648893 0.00026681423 0.016762197 0.030163825 0.021664822
0.02141955 -0.018649627 -0.031165516 0.022525156 -0.006047332 0.043559637 0.052167512 0.03524027
0.029346203 -0.03376626 -0.04010118 0.04212742 -0.014773858 0.015158164 0.08477159 0.080571175
-0.0030003549 -0.09840428 -0.004621518 0.0073515656 0.04110824 0.08945574 0.06432712 -0.08578545
00000000: 77a7 7c3d 1b96 ae3d 6730 b63a 40cd 0e3c
00000010: 9f9d 88bd b339 9ebc 8d14 423d 006a b43c
00000020: 97b3 3bbd edd7 873d 3324 623b 3056 b83d
00000030: 1aea 493d 8aa5 1fbd fd38 443d 9aa8 0f3b
00000040: e772 5ebc 0ac9 acbd 10f6 3cbd 1df8 a4bd
00000050: 8dfb 2a3d 8d39 9abc 15db a03d ba99 b3bc
00000060: a56c 88bd 9a90 19bc 4d84 86bc 807d 053d
00000070: 33fb dfb9 382d 9cbd 0d67 2e3d 4db4 203d
00000080: 57ca 4f3d e023 9d3d 3fda 8a3d 2a30 873d
00000090: 5001 93bd 3bf2 8abd 236c 343d 8a1e 133d
000000a0: c033 e63c 00b9 f53c b50a 8bbd a3e9 86bd
000000b0: 55ca 8abd 930d 8c3d 6a05 12bd 7544 903d
000000c0: a835 9bbd c07f 8cbd e029 a5bc 8032 d2bb
000000d0: 4323 963d 5aae 743c 5d45 88bd 6371 9cbd
000000e0: 6a81 0b3d 08d3 983d 121a 84bd cd80 b63d
000000f0: efe7 86bd 202b bc3c f711 6cbd 021f 913d
00000100: 10b8 013d 2777 7c3c c7bd 4fbd b343 cf3c
00000110: 5d97 803d 8b1b cb3d 3550 8e3d 6073 92bd
00000120: 9a05 cabb 2775 a53c bfd5 b43d b756 353d
00000130: 4891 c8bd 7f42 bebd bd88 bc3d 97d8 afbd
00000140: d27c 873d c724 f83c 8d57 31bd 2854 91bd
00000150: 67b0 a13d 00de a13d f737 63bd bdf3 143d
00000160: ad38 f7bc db78 ab3d 95a6 80bd e754 74bd
00000170: 97f2 20bd 6023 4f3d 95f9 a7bd b013 6cbd
00000180: ad0b c2bd a7b3 1c3d 8fa7 af3d da1d c83d
00000190: 2a1b 223d 9572 973d 6092 93bd 0791 90bc
000001a0: 63a7 2fbd 00ad 92bd c77e 6dbd 4b04 8ebd
000001b0: 9a46 6fbc c003 5c3c 7d31 b63d f7b6 4ebd
000001c0: 202f b13c 5226 b1bd a0b2 36bd a7df abbd
000001d0: 4d2a 12bd 63f0 423d 8381 b63d 50d3 22bd
000001e0: 6779 013b 0a7e 86bd 3a38 87bc e033 52bd
000001f0: c0f7 8e3d d091 c2bd babd 233d 05d5 c03d
00000200: 8da5 22bd 6718 133d bd79 2b3d 1a99 e3bc
00000210: cb17 9fbd a32d c93d 3385 b3ba d09e 67bd
00000220: ba2a f7bc ca8d 96bd 5a5d 57bc 3372 81bd
00000230: 4727 3ebd 7d71 4a3d c0c7 603d 00b7 773b
00000240: 4022 3ebd 4a54 a2bd c0ab 283d 9a0e 953d
00000250: b354 833b a086 823c c05c f83c e79b de3c
00000260: add1 953d da13 5b3c ad41 4f3d 1a2e 533d
00000270: b3a2 debc 93fa 983c 9380 00bd a785 c53d
00000280: b77a 293d 6dcc bb3d a725 d23c ddc6 373d
00000290: cd82 8a3a a091 5d3d 7355 cabd 60c7 bc3c
000002a0: 33b5 45bd 388c a9bd dab9 3bbc ba42 d73c
000002b0: 8de5 203c 507a c0bd c833 863d 6012 723d
000002c0: 33d9 b1bd 9005 003d f38d c4bc 9bc5 89bd
000002d0: b344 b9bc 00c0 bd38 5fb1 863d 8069 753c
000002e0: e509 923d 5334 c23c 704f 5ebd 1706 c93d
000002f0: a02f 503d b353 89bd 2fa4 aebd c30a 3abd
00000300: ddf1 c4bd da75 593c 6f70 c0bd 1381 92bc
00000310: 1f89 9dbd d390 e03c c2c6 873d 30ca 5c3d
00000320: f765 74bd a376 593d 834d 9fbd 80a7 26bd
00000330: 0d35 8dbd 1ad4 2e3c 1a41 563d aa68 0bbd
00000340: 2bed a0bd 67f4 c53b 9a4d abbd c756 c8bd
00000350: f2ce a33d 8d56 1abc 9db4 573d 63a7 af3d
00000360: ba60 9fbc 88ba c03d 9800 803d ad0f 843d
00000370: e02a f03c dabd 3ebc 004a 7bbc 478f 40bd
00000380: a0fc 19bd 67b6 83b9 c7f7 b63c 3aa6 9c3d
00000390: 33e3 8b39 e050 893c 201a f73c 6d7a b13c
000003a0: 0d78 af3c 1ac7 98bc d34e ffbc ad86 b83c
000003b0: b328 c6bb 976b 323d 9aad 553d 1a58 103d
000003c0: 7367 f03c 7d4e 0abd 2341 24bd cd8d 2c3d
000003d0: 0d0e 72bc f359 783c ba9c ad3d 8002 a53d
000003e0: 9aa1 44bb 2f88 c9bd 1a70 97bb 67e5 f03b
000003f0: 1d61 283d 9234 b73d f0bd 833d 48b0 afbd

encoder.l2.bias f4 [50]
-0.059207823 -0.0773973 0.0840941 -0.026076138 -0.046302643 -0.0299497 0.09045011 0.057286512
-0.051464986 -0.031066095 -0.06771012 -0.04581964 -0.03305719 0.09172604 -0.019773353 0.08183967
0.08005088 -0.0044723153 0.08052438 -0.09326005 0.016343975 0.059664857 0.056966484 -0.023726894
-0.09206231 -0.038331795 0.042025696 -0.00019886495 0.084815614 -0.07409369 0.098569684 -0.053462543
-0.077284716 -0.094727926 -0.01632613 -0.064044796 -0.0027103783 -0.028033627 0.08811819 0.0005204916
0.029012788 0.022219563 -0.052109875 0.008586014 0.0036723854 0.06624422 -0.09893342 -0.09068886
-0.06937485 -0.08742601
00000000: e783 72bd 7a82 9ebd 8739 ac3d a09d d5bc
00000010: d7a7 3dbd 1359 f5bc e83d b93d 43a5 6a3d
00000020: f3cc 52bd 537e febc 9aab 8abd 60ad 3bbd
00000030: fa66 07bd ddda bb3d bafb a1bc 8f9b a73d
00000040: b7f1 a33d 808c 92bb f7e9 a43d 20ff bebd
00000050: cde3 853c 2363 743d b055 693d e75e c2bc
00000060: 2a8b bcbd cd01 1dbd 2323 2c3d 6786 50b9
00000070: cfb3 ad3d 6fbe 97bd e7de c93d 8afb 5abd
00000080: 7347 9ebd b700 c2bd 60be 85bc eb29 83bd
00000090: 9aa0 31bb c7a6 e5bc 4f77 b43d 9a71 083a
000000a0: 3aac ed3c cd05 b63c 2a71 55bd 5aac 0c3c
000000b0: 67ac 703b 0dab 873d 9b9d cabd 15bb b9bd
000000c0: 6714 8ebd 680c b3bd

lstm.weight_ih f4 [200, 50]
-0.085429266 0.090564586 -0.012207556 0.05809572 0.04523263 -0.009669423 0.020144284 0.016127026
-0.08705217 -0.01799556 0.07399064 -0.06332145 -0.07364502 0.07617775 -0.08213707 -0.047567558
0.072229184 -0.078815416 -0.050730374 -0.06923983 -0.036052454 -0.087292455 -0.03905667 0.006543815
0.02478025 0.05143515 0.030261433 -0.086410575 -0.080636285 0.048061658 0.06315316 -0.07982812
-0.053758122 -0.06856241 0.07730793 0.012082541 -0.00962838 0.03148198 0.0580009 -0.032778945
0.0042945505 0.06867025 -0.06955542 -0.063197136 0.05422927 -0.011683285 0.019449843 0.00011909008
0.08869109 0.05147971 0.090609744 -0.041556478 0.07856407 -0.020926297 0.052352335 -0.037746202
0.08607413 -0.030039502 -0.013838899 -0.037315454 0.058959484 -0.0076092365 -0.041589975 -0.033251144
-0.04441097 -0.02953788 0.07320615 -0.051068522 0.022956073 -0.07337775 -0.062083032 -0.09283222
0.07057126 0.046469357 -0.080139115 0.07008008 0.022529675 0.053592145 0.041776944 0.01389668
0.019419266 0.0044216993 -0.031598162 0.085320495 -0.04171337 0.016119147 -0.050629973 -0.040837597
-0.0817572 0.032310974 0.021734083 -0.029004587 0.040692437 0.040035427 0.048734795 -0.03411435
0.032862235 0.05827955 0.029177904 -0.08187506 0.071663104 -0.044715356 -0.064693354 -0.09915348
0.052817907 0.0835469 0.078027345 -0.052979626 0.0029657127 0.056343436 -0.08570992 0.032082703
-0.024772514 0.043495238 -0.07444358 0.051329304 0.03740252 0.0011595249 -0.034870055 -0.0933299
0.060991015 0.07215744 0.06541236 -0.04117948 0.04514271 0.047766056 -0.060473263 0.08928096
-0.07636183 -0.024323596 -0.055748332 0.035233747 0.05238247 -0.07393028 0.080362715 0.00539428
0.029980933 -0.06424345 2.2673607e-05 -0.093374096 -0.017771756 -0.053808477 -0.0025134564 -0.09794021
-0.007397115 -0.045730866 -0.02559712 0.0011204839 -0.020482242 -0.072194755 0.05078 -0.014429069
-0.08473124 0.015456033 0.048492122 0.030657792 -0.02731656 0.050660636 0.015777564 0.0066916705
0.08956572 -0.051291574 0.029225303 0.01104747 0.065385975 -0.096353054 -0.044736087 0.031362306
-0.07820096 -0.093488574 0.055652298 -0.06921033 -0.046799567 -0.028239418 0.09749249 0.010108399
0.01881869 0.09311109 0.057655443 -0.07806356 -0.056183554 0.07032322 0.09113599 0.0843605
-0.025318135 -0.07655078 -0.072136596 0.06436946 0.045027316 -0.027326822 -0.06684585 -0.03965292
-0.021536482 -0.08320037 -0.0084475875 -0.086596094 -0.0027965307 -0.09640683 0.07530228 -0.010881126
0.085933864 -0.0067207217 -0.03237741 0.040458918 0.018791927 -0.052223112 -0.006723416 0.032169174
-0.01764263 0.070393644 -0.05160116 0.07354045 -0.06403402 -0.073495224 -0.03602002 -0.017505122
-0.07501127 -0.034205556 0.06633949 -0.07019861 0.03294165 0.016116584 0.08232041 0.086383656
-0.09311245 0.0491603 -0.09963902 0.035190262 -0.014081824 0.07363143 -0.007378638 0.06319715
-0.0525314 0.09351768 -0.008647955 -0.004065025 0.09270378 -0.08003402 -0.0048720003 0.08604151
-0.07582926 -0.026932526 -0.07905308 -0.05082413 0.026684154 0.057782162 0.046334386 0.060991168
-0.050572503 -0.003673947 0.008135021 -0.06796644 0.045962837 0.042765107 0.0017633081 0.042875934
00000000: 8af5 aebd ed79 b93d 3302 48bc c7f5 6d3d
00000010: da45 393d 806c 1ebc a005 a53c d31c 843c
00000020: 6848 b2bd 6d6b 93bc 6888 973d adae 81bd
00000030: 33d3 96bd 1503 9c3d 7b37 a8bd 33d6 42bd
00000040: e5ec 933d fa69 a1bd a7ca 4fbd 9dcd 8dbd
00000050: bdab 13bd 63c6 b2bd e3f9 1fbd 806d d63b
00000060: f3ff ca3c aaad 523d d3e6 f73c 07f8 b0bd
00000070: a324 a5bd 4ddc 443d 7256 813d ed7c a3bd
00000080: 7a31 5cbd 736a 8cbd 9f53 9e3d daf5 453c
00000090: 5ac0 1dbc 40f3 003d 5a92 6d3d 3743 06bd
000000a0: 4db9 8c3b fda2 8c3d 1273 8ebd 806d 81bd
000000b0: 831f 5e3d 406b 3fbc 4755 9f3c 00c0 f938
000000c0: ada3 b53d 63dc 523d 9a91 b93d 2037 2abd
000000d0: 33e6 a03d a06d abbc 676f 563d c39b 1abd
000000e0: a247 b03d 6715 f6bc 8dbc 62bc 17d8 18bd
000000f0: 807f 713d e756 f9bb 405a 2abd 5a32 08bd
00000100: 47e8 35bd 6df9 f1bc 1bed 953d 3a2d 51bd
00000110: 600e bc3c 1347 96bd c74a 7ebd d21e bebd
00000120: aa87 903d a756 3e3d fa1f a4bd 2586 8f3d
00000130: 2790 b83c 7083 5b3d 4d1e 2b3d e7ae 633c
00000140: 2715 9f3c e7e3 903b 136d 01bd 83bc ae3d
00000150: a3db 2abd 4d0c 843c 6061 4fbd 5345 27bd
00000160: 5270 a7bd 8358 043d ad0b b23c 079b edbc
00000170: 1dad 263d 30fc 233d 239e 473d 7dbb 0bbd
00000180: 8d9a 063d 8ab6 6e3d 8006 ef3c 1dae a7bd
00000190: 1bc4 923d 7327 37bd f37d 84bd fb10 cbbd
000001a0: 9757 583d a31a ab3d cdcc 9f3d 2a01 59bd
000001b0: 675c 423b 60c8 663d af88 afbd 2769 033d
000001c0: baef cabc 1028 323d e075 98bd ad3e 523d
000001d0: 6333 193d 33fb 973a e7d3 0ebd bf23 bfbd
000001e0: b7d1 793d 48c7 933d eaf6 853d d0ab 28bd
000001f0: 90e7 383d 57a6 433d d0b2 77bd f0d8 b63d
00000200: 9763 9cbd 4742 c7bc 5d58 64bd 4351 103d
00000210: 008f 563d c268 97bd 3595 a43d 80c2 b03b
00000220: 939a f53c 1292 83bd 3333 be37 eb3a bfbd
00000230: 1396 91bc 4766 5cbd cdb8 24bb e094 c8bd
00000240: 8063 f2bb 4a50 3bbd 0db1 d1bc 33dd 923a
00000250: 60ca a7bc d8da 93bd b0fe 4f3d e767 6cbc
00000260: 9387 adbd 4d3b 7d3c ad9f 463d 0d26 fb3c
00000270: fac6 dfbc 8781 4f3d f33f 813c cd45 db3b
00000280: 3b6e b73d 1d17 52bd e769 ef3c 7300 353c
00000290: 15e9 853d c054 c5bd 303d 37bd c375 003d
000002a0: d327 a0bd f076 bfbd aaf3 633d 25be 8dbd
000002b0: e7b0 3fbd 5a56 e7bc 25aa c73d b39d 253c
000002c0: a729 9a3c 07b1 be3d 1d28 6c3d cadf 9fbd
000002d0: ba20 66bd 9f05 903d 82a5 ba3d 33c5 ac3d
000002e0: fa67 cfbc a8c6 9cbd 5abc 93bd 23d4 833d
000002f0: 906e 383d 80dc dfbc 7ae6 88bd 1a6b 22bd
00000300: 476d b0bc f564 aabd c067 0abc 4b59 b1bd
00000310: 0046 37bb f270 c5bd 1538 9a3d c046 32bc
00000320: 18fe af3d 8039 dcbb 2d9e 04bd 40b8 253d
00000330: 87f1 993c e7e7 55bd 1a50 dcbb d3c3 033d
00000340: 4787 90bc 8b2a 903d bd5b 53bd 609c 963d
00000350: 4524 83bd aa84 96bd ba89 13bd e766 8fbc
00000360: 829f 99bd 201b 0cbd 00dd 873d 4ac4 8fbd
00000370: d3ed 063d ed06 843c 9a97 a83d eae9 b03d
00000380: bdb1 bebd 505c 493d 8b0f ccbd aa23 103d
00000390: 73b7 66bc 13cc 963d 80c8 f1bb 826d 813d
000003a0: 2a2b 57bd 3386 bf3d 27b0 0dbc e733 85bb
000003b0: 7bdb bd3d e0e8 a3bd 4da5 9fbb 8836 b03d
000003c0: 5f4c 9bbd 9aa1 dcbc 95e6 a1bd f72c 50bd
000003d0: ba98 da3c fdac 6c3d 20c9 3d3d e0d1 793d
000003e0: 1d25 4fbd 9ac6 70bb c048 053c fd31 8bbd
000003f0: 8743 3c3d 772a 2f3d cd1e e73a ad9e 2f3d

lstm.weight_hh f4 [200, 50]
0.085671805 -0.025426282 0.010043263 -0.030121518 0.003834176 0.04156306 0.042553987 -0.05661119
-0.07355392 0.010275972 0.0019366741 -0.047737062 -0.09076785 -0.08257013 -0.008981061 0.036427964
0.029009854 -0.051196553 -0.08168612 -0.0473374 0.009906757 0.04209417 0.05359403 -0.036351275
0.040886607 -0.078736655 0.055817425 0.065922394 0.03254011 0.042515684 -0.09509265 0.0149087785
0.035381842 0.092792384 -0.0043224334 0.009654951 0.0052435994 -0.016907752 -0.03356098 0.06660032
-0.07748641 -0.037252035 -0.021103455 -0.06705587 -0.0747356 -0.016113793 0.093727686 0.0752156
0.07960007 0.07704514 0.06682568 0.012521076 -0.09437549 -0.08680146 0.007206118 -0.014287496
0.099057 0.061101068 0.034799706 -0.066791914 0.01147902 0.019136464 0.0058696154 0.081223585
-0.08005686 -0.07671688 0.016432298 -0.0780254 -0.031758737 0.0017291665 -0.0063604596 -0.030744636
-0.09373381 0.08869558 -0.09473144 0.09927493 -0.05579251 0.033986118 -0.06488468 -0.0068053366
-0.04674697 -0.033539176 -0.07672824 -0.066122435 0.040604044 0.06857468 -0.09468154 -0.040511716
0.008855641 0.09645376 0.07075019 -0.08909307 -0.07927016 -0.01202147 0.08564984 0.04662342
-0.044031918 -0.07893451 -0.08206069 0.025273358 -0.062253203 0.00050381426 0.033444703 0.041714918
-0.06304599 0.06906595 0.087077096 0.0029466033 0.060349226 -0.024235202 0.00086083414 -0.011983657
0.0053295256 -0.06928902 -0.0044913176 -0.0137503985 0.081579864 -0.05020919 -0.03437494 0.08362154
-0.045651473 -0.044491556 0.07756319 0.038524915 0.070384875 0.06093184 -0.08164827 -0.09744507
-0.005948222 -0.0022128343 0.05106255 0.09947888 0.07912183 0.033690322 0.050131142 0.07943138
0.0674898 0.020009805 -0.058021378 -0.07342414 -0.011308777 0.0074050906 0.029195417 0.099408925
-0.07380571 0.055947434 0.00847435 0.003876412 -0.09386156 0.0638917 0.014074397 -0.017860388
0.05537013 -0.049588382 -0.04206506 0.017254805 0.07614535 -0.05968919 0.09375622 0.07523383
0.06793813 0.015737593 -0.03212917 -0.0028600337 0.04202188 0.09551668 -0.0030167103 0.08913459
0.047938373 -0.059344698 -0.087345794 -0.080814384 -0.07839751 0.07336265 0.0733817 0.08301903
-0.08712386 -0.056284796 0.08521228 0.006246829 0.024109935 0.05400307 0.08531618 0.05576414
-0.046283733 0.013102186 0.035130203 0.02197398 -0.022117509 -8.512736e-05 0.047699988 -0.031467438
-0.030118203 -0.02702334 -0.07678502 0.023316681 0.0056431293 0.04047252 -0.032990098 -0.056641664
-0.046430197 0.09983679 -0.0415149 -0.09560769 -0.05463172 -0.021574998 0.09124311 -0.052890386
0.09566863 -0.026536692 -0.039272346 -0.026051903 -0.098161474 -0.08286076 -0.018481446 0.074571684
-0.045835853 0.03807416 -0.012452865 -0.08026718 0.061078884 -0.01774236 -0.060035706 0.018715143
-0.015492844 0.026441539 -0.008546257 0.0008079648 -0.046189774 0.07860867 -0.050765958 -0.020238543
0.059794154 0.040966142 0.059748936 0.0004378915 0.042171862 -0.04441085 0.01587317 -0.075720206
0.056547403 0.032689463 0.0022642256 0.06277454 0.05631199 -4.9233437e-05 0.06533712 -0.046787977
-0.026136471 -0.096987344 -0.063312486 0.03160539 -0.007006872 -0.015207291 0.06934625 0.023819996
00000000: b374 af3d c74a d0bc 808c 243c 67c1 f6bc
00000010: cd46 7b3b 073e 2a3d 174d 2e3d 23e1 67bd
00000020: 70a3 96bd 8d5c 283c 00d8 fd3a f087 43bd
00000030: 7fe4 b9bd 871a a9bd 4d25 13bc 7d35 153d
00000040: 13a6 ed3c 7ab3 51bd 0d4b a7bd dde4 41bd
00000050: f34f 223c f06a 2c3d 6a85 5b3d 13e5 14bd
00000060: b778 273d af40 a1bd d0a0 643d 5202 873d
00000070: c748 053d ed24 2e3d efbf c2bd f343 743c
00000080: 8dec 103d ef09 be3d 33a3 8dbb cd2f 1e3c
00000090: 80d2 ab3b 2082 8abc 3d77 09bd c065 883d
000000a0: 32b1 9ebd 9795 18bd 27e1 acbc 9754 89bd
000000b0: fa0e 99bd 1301 84bc 4df4 bf3d a30a 9a3d
000000c0: 5d05 a33d d8c9 9d3d e7db 883d 3325 4d3c
000000d0: f047 c1bd f7c4 b1bd 4d21 ec3b 1a16 6abc
000000e0: 65de ca3d 1d45 7a3d 238a 0e3d 33ca 88bd
000000f0: 8012 3c3c 13c4 9c3c e755 c03b 8d58 a63d
00000100: daf4 a3bd bd1d 9dbd 079d 863c c8cb 9fbd
00000110: 7315 02bd 33a5 e23a 676b d0bb 2ddc fbbc
00000120: 83f7 bfbd 07a6 b53d 8f02 c2bd a850 cb3d
00000130: b086 64bd 0735 0b3d 42e2 84bd 4dff debb
00000140: c079 3fbd 6060 09bd b223 9dbd 336b 87bd
00000150: 6d50 263d e270 8c3d 65e8 c1bd 9def 25bd
00000160: 4017 113c 8d89 c53d 7ae5 903d 6d76 b6bd
00000170: 6558 a2bd b3f5 44bc 2f69 af3d 33f8 3e3d
00000180: d05a 34bd 6ba8 a1bd 6f0f a8bd 130a cf3c
00000190: 37fd 7ebd 6712 043a 50fd 083d 43dd 2a3d
000001a0: 421e 81bd 7372 8d3d 7a55 b23d cd1b 413b
000001b0: c030 773d e788 c6bc 9aa9 613a 1a57 44bc
000001c0: 4da3 ae3b 67e7 8dbd e72b 93bb 5a49 61bc
000001d0: 5813 a73d 27a8 4dbd bdcc 0cbd c541 ab3d
000001e0: 0afd 3abd c73c 36bd 73d9 9e3d 4dcc 1d3d
000001f0: f225 903d aa93 793d 3537 a7bd 4891 c7bd
00000200: 4de9 c2bb 3305 11bb f726 513d 95bb cb3d
00000210: a00a a23d ddfe 093d 5056 4d3d ebac a23d
00000220: 1838 8a3d 9aeb a33c d3a7 6dbd 655f 96bd
00000230: 7348 39bc 67a6 f23b 3a2b ef3c e896 cb3d
00000240: 7327 97bd 2329 653d 00d8 0a3c 670b 7e3b
00000250: 7d3a c0bd a7d9 823d 4d98 663c f34f 92bc
00000260: cacb 623d 301d 4bbd 6a4c 2cbd f359 8d3c
00000270: 18f2 9b3d a77c 74bd 4303 c03d 3214 9a3d
00000280: 2523 8b3d 20ec 803c e099 03bd 676f 3bbb
00000290: 231f 2c3d 409e c33d 00b4 45bb 328c b63d
000002a0: 075b 443d 6d13 73bd 5ae2 b2bd 0382 a5bd
000002b0: e08e a0bd 283f 963d 2549 963d e205 aa3d
000002c0: ff6d b2bd e38a 66bd c783 ae3d 33b2 cc3b
000002d0: 3382 c53c 5332 5d3d 40ba ae3d f068 643d
000002e0: 0394 3dbd 8daa 563c b0e4 0f3d c702 b43c
000002f0: c72f b5bc 6786 b2b8 1061 433d 00e4 00bd
00000300: 73ba f6bc 0d60 ddbc 7741 9dbd a002 bf3c
00000310: 00ea b83b 83c6 253d a020 07bd 1701 68bd
00000320: 972d 3ebd 3b77 cc3d 870b 2abd f7cd c3bd
00000330: 83c5 5fbd 0dbe b0bc abdd ba3d 97a3 58bd
00000340: eaed c33d 7a63 d9bc 0adc 20bd cd6a d5bc
00000350: e208 c9bd e7b2 a9bd 6766 97bc 0ab9 983d
00000360: 60be 3bbd a7f3 1b3d 1a07 4cbc 1f63 a4bd
00000370: da2d 7a3d 6d58 91bc 00e8 75bd 8050 993c
00000380: b3d5 7dbc ed9b d83c 9a05 0cbc 9acd 533a
00000390: 7d31 3dbd 95fd a03d f7ef 4fbd 4dcb a5bc
000003a0: b7ea 743d 1dcc 273d 4dbb 743d cd94 e539
000003b0: 67bc 2c3d 27e8 35bd 7308 823c 3213 9bbd
000003c0: 409e 673d 63e5 053d 6763 143b f08f 803d
000003d0: 67a7 663d 0080 4eb8 78cf 853d c0a4 3fbd
000003e0: 271c d6bc 4da1 c6bd faa9 81bd a774 013d
000003f0: e799 e5bb 0028 79bc 6805 8e3d 2722 c33c

lstm.bias_ih f4 [200]
0.018793572 -0.0680333 0.027698075 0.07415608 0.040267933 -0.093500555 -0.00040870905 0.039465394
-0.09110959 -0.0038885118 -0.0002162695 0.009152949 -0.02645954 -0.044544112 0.07468212 -0.080514096
-0.0384442 -0.05395428 -0.029588938 0.044579446 -0.08623282 -0.072511606 0.07316098 -0.020932091
0.06746539 -0.023285413 0.031168843 0.006541181 0.039591063 -0.07528448 0.072306894 0.036419787
0.08798003 -0.07326426 0.024340415 0.08203264 0.049818255 0.09154015 0.077105306 0.08475993
0.06466941 -0.05199019 0.097974315 -0.08859541 0.058971312 -0.09766381 -0.02964586 0.03140173
0.012799406 -0.009957671 0.05540366 -0.083190635 -0.04645548 0.06223618 0.016969575 -0.038586497
0.03517982 0.011106503 0.0026735903 -0.050723206 -0.05136559 0.003418386 -0.001897335 -0.07952293
0.06374514 -0.09196671 -0.017814958 -0.011180282 -0.039210405 0.017321397 -0.033281017 0.09151194
0.0042186617 -0.08756232 0.032983303 0.08873626 -0.055725932 -0.03907112 0.050693788 -0.052249778
-0.059509348 0.09510069 0.04876391 0.040937748 0.08797403 0.08275541 -0.019349767 0.01772579
-0.0016241312 0.068852596 -0.01272018 -0.022214258 -0.09986395 -0.020206785 -0.023017144 0.044824865
0.027329266 0.06874945 -0.020889653 0.04372224 0.07849456 -0.08904351 -0.047305167 -0.031273093
-0.012457716 0.08937824 -0.08471699 -0.090101495 -0.09972242 -0.033669114 -0.07106596 0.07630845
0.0697813 -0.0399457 -0.09754922 -0.08186529 0.061445713 0.035580873 -0.014005244 0.035768535
0.034362245 -0.03311001 0.03735274 -0.073484235 0.091089904 0.05539737 0.061598133 0.009466159
0.081368916 0.08736868 -0.026011765 -0.08955064 -0.042839933 -0.046818733 0.055988442 0.024008011
0.05633502 -0.061859846 -0.08793046 -0.046329986 0.03483328 -0.088015996 -0.018706834 0.032673467
-0.07157166 -0.06258726 -0.029494882 0.051147114 -0.032645464 -0.09595821 0.040481057 0.09811347
0.06660159 -0.06773199 0.016126443 0.08511879 -0.038724888 0.08920043 0.09375196 -0.0731311
-0.049073815 -0.09911964 -0.07686199 0.07218676 -0.019088864 -0.08159862 -0.06270521 0.037276566
0.06733123 -0.015270031 -0.025005687 0.076970555 -0.011155105 0.01741941 -0.018692816 -0.033942726
-0.08510401 0.04193771 -0.07416333 0.08889381 -0.012900245 -0.06816917 0.0384192 0.04758693
0.031588197 -0.078100026 -0.060419787 -0.076975204 0.062870346 -0.003254187 -0.08413048 0.045938708
-0.059049834 -0.02629149 -0.006178856 0.06061492 0.003031075 -0.027413202 -0.0898472 0.06966692
00000000: faf4 993c 0b55 8bbd 13e7 e23c 25df 973d
00000010: fdef 243d 387d bfbd 0048 d6b9 77a6 213d
00000020: aa97 babd 67d6 7ebb 67c6 62b9 40f6 153c
00000030: adc1 d8bc e373 36bd f0f2 983d 93e4 a4bd
00000040: aa77 1dbd 2aff 5cbd 8064 f2bc f098 363d
00000050: d59a b0bd f780 94bd 6dd5 953d c779 abbc
00000060: 4b2b 8a3d 0dc1 bebc cd55 ff3c 6757 d63b
00000070: 3d2a 223d c02e 9abd a315 943d ea2c 153d
00000080: e02e b43d 930b 96bd 8d65 c73c bb00 a83d
00000090: 3a0e 4c3d 6779 bb3d 63e9 9d3d 9d96 ad3d
000000a0: 6571 843d aaf3 54bd c2a6 c83d 8371 b5bd
000000b0: e78b 713d f703 c8bd e0db f2bc 1a9f 003d
000000c0: 9ab4 513c 8025 23bc f3ee 623d da5f aabd
000000d0: 1a48 3ebd 5deb 7e3d c703 8b3c e00c 1ebd
000000e0: b718 103d 0df8 353c 6737 2f3b 23c3 4fbd
000000f0: ba64 52bd 0007 603b 00b0 f8ba ebdc a2bd
00000100: d08c 823d 0b59 bcbd adf0 91bc 802d 37bc
00000110: 179b 20bd 9ae5 8d3c ad51 08bd 9d6a bb3d
00000120: b33c 8a3b e053 b3bd 8019 073d 5bbb b53d
00000130: e040 64bd 0a09 20bd 4aa4 4f3d dd03 56bd
00000140: 13c0 73bd 27c4 c23d aabc 473d 57ae 273d
00000150: ba2b b43d ab7b a93d 6783 9ebc ad35 913c
00000160: cde0 d4ba 9702 8d3d 4d68 50bc adfa b5bc
00000170: 7885 ccbd b388 a5bc 738e bcbc 479a 373d
00000180: a0e1 df3c 83cc 8c3d c720 abbc 1716 333d
00000190: c2c1 a03d 725c b6bd 10c3 41bd 3718 00bd
000001a0: 731b 4cbc f00b b73d 1a80 adbd 2287 b8bd
000001b0: 453b ccbd a0e8 09bd 088b 91bd 9b47 9c3d
000001c0: 80e9 8e3d 1a9e 23bd e3c7 c7bd fda8 a7bd
000001d0: 80ae 7b3d 40bd 113d 4076 65bc 0782 123d
000001e0: 6dbf 0c3d 5d9e 07bd 30ff 183d e77e 96bd
000001f0: 588d ba3d 5ae8 623d 534e 7c3d f317 1b3c
00000200: bfa4 a63d 5aee b23d a016 d5bc 5366 b7bd
00000210: ed78 2fbd 00c5 3fbd 2354 653d 73ac c43c
00000220: 8dbf 663d c060 7dbd e314 b4bd 83c4 3dbd
00000230: 57ad 0e3d bb41 b4bd 133f 99bc 9dd4 053d
00000240: 2a94 92bd c02d 80bd 409f f1bc a37f 513d
00000250: 40b7 05bd bd85 c4bd 77cf 253d b7ef c83d
00000260: 6a66 883d 12b7 8abd 9a1b 843c c352 ae3d
00000270: fd9d 1ebd b7ae b63d 0701 c03d c2c5 95bd
00000280: a001 49bd 3dff cabd d269 9dbd a7d6 933d
00000290: 4060 9cbc 2d1d a7bd 976b 80bd 50af 183d
000002a0: f5e4 893d 272f 7abc bad8 ccbc bda2 9d3d
000002b0: e7c3 36bc 27b3 8e3c ad21 99bc 8707 0bbd
000002c0: 034b aebd e0c6 2b3d f2e2 97bd f50d b63d
000002d0: 8d5b 53bc 479c 8bbd 735d 1d3d 83ea 423d
000002e0: a062 013d e8f2 9fbd bd7a 77bd 2da5 9dbd
000002f0: 2bc2 803d 3344 55bb 9a4c acbd 3a2a 3c3d
00000300: 3dde 71bd 4061 d7bc 0078 cabb 5a47 783d
00000310: 00a5 463b a791 e0bc cf01 b8bd 88ad 8e3d

lstm.bias_hh f4 [200]
0.048400987 -0.053102996 0.0039487365 0.09849057 0.041131783 0.09234556 0.09038059 0.07272046
0.049692106 -0.049110558 0.012852311 0.06877517 -0.08180386 -0.00063933135 -0.017917419 -0.07332086
-0.051025596 0.0035136582 -0.012848914 -0.04001805 0.08619858 -0.072523616 -0.065180376 -0.05401813
-0.062781215 -0.09288216 -0.047017206 0.02915969 -0.08511642 0.028675675 -0.056211222 0.0053431513
-0.058223058 -0.09090706 -0.072856866 -0.04755647 0.017413473 -0.06785648 -0.06682962 0.09737243
-0.05472659 -0.04684018 -0.08094797 -0.035940148 -0.06806629 -0.05502912 0.057715274 0.08890589
0.043309677 -0.0346712 0.04115951 -0.081687145 0.079728305 0.051249363 0.08354906 -0.007804525
0.040879812 -0.06065444 -0.030526375 -0.02682401 -0.07622615 -0.07891982 0.051883616 -0.085102096
0.09055698 0.04625548 0.08952501 0.08736626 -0.04956254 -0.049699035 0.02299118 -0.05520047
-0.011869216 -0.012866855 0.03983697 -0.047624495 0.09496287 0.050720133 -0.05855446 0.060619354
-0.066790104 -0.032367766 0.085760474 -0.012047517 -0.015862215 0.007874715 0.026176214 0.060902596
0.020184029 -0.042374074 0.021640314 0.033368435 -0.09974295 0.08136838 0.098142676 0.084312536
0.05690397 -0.04985998 -0.045246806 -0.06413721 -0.07754803 0.010174978 -0.021994783 0.070886925
-0.03463427 -0.060790528 -0.042482853 0.09228957 0.05622984 -0.08441132 -0.049958896 -0.07875184
-0.05210898 -0.011519504 0.055748094 0.04771309 -0.02623651 -0.010923422 0.08533984 -0.028204357
-0.09574085 -0.0409477 0.072646916 0.0589679 -0.010681069 0.0287503 -0.08886117 -0.07706088
0.052189875 -0.047187235 -0.077336326 0.054582335 0.099219196 0.037864815 0.076929905 -0.011398983
-0.041883495 -0.012922764 -0.096672796 -0.041699063 0.04569521 0.097140215 -0.033789504 0.04211011
-0.053514637 0.078736894 -0.015787566 -0.08238055 -0.06447704 -0.012619734 -0.07380586 -0.038771298
0.05396483 -0.050881412 -0.025753355 0.0122370245 -0.08520347 0.025407577 0.049281 0.057061043
-0.06745859 -0.030337859 -0.008891046 -0.040788293 0.043978002 -0.0049419883 0.006900215 0.0077059986
-0.096016966 0.052155543 0.0369627 -0.046169102 0.039034393 -0.024188971 -0.059758224 -0.08603469
-0.01738813 0.005451298 0.096510045 -0.02578528 0.077282086 -0.03873519 0.017827762 0.051414263
-0.05994563 -0.018582761 0.021554101 -0.09890785 0.018268121 -0.09356476 -0.095055595 0.098750785
0.051171567 0.05847299 0.041985273 -0.054317035 0.045164693 0.0039292336 0.05853778 0.008888423
00000000: 1d40 463d 8782 59bd 6764 813b 6db5 c93d
00000010: cd79 283d ab1f bd3d 7519 b93d 77ee 943d
00000020: f389 4b3d 2728 49bd 8092 523c ffd9 8c3d
00000030: c888 a7bd cd98 27ba 8dc7 92bc 3f29 96bd
00000040: 3700 51bd 6745 663b 4084 52bc f7e9 23bd
00000050: e288 b03d 4387 94bd 4a7d 85bd 1d42 5dbd
00000060: 7093 80bd 0039 bebd 1d95 40bd 4de0 ee3c
00000070: 8551 aebd 40e9 ea3c bd3d 66bd 9a15 af3b
00000080: 4d7b 6ebd 7b2d babd fb35 95bd 93ca 42bd
00000090: b3a6 8e3c 57f8 8abd f8dd 88bd 326b c73d
000000a0: fd28 60bd 7ddb 3fbd 0dc8 a5bd fa35 13bd
000000b0: 5766 8bbd 3766 61bd da66 6c3d 4b14 b63d
000000c0: 7d65 313d 6303 0ebd e096 283d 974b a7bd
000000d0: 9848 a33d daea 513d c51b ab3d 1abd ffbb
000000e0: 9771 273d ca70 78bd 7312 fabc 07be dbbc
000000f0: 751c 9cbd b7a0 a1bd ea83 543d 024a aebd
00000100: f075 b93d 6376 3d3d e358 b73d 15ed b23d
00000110: 1702 4bbd 3791 4bbd 0058 bc3c e319 62bd
00000120: 1a77 42bc 80cf 52bc 172c 233d e711 43bd
00000130: e57b c23d eabf 4f3d cdd6 6fbd 004c 783d
00000140: 40c9 88bd 1094 04bd 30a3 af3d f362 45bc
00000150: 7af1 81bc f304 013c 806f d63c 0075 793d
00000160: fa58 a53c 7090 2dbd 0747 b13c 57ad 083d
00000170: 0846 ccbd 77a4 a63d 07ff c83d 0dac ac3d
00000180: 2314 693d fa39 4cbd b754 39bd 5f5a 83bd
00000190: 80d1 9ebd f3b4 263c 672e b4bc 2a2d 913d
000001a0: aadc 0dbd 7dff 78bd 8002 2ebd 5002 bd3d
000001b0: 4351 663d d8df acbd b3a1 4cbd a548 a1bd
000001c0: 3a70 55bd 4dbc 3cbc 1d58 643d cd6e 433d
000001d0: f3ed d6bc 27f8 32bc a7c6 ae3d d30c e7bc
000001e0: c713 c4bd c7b8 27bd e8c7 943d 5388 713d
000001f0: a7ff 2ebc c085 eb3c d8fc b5bd 18d2 9dbd
00000200: 0dc5 553d 6747 41bd 8262 9ebd ba91 5f3d
00000210: 6f33 cb3d 2318 1b3d 6d8d 9d3d cdc2 3abc
00000220: 078e 2bbd 00ba 53bc 63fc c5bd a3cc 2abd
00000230: e72a 3b3d 73f1 c63d dd66 0abd a77b 2c3d
00000240: 2a32 5bbd cf40 a13d ed54 81bc 22b7 a8bd
00000250: 8a0c 84bd 00c3 4ebc 8727 97bd a7ce 1ebd
00000260: 3a0a 5d3d 0769 50bd b3f8 d2bc cd7d 483c
00000270: 287f aebd 8d23 d03c e0da 493d d7b8 693d
00000280: bb27 8abd 1a87 f8bc c0ab 11bc a011 27bd
00000290: 4722 343d 67f0 a1bb 331b e23b 9a82 fc3b
000002a0: 8ba4 c4bd 0da1 553d 3366 173d d01b 3dbd
000002b0: 87e2 1f3d f327 c6bc 0ac5 74bd f532 b0bd
000002c0: 8d71 8ebc cda0 b23b 0fa7 c53d a73b d3bc
000002d0: 1246 9e3d caa8 1ebd 870b 923c c397 523d
000002e0: 8d89 75bd e03a 98bc 3a92 b03c 3390 cabd
000002f0: 07a7 953c e29e bfbd 82ac c2bd da3d ca3d
00000300: 4799 513d 6081 6f3d c0f8 2b3d 8a7b 5ebd
00000310: 9dfe 383d cdc0 803b 50c5 6f3d c0a0 113c

lstm_args.weight_ih f4 [200, 50]
-0.09532982 0.032311082 0.07159757 -0.0941829 0.096804716 -0.00705694 -0.08314311 -0.052336574
-0.015296459 -0.095176 -0.055856835 0.05116825 0.0066525578 -0.08193644 -0.044462264 -0.076333545
0.027790142 0.030863632 0.034235477 -0.025643194 -0.06690069 0.0635344 0.012400592 -0.05796472
0.07698518 -0.01312691 0.030112112 0.09271671 0.072062425 0.044337522 -0.088811316 0.0033756853
-0.07219682 0.05697 -0.08595558 0.024384057 -0.01981889 0.009124363 -0.04425141 -0.08186902
-0.055045485 0.0035176754 -0.0694553 0.09962095 -0.05211817 0.09892243 0.08484036 0.03431951
-0.017316615 0.08785442 -0.054279245 -0.030804014 -0.05260537 -0.09526171 -0.053369917 -0.00526309
-0.039534498 0.09742943 -0.044667054 0.047131073 0.031093193 0.02509035 0.03789374 0.055223774
0.082742944 0.02222662 0.06351318 0.081059836 0.03262478 0.0015680075 -0.08551444 0.038721193
-0.094632424 -0.0030002594 -0.05604161 -0.0598024 0.07630979 -0.059447944 -0.09903081 -0.017525543
0.037416864 -0.09934928 0.033785738 -0.08856665 0.023783851 0.00016344785 -0.029865598 0.006508601
0.09427249 0.08361632 0.057001438 -0.002635181 -0.08858456 -0.09632186 -0.059118867 0.08700343
0.035176482 0.024271786 0.08189124 0.02225684 -0.066056125 0.025281822 -0.06675577 0.031974684
0.04836562 -0.030406345 0.053327728 -0.051673986 0.010567141 -0.031378746 -0.017768813 0.090705656
0.031929877 0.020706331 0.06735956 0.026645983 -0.007997024 0.064958215 -0.025879169 0.00838815
0.006031406 0.009794367 -0.055876326 -0.044032585 0.083473854 -0.003309977 0.014249516 -0.09261751
-0.051892947 0.016328156 -0.013292289 0.06453126 -0.053974558 0.025294436 0.03611032 -0.024957383
0.07929247 0.05853304 -0.01028657 0.07007295 -0.057602476 -4.327297e-06 -0.043818902 -0.025668133
0.07141886 0.05424999 -0.071970336 0.09206726 -0.023661423 0.09474673 0.02360375 -0.010611856
0.08946097 0.012244678 0.017823791 0.03421271 -0.029226005 -0.01117599 0.0061445595 0.034915745
-0.09205296 -0.018946303 0.07400312 0.04680561 0.08787235 0.08335587 -0.032410454 -0.091825604
-0.057713773 -0.06470283 -0.09576362 -0.0062674168 -0.090837695 0.0035224797 0.0011100769 0.024571015
0.07129756 0.04786676 -0.07414553 0.01926042 -0.085245945 0.037974108 0.066073 -0.054017592
0.0987525 0.06836742 -0.017234672 -0.08863939 -0.0060810805 0.013754201 0.037287094 -0.06708111
0.06377411 -0.025821388 0.022565389 -0.023412634 0.013983786 -0.052358318 -0.09743082 0.09847804
0.018764878 -0.09961434 0.054341853 0.05103289 -0.025103664 -0.02518394 -0.06164973 -0.045045245
0.02820133 -0.035509586 0.06745251 0.0026876093 -0.037318982 -0.081515186 -0.020525325 -0.0012596011
0.09540218 0.0407009 -0.036549058 0.0979042 -0.0628899 0.099543646 0.09153789 -0.033160474
0.07730657 -0.010485947 -0.021497106 0.03301412 0.060560193 -0.00064859394 -0.010977483 0.077599384
0.00018099547 -0.055512346 -0.051948678 -0.092657425 0.01137271 -0.010237909 -0.08814218 0.04566393
-0.09461448 0.009362555 0.059467424 -0.013869357 0.083248995 -0.076057374 0.081212655 -0.09173232
-0.090013735 0.05339202 -0.0027671815 -0.036351647 -0.08893007 0.0712999 -0.04851049 0.0249349
00000000: 483c c3bd a058 043d bfa1 923d f7e2 c0bd
00000010: 8d41 c63d e73d e7bb ef46 aabd e05e 56bd
00000020: 009e 7abc a2eb c2bd 23ca 64bd cd95 513d
00000030: b3fd d93b 4bce a7bd 101e 36bd c354 9cbd
00000040: 27a8 e33c bad5 fc3c 803a 0c3d ad11 d2bc
00000050: 3b03 89bd 531e 823d da2b 4b3c 6a6c 6dbd
00000060: 68aa 9d3d 4012 57bc adad f63c 42e2 bd3d
00000070: 7795 933d 439b 353d b5e2 b5bd 9a3a 5d3b
00000080: eddb 93bd 6059 693d 7b09 b0bd 13c1 c73c
00000090: 3a5b a2bc 5a7e 153c f740 35bd f2aa a7bd
000000a0: 6077 61bd cd88 663b 953e 8ebd 1206 cc3d
000000b0: dd79 55bd d897 ca3d c8c0 ad3d 9d92 0c3d
000000c0: 93db 8dbc 05ed b33d ea53 5ebd b358 fcbc
000000d0: ba78 57bd 9218 c3bd 6a9a 5abd 0076 acbb
000000e0: edee 21bd 1589 c73d cdf4 36bd 830c 413d
000000f0: 27b7 fe3c 478a cd3c 7736 1b3d 5332 623d
00000100: 2275 a93d 9a14 b63c 3313 823d b302 a63d
00000110: 90a1 053d 9a85 cd3a 3222 afbd 1d9a 1e3d
00000120: a5ce c1bd 00a0 44bb e38b 65bd 5df3 74bd
00000130: 4f48 9c3d b07f 73bd aad0 cabd ba91 8fbc
00000140: 6d42 193d a377 cbbd ea62 0a3d 6f62 b5bd
00000150: 5ad6 c23c 3363 2b39 b3a8 f4bc 1a46 d53b
00000160: ef11 c13d 083f ab3d 577a 693d 00b3 2cbb
00000170: d26b b5bd 6544 c5bd a026 72bd db2e b23d
00000180: 3715 103d a0d5 c63c 98b6 a73d fa53 b63c
00000190: 6f48 87bd d31b cf3c 40b7 88bd e3f7 023d
000001a0: 071b 463d ba16 f9bc 2d6e 5a3d 1aa8 53bd
000001b0: cd21 2d3c 0087 00bd e78f 91bc e3c3 b93d
000001c0: e7c8 023d 53a0 a93c cff3 893d ad48 da3c
000001d0: f305 03bc d008 853d 8d00 d4bc 736e 093c
000001e0: 1aa3 c53b 8d78 203c 93de 64bd 835b 34bd
000001f0: 57f4 aa3d 33ec 58bb cd76 693c 40ae bdbd
00000200: b38d 54bd a0c2 853c e7c7 59bc f728 843d
00000210: 6d14 5dbd 4736 cf3c 6ae8 133d 6d73 ccbc
00000220: 1764 a23d 57c0 6f3d 0089 28bc 6882 8f3d
00000230: 93f0 6bbd 3333 91b6 737b 33bd fa45 d2bc
00000240: 0d44 923d 3d35 5e3d 2f65 93bd c28d bc3d
00000250: 9ad5 c1bc 930a c23d a75c c13c 5add 2dbc
00000260: 5037 b73d e79d 483c 3303 923c a022 0c3d
00000270: 606b efbc 801b 37bc 4d58 c93b d003 0f3d
00000280: 4386 bcbd 4735 9bbc f38e 973d 3db7 3f3d
00000290: 6bf6 b33d 7bb6 aa3d d3c0 04bd 100f bcbd
000002a0: 4765 6cbd eb82 84bd b81f c4bd e75e cdbb
000002b0: 1d09 babd 67d9 663b 0080 913a 2749 c93c
000002c0: 7504 923d f00f 443d 9dd9 97bd 07c8 9d3c
000002d0: 6d95 aebd bd8a 1b3d 4851 873d 8d41 5dbd
000002e0: c03e ca3d 3804 8c3d ba2f 8dbc 9288 b5bd
000002f0: cd43 c7bb 4d59 613c 5aba 183d d261 89bd
00000300: 009c 823d 6087 d3bc 0ddb b83c dacb bfbc
00000310: 401c 653c ad75 56bd cf89 c7bd dbae c93d
00000320: cdb8 993c 9a02 ccbd 9095 5e3d dd07 513d
00000330: 33a6 cdbc 8d4e cebc 6d84 7cbd 5d81 38bd
00000340: 7a06 e73c 8072 11bd 8b24 8a3d 9a22 303b
00000350: cadb 18bd 6ff1 a6bd ba24 a8bc 3319 a5ba
00000360: 3862 c33d fdb5 263d 77b4 15bd ff81 c83d
00000370: 6bcc 80bd 8add cb3d 3878 bb3d 47d3 07bd
00000380: e852 9e3d 40cd 2bbc b31a b0bc d039 073d
00000390: f70d 783d 6706 2aba e7da 33bc 6dec 9e3d
000003a0: 9ac9 3d39 ea60 63bd 23c8 54bd 2dc3 bdbd
000003b0: 9a54 3a3c e7bc 27bc e383 b4bd 1a0a 3b3d
000003c0: 3dc5 c1bd 6765 193c 1d94 733d 4d3c 63bc
000003d0: 737e aa3d f8c3 9bbd d252 a63d 28de bbbd
000003e0: 1f59 b8bd 97b1 5a3d 9a59 35bb 77e5 14bd
000003f0: f820 b6bd af05 923d f0b2 46bd 4744 cc3c
