models/mcts_models/adult_experiment-2021_12_20-16_27_55.model (torch, 421470 bytes, 43 tensors)

Mprog.weight f4 [1, 100]
00000000: bcfd e13e 34ff 7f3b 314f 573f c311 853e
00000010: e865 243e b66b 3f3f 61a3 9cbf 40eb f7be
00000020: e9a2 9dbe 953d 32bf 39cd 913e 9fcb 2a3c
00000030: 963d 903f 4eb7 443e 4fba 9c3f b6e1 eabe
00000040: 3393 1e40 9401 14bf 3d34 dcbf 2a81 16bf
00000050: 22a8 a4be aeed 093e 7956 6f3f 4211 00c0
00000060: 32cd 3abf f8ec 1b3f 4142 40bc ada6 ffbe
00000070: 68de 333a f34f a0bd ac59 d1bb 3414 fc3d
00000080: 1a58 02bc d5fd 763f eb4a f43e c53a 3cbf
00000090: 5c7c ce3c df34 92bf 1e7f 84be ce65 fbbd
000000a0: ba74 98bf 6b77 53bd 067f 9dbf 9f4f 14bf
000000b0: b9d3 58be a6f1 3c3c 7b5b 9abe e54f 08be
000000c0: d214 78bf ed2f 43bf d9e9 a93f 06ec b9bf
000000d0: 6ec7 283f e66b 8c3f 16dc 8abf 0cd6 223f
000000e0: 8bbb d53f d4e1 30bf 6046 e7be 2525 51bf
000000f0: 0aba e73b e8f4 ea3e 2a5d b63f b296 67bf
00000100: 7b00 bcbf b06a 4f3f 148a ecbe f261 11bf
00000110: 41a9 083f d95f 36be 6886 80bd 2ddf 19be
00000120: 82a3 ca3e 59ae 00bf 989f dfbf 88f9 2bbb
00000130: f01f 5ebf 084f a8bf ec36 ce3e d8ec 213c
00000140: 4ba7 d43e 8925 18bf 42b0 a43f c45c 303f
00000150: 979c 8d3f 38ee fdbe 0401 94bf eca6 2c3f
00000160: da14 4a3f 7c51 903e fa91 a33f 7371 1ebc
00000170: 74b7 c6bf 153a ac3b 3e6a 7dbd fae0 233f
00000180: ef34 aebf f1cd a43f ed5b 5dbf 1840 e0bf
0.44138896 0.0039062025 0.8410521 0.25990114 0.16054499 0.7477373 -1.2237359 -0.4842167
-0.30788353 -0.69625217 0.28476885 0.010424524 1.1268795 0.1921055 1.2244357 -0.4587533
2.4777343 -0.5781491 -1.7203442 -0.5879084 -0.32159525 0.13469574 0.9349132 -2.0010533
-0.72969353 0.6090846 -0.011734546 -0.4993185 0.0006861449 -0.07827749 -0.0063888635 0.12308541
-0.007955575 0.96481067 0.47713408 -0.73527175 0.025205784 -1.1422385 -0.25878233 -0.12275277
-1.1910622 -0.051627558 -1.230439 -0.5793399 -0.21174516 0.011532223 -0.3014792 -0.13311727
-0.9690677 -0.76245004 1.327449 -1.4525154 0.65929306 1.0970428 -1.0848415 0.6360786
1.6697859 -0.69094586 -0.4517088 -0.81697303 0.007071738 0.45889974 1.4247181 -0.9046432
-1.4687647 0.8102217 -0.46199095 -0.5679008 0.5338326 -0.1781 -0.06275636 -0.15026541
0.39577872 -0.50266033 -1.7470579 -0.0026241262 -0.8676748 -1.3149118 0.40276277 0.009883128
0.41533884 -0.59432274 1.286629 0.6889155 1.1063412 -0.4959581 -1.156281 0.674422
0.78938067 0.28187168 1.2778924 -0.009670603 -1.5524735 0.0052559474 -0.0618689 0.6401516
-1.3609904 1.2875348 -0.8646839 -1.751956

encoder.l1.weight f4 [50, 125]
00000000: a45a 12bd 6abc cf3d 4ec1 413c 69e8 8d3d
00000010: 3649 013e 64d4 00bd 4049 51bd aa8e 06be
00000020: 6501 a33d 9a8d 503d 1d65 89bd 5201 aebd
00000030: ed03 693c b5ea de3d 48ee 213e 0c5e 843d
00000040: d864 debc a652 133d e370 463d 2145 96bc
00000050: 1b89 6bbe 872b 62be d668 6a3d 1e94 953e
00000060: 193c 6abe d8f0 533e 74a6 c73c bddc d2bb
00000070: e32d 1ebe 2a5c 8bbe 6fc0 2ebe 0033 14bc
00000080: ca58 363e bf12 2e3e 88fd a0bc 06fe 0bbe
00000090: 7e13 0e3b 2c52 273e 27df 2f3e e579 883e
000000a0: 9d3a 32be 3aae ffbe 8e58 64bc e0b0 bdbe
000000b0: a85b afbc 0800 adbd 95c4 0abd 502e 94bd
000000c0: 61a6 91be fe13 6c3d 9fde 873e 2cc5 26be
000000d0: a64a 2bbe bd88 e23d 7e33 ee3d 3882 1e3e
000000e0: 0915 68bd 2fbc 923b 71db 6abd a874 663e
000000f0: 77d3 5abd 473a 893d d4a3 7d3e 06cb 9d3e
00000100: 5dd5 d13c 52f1 273d 3ade 2bbe 5234 3c3e
00000110: 63bd f7bd 12e2 b8bc e153 243e de28 98bd
00000120: d745 acbe 01ce b6be 8b9e 713d 80d7 dabc
00000130: ad0b 18bc 7d62 6c3d afde 503e d5ef 163e
00000140: 1f31 ca3b e455 abbe 31b3 e53d 1765 7f3e
00000150: dabe 38bd e694 083e d5f7 bd3d 2ce8 a6bd
00000160: b883 9b3d 2c5d f5bd 4839 52be 9061 06bc
00000170: c9e1 9e3d ef7c 5c3c 0322 dbbd a590 c4bd
00000180: 8ed4 443e 58d4 bcbc 20e1 e3bb 00e8 a73b
00000190: adaa 853d 12be 3f3d 58f8 d73c a842 1b3c
000001a0: 9761 2e3d a402 593d 8ae6 eb3e 2ce8 c63c
000001b0: 9176 983d e9f1 2f3e b8dd c23c 9a27 0c3b
000001c0: 381f 63be f2c5 a13d a90d ff3d ea92 c53d
000001d0: c75a 233e 9a3f 243d a01f efbb b807 bbbd
000001e0: 4ea2 5e3d 2d56 5dbd 90fd b1bb 052a c9bd
000001f0: 58e1 863c 050b 97bd 98c7 d93d 32e0 4e3d
00000200: 4a9d f43d 36e8 f3bd 4af4 bdbd 4663 26bd
00000210: e8cf 823d 1490 afbc b64c 583d e843 8e3c
00000220: e68d a6bd 1429 99bc 789a 143c 7aba 143e
00000230: 1987 9dbc aad4 53bd 2c06 88bd 2190 66be
00000240: 1972 e4bc 6b7d be3d 4b31 a43d 309a 3abc
00000250: 8a37 b93d f216 b1bd 3cdb 4d3e 0409 d53c
00000260: 23a1 00bd c72a eabd 5519 98be 778c bb3d
00000270: 2f07 883d 0c58 5f3d 3806 ec3d 55e1 a5bd
00000280: 24e1 6cbd 1ea9 cb3d 9d75 94be 48e8 f13c
00000290: 5dfa 9e3c 6d97 1fbe 311c 9fbe d4e4 023e
000002a0: 9a4e a1be 997d 813e f2be d1bd 4cc5 233e
000002b0: f5b1 54bc d2dd fc3d 69fb 863d cb30 2ebe
000002c0: f952 033e e947 313e 98fb 563e 9429 98be
000002d0: 0eca 803c 025c 7a3e 4ec8 ebbc e614 af3c
000002e0: fc46 923e de69 e43c b8c1 ffbd a404 1a3e
000002f0: 0986 71be fadc 7dbe 319d b33e 1047 19be
00000300: b834 a73d 2d62 50bc 7a32 d03d 20c0 7bbd
00000310: 7676 2f3e 803b 06be 7454 09bf d21f 96bd
00000320: d78a 4c3e 1436 9d3d af95 bc3c b974 9abe
00000330: 170f 0d3c 1ea8 8a3d 4fae 9dbc b2d0 ebbc
00000340: 2d80 b33c 79d0 aa3d ed78 263e f071 5f3d
00000350: 869d 16be 4c28 bf3e 2373 603e 3f65 c8bd
00000360: a0ae 023e 1be0 7c3e 85be fbbd 4546 f8ba
00000370: 8d67 87bd 842e 153e a294 713d f4d7 ecbc
00000380: 7642 413d d3cd 223d adcd bd3d 4174 333d
00000390: 461d 803e 767c 423d 9d4c c63d 1ac7 2f3e
000003a0: 8b23 9dbd a86d 69bc d22c fdbd bcd8 a43d
000003b0: 13cc 7d3d 9bc1 4cbe f6c9 4abd 3db4 49bd
000003c0: 99fc de3d 18c9 4f3a 5dbf 9f3d a49d a13d
000003d0: e05a 33bd 31a5 5d3d c1f2 4c3d c50c 123e
000003e0: d569 1dbe a016 58bb a9fa 833d d9ec 5cbe
000003f0: 523b 63be 5fa3 7e3e 7374 5fbc 8982 9f3d
-0.035730973 0.10143359 0.011825873 0.06929094 0.12625584 -0.03145255 -0.051095247 -0.1314036
0.0795925 0.05091629 -0.06708739 -0.084963456 0.014222127 0.108846106 0.15813553 0.064632505
-0.027147695 0.03596749 0.0484475 -0.01834351 -0.2300152 -0.22086917 0.057228886 0.29214567
-0.22874488 0.20697343 0.024371363 -0.0064350055 -0.15447192 -0.27218753 -0.17065595 -0.0090453625
0.17807308 0.16999339 -0.019652143 -0.13671121 0.0021679099 0.1633994 0.1717497 0.26655498
-0.17405172 -0.49937612 -0.013937129 -0.37049007 -0.02140601 -0.084472716 -0.03387888 -0.07235396
-0.2844725 0.057636254 0.26537034 -0.16286153 -0.16727695 0.11061237 0.11630915 0.15479362
-0.056660686 0.0044779996 -0.057338182 0.22505438 -0.053424325 0.06700569 0.24769527 0.30818957
0.025614435 0.041001625 -0.16783991 0.18379334 -0.120966695 -0.022568736 0.16047622 -0.0742967
-0.33647034 -0.35704044 0.05898909 -0.026714087 -0.0092801275 0.057711113 0.20397447 0.14739926
0.0061704065 -0.33463967 0.11215819 0.24940906 -0.045103885 0.1333805 0.09275786 -0.08149752
0.07593483 -0.11980662 -0.20529664 -0.008201972 0.07757909 0.013457521 -0.106998466 -0.09597901
0.19221708 -0.023050472 -0.006954327 0.005124092 0.065266944 0.046812125 0.026363537 0.009476341
0.042573538 0.052981034 0.46074325 0.02428063 0.0744449 0.17182125 0.023787364 0.002138591
-0.22179878 0.07899083 0.12453777 0.09647162 0.15952598 0.040099718 -0.007297471 -0.091323316
0.054354005 -0.05403726 -0.0054318383 -0.09822468 0.016464874 -0.07375149 0.106337726 0.050506778
0.11944063 -0.11909525 -0.0927511 -0.04062202 0.06387311 -0.021431006 0.052807532 0.017366365
-0.08132534 -0.018696345 0.009070031 0.1452426 -0.019229459 -0.051716484 -0.06641802 -0.22515918
-0.027886437 0.09301265 0.080172144 -0.0113893 0.09043796 -0.086469546 0.20103163 0.026005276
-0.031403672 -0.114339404 -0.29706827 0.09157651 0.06641995 0.054527327 0.11524624 -0.08099619
-0.0578319 0.09944366 -0.28995982 0.029529706 0.019406492 -0.15585108 -0.31076196 0.12782604
-0.3150528 0.25291136 -0.10241498 0.15993232 -0.012981881 0.12346996 0.065909214 -0.170108
0.1282462 0.17312588 0.20994413 -0.29719222 0.015721347 0.2444916 -0.028782036 0.02137227
0.28569782 0.027882513 -0.12488121 0.15040833 -0.23586287 -0.24791327 0.35080865 -0.14968514
0.08164352 -0.012718719 0.10165878 -0.06146252 0.17135033 -0.13108635 -0.5364449 -0.07330288
0.19974838 0.0767633 0.023020593 -0.30167177 0.008609555 0.06770347 -0.019248156 -0.028786037
0.021911705 0.08340544 0.16257067 0.05455202 -0.14708528 0.37335432 0.21918921 -0.09784936
0.12761927 0.24694864 -0.12292198 -0.001894184 -0.066115476 0.14568526 0.058979638 -0.028911568
0.047182523 0.03974707 0.09267745 0.04381204 0.25022334 0.047481976 0.096825816 0.17165795
-0.07672795 -0.0142473355 -0.123620644 0.08049151 0.0619622 -0.1999573 -0.04950901 -0.049244154
0.10888023 0.00079263886 0.078001715 0.07891396 -0.043787837 0.054112617 0.050036196 0.14262684
-0.15372403 -0.003297247 0.06444294 -0.21574725 -0.22190598 0.24867009 -0.0136386035 0.077885695

encoder.l1.bias f4 [50]
00000000: 7227 85bd f95b c63d 164a c9bd 2991 923d
00000010: fad5 56bd b479 a43b debc a3bc 8afd 7a3d
00000020: ae3f 64bc d02d 20bd 49a6 be3d 8cf7 093d
00000030: 4535 2cbc c27b 693d 9267 b93d 42b4 cbbc
00000040: a9c2 763d 1c6f 633d 66c7 a23a 14e5 76bd
00000050: 50d8 bb3d 9470 1cbb 3a86 be3d ed00 e2bd
00000060: 3519 68bd 321c fe3c 50b9 c6bd 7923 83bd
00000070: 830e dabd 466a b2bb 4105 7bbd d075 c7bd
00000080: 577b 0c3e d7c9 2dbd d370 4ebd ad4e ae3b
00000090: b017 b9bd 27bb af3d 622f 81bd 2508 83bb
000000a0: 702d 0bbd a1ed 2ebc 68f6 1abc 45f0 62bd
000000b0: be21 6e3d a318 36bd 8427 683d 98bb f9bc
000000c0: 827c 823d 54d3 823c
-0.06501664 0.09685511 -0.09828584 0.07156593 -0.052450158 0.005019391 -0.01998752 0.06127695
-0.013931198 -0.03910619 0.0930906 0.033683345 -0.010510747 0.05700279 0.090529576 -0.024866227
0.060244236 0.055525884 0.0012419045 -0.06027706 0.09172118 -0.0023870813 0.093029454 -0.11035333
-0.056664664 0.031019304 -0.09703314 -0.0640325 -0.10647299 -0.0054447977 -0.061284307 -0.09739268
0.13718925 -0.042428818 -0.050400566 0.0053194375 -0.09037721 0.08580618 -0.06307866 -0.0039987736
-0.03397888 -0.010676772 -0.009458162 -0.05540492 0.058137648 -0.04445709 0.05667831 -0.03048496
0.06371404 0.01596991

encoder.l2.weight f4 [50, 50]
00000000: c79e cc3e 01bd df3d 9978 0d3f 314b ebbd
00000010: 3e45 a6bd f0aa cd3d 9db3 923e 849f 7e3d
00000020: 7f22 5b3d 8e99 69be f1fd 0bbf 66d4 f53d
00000030: b27f e03d d13c 4f3e ae98 cebd e015 293e
00000040: f678 b23d 6eb8 e63d 6e5b 94bd 0812 4bbe
00000050: fba5 a7be a995 5bbe b930 f1bd 6adb aa3d
00000060: a07c 863e 7b11 9bbe 13ae 723e 0702 df3d
00000070: f2c7 fa3d 9459 d6bd 56ff a43d a36b 6f3e
00000080: 118a 873c f94e 923d a748 073e b9da aa3e
00000090: 1d53 423e b2fe a4be 1933 9cbd eb1b 9c3e
000000a0: 0e26 d33e 103a 99be aea1 363d 0ba8 3a3e
000000b0: 0a2d 81bd 8afc 95bc bea3 133d b162 4f3e
000000c0: 6707 fc3d ea5c 263d 3346 4abe 167a f4ba
000000d0: 414e a9bd 24b0 89be dda7 10be ad40 513d
000000e0: 83d4 ba3c 2513 4d3e 0f01 41be d42e 823d
000000f0: 1b90 b73e 41b8 1cbd 905e 113d 3bcb 56be
00000100: 02cf fc3c e460 14bd 1c18 a7be 45b2 d93d
00000110: 6e66 95be c030 1bbe bb4a 083e b37d 493c
00000120: 669f a6be cd50 5cbe be7a 5dbe 714d 443e
00000130: fd1d 52bd 7908 10be a9cf 6abe 0368 b23d
00000140: 78be 6ebd c6d4 54be 385c 58be c15c bf3d
00000150: 9ea9 43be 7a10 2fbe 5f41 07be 1c2b 373e
00000160: a419 edbd b444 9dbe 5e31 8bbe d74e 3dbe
00000170: 1f1f eabc d29c 71be d059 683c 03c1 3a3c
00000180: 80f5 81be d96a 86be bf29 04be 9c1a f3bd
00000190: f2c5 633e 1e25 043e 0da1 8e3e 58b4 76be
000001a0: 0158 973b d597 2e3e b46d 7d3e bcb7 d1bd
000001b0: 2b0a 393e 665c 293e 7916 00bf e54f f83b
000001c0: abf7 b4bd e74b 7e3e 93f8 4c3d 81bf 3bbe
000001d0: fc83 a93e 13d9 3ebc 6d7f 073e 1638 a5be
000001e0: cc4e 133d 993d 63bc f5cd 77be d8a4 05bc
000001f0: afa8 203e b4ff 19be dfa0 963e bbe4 8e3e
00000200: 199a 363e 69bc c4be f2ba 9b3d 7d2c a73e
00000210: 114f a4bd e371 9f3e dec3 9a3e bde9 383e
00000220: 2f87 023e a128 b4be 2165 713e dd58 853d
00000230: b060 0d3d bb6a 8f3d 4a13 353e c775 aebd
00000240: faf2 893d 5779 813d 8957 943e eab1 263e
00000250: 6425 23be 3f2e 1ebd 777c dbbd 3292 a1be
00000260: 649c 8abe 7da8 913d c8f9 abbe 9261 62be
00000270: 323a b9be 1848 143e 63c2 29be a1db 4b3b
00000280: b6f6 073f 1cb8 13be 5c45 163d bbfc 5abe
00000290: dbe0 fc3d 8af7 933e a57a 98be 260a 2fbe
000002a0: 6f4d 86bd 8052 52bc 73c6 373e 33d1 283d
000002b0: 8b1d 443e f291 343d 650f 0abe ffc3 e63d
000002c0: 8385 d23c 1ec6 57be e886 a3be fee7 d73e
000002d0: 27ee b0be cf67 a7be 90db 723e d3bd 5ebe
000002e0: 059d 5bbe 6691 86be 0401 293d 3e1d 443e
000002f0: 82eb 2ebe a927 4cbe a76c a8be 5225 33be
00000300: c51f c5be feca 41be 9b3e edbb 7115 77bd
00000310: e4ef 8cbe c5df 9cbe 0268 333c 5ebd e5bc
00000320: b14c 4bbe a49b b1bd 1263 72be 157c f2be
00000330: 8f27 0cbe 9f35 94bd f59f 9a3b 8bb5 353d
00000340: c3fb 82bd 3989 353d addf 4c3d 1bb9 8dbc
00000350: 8db5 903e 2b29 90be 4a2c b3bd 4bd7 a9ba
00000360: 0da1 44be 2794 91bc ddc2 4bbe dea1 69be
00000370: 2825 0e3f b4b7 193e 9d7d 1dbe ad31 5dbe
00000380: 196a 2fbe 4562 c23e 9fdc 23bd 6a2f 03be
00000390: eb27 90bd fff7 60bd d617 2fbe 3447 a8be
000003a0: 5c48 d0bd 5b1c 143d a0a0 ddbd 83a2 d2be
000003b0: aebe 99be cc53 843b 3487 1abe a545 26bf
000003c0: 6d8a 2cbe 8998 6abe df22 bcbd 812b 4cbe
000003d0: bddb a53d 68c4 2d3d 4efa 5fbe 8bc7 e7be
000003e0: e96b 373d 671a 9abd 3a24 c9bd e2b4 9ebe
000003f0: 4401 21be c818 c3bd f91a c3bc 12a4 04bd
0.39964887 0.109247215 0.5526214 -0.11488951 -0.08118676 0.10042369 0.2865266 0.062163845
0.053499695 -0.22812483 -0.5468436 0.120034024 0.10961856 0.20238043 -0.10087715 0.16512251
0.08714478 0.11265646 -0.07244001 -0.19831097 -0.3274382 -0.2144381 -0.11776871 0.08342631
0.26266956 -0.30286774 0.23699217 0.108890586 0.12245168 -0.104663044 0.08056514 0.23380904
0.016545327 0.07143969 0.13211308 0.33369997 0.18977018 -0.32225567 -0.076269336 0.3049005
0.4123997 -0.2992711 0.044587784 0.18228166 -0.06307419 -0.018308897 0.03604483 0.20252492
0.123060994 0.040615954 -0.19753341 -0.0018652107 -0.08266879 -0.26892197 -0.14126535 0.05108707
0.022806412 0.20026834 -0.1884806 0.06356588 0.3585213 -0.038261656 0.035490572 -0.20975964
0.030860428 -0.036225215 -0.32635581 0.10629705 -0.2917971 -0.15155315 0.13309757 0.012298035
-0.32543486 -0.21515198 -0.21628854 0.19170167 -0.05129813 -0.14065732 -0.22930779 0.08711245
-0.058287114 -0.20784292 -0.21128929 0.09343863 -0.19107673 -0.17096129 -0.13208531 0.17887539
-0.11577156 -0.3071648 -0.27186102 -0.18487106 -0.028579293 -0.23594978 0.014181569 0.011398557
-0.25382614 -0.26253393 -0.1290655 -0.1187031 0.22243479 0.12904784 0.27857247 -0.24092233
0.004618645 0.17050107 0.2474888 -0.10240123 0.18070285 0.16539153 -0.5003429 0.0075778835
-0.088363014 0.24833642 0.050041746 -0.18334772 0.3310851 -0.011648434 0.13232203 -0.32269353
0.03596382 -0.0138696665 -0.2419966 -0.008156978 0.15689348 -0.15038949 0.2941961 0.27908882
0.17832221 -0.38424996 0.07604016 0.3265113 -0.08022893 0.31141576 0.3022756 0.18057914
0.12746881 -0.35187247 0.23573734 0.0651109 0.034516037 0.07002779 0.1768314 -0.08518558
0.06735797 0.06321972 0.28973034 0.16278806 -0.15932232 -0.038618322 -0.10717099 -0.3155685
-0.27072442 0.07112215 -0.33589005 -0.22107533 -0.36177212 0.14480627 -0.16578059 0.003110625
0.53110826 -0.14425701 0.03668724 -0.21385472 0.12347575 0.28899795 -0.2978107 -0.17093715
-0.06557738 -0.012837052 0.17946796 0.041215133 0.19151895 0.044084497 -0.13482435 0.11267852
0.025698429 -0.2107167 -0.31938863 0.42169183 -0.34556696 -0.32696387 0.23716569 -0.217521
-0.21446617 -0.26282805 0.041260734 0.1915178 -0.17082027 -0.19937004 -0.32895395 -0.17494705
-0.385008 -0.18925092 -0.007240129 -0.060323182 -0.27526772 -0.30639473 0.01095009 -0.028044399
-0.19853474 -0.08672264 -0.23670605 -0.47360292 -0.13686965 -0.0723679 0.0047187754 0.044362586
-0.06395676 0.04432032 0.050018 -0.01730018 0.28263512 -0.2815641 -0.08748682 -0.0012957839
-0.19202061 -0.01777084 -0.19898553 -0.22815654 0.55525446 0.15011483 -0.15379949 -0.21600981
-0.17130317 0.379656 -0.040005323 -0.12811056 -0.07038864 -0.054924008 -0.17098936 -0.32866824
-0.101700515 0.036159854 -0.108216524 -0.41139612 -0.3002829 0.0040383097 -0.15090638 -0.6495002
-0.1684968 -0.2290975 -0.09186339 -0.1993847 0.080985524 0.042423636 -0.21872827 -0.45269427
0.044780646 -0.07524567 -0.09821363 -0.30997378 -0.15723139 -0.09526211 -0.023816573 -0.032383032

encoder.l2.bias f4 [50]
00000000: afac fb3c 3ed8 933b dfb6 953d 0a0d cf3b
00000010: cd65 9ebd 1721 c03c 0058 07bd 925d 353d
00000020: b966 0cbd 386d adbd 181d 59bd df43 76bc
00000030: a5bc 9a3d e627 c7bc e4eb a9bd 5624 b4bd
00000040: 21d1 173b 55e0 ac3d 50de 4e3d 3a73 d73d
00000050: 63f9 ca3d ad5f 3fbd 5608 9dbb 7238 8d3d
00000060: 7be0 793b f0d4 d2bd 330e e6bc 943b fd3c
00000070: e864 0dbd 429b 26bc 3d4e d6ba be4e 253c
00000080: f2a9 ca3c 18e1 dcbc f8ed 3f3c e35f 863c
00000090: acdc afba 3a71 de3d f08a 9cbc a506 7dbc
000000a0: 8ffb 733b 4966 df3c 337b 12bd be4e 40bc
000000b0: 66d6 ffbd 52cf a3bd 41a0 3fbd 4c1b 2ebe
000000c0: 14a5 063d 8525 b7bc
0.03072199 0.004511862 0.073102705 0.006318693 -0.07734261 0.023453278 -0.033042908 0.04427869
-0.03427765 -0.084680974 -0.05300626 -0.01503083 0.07555512 -0.024311017 -0.08296946 -0.08795993
0.0023165422 0.084412254 0.050504982 0.105200246 0.09910848 -0.046722103 -0.0047922535 0.06895532
0.0038128186 -0.10294521 -0.028082943 0.030912198 -0.03452006 -0.010168852 -0.0016350221 0.010089574
0.02473924 -0.026962802 0.011714451 0.016403144 -0.0013417206 0.1086144 -0.01910922 -0.015443479
0.0037228798 0.027270453 -0.035762023 -0.011737524 -0.12492065 -0.079985276 -0.04678369 -0.170026
0.032872275 -0.022356758

lstm.weight_ih f4 [200, 150]
00000000: b196 253e cacc 13bd 4b7c ec3b 6884 bdbd
00000010: 904a 05be a8a5 173d c885 ab3c f1ee 47bd
00000020: 60b2 a3bd 42f9 183e f6cd a73d 9469 4a3d
00000030: 4148 18bd 4084 c13d b706 96bc 1790 503d
00000040: 3a71 d73d 7f42 e33c 2486 b8ba 1a79 00bd
00000050: 7a83 c8bd 82cd 5b3d 2133 37bd 7eed c0bd
00000060: 3696 17be b911 29bd 4b85 043e af14 063e
00000070: 1836 af3d 32dc ddbd 5832 ecbd 77eb 8bba
00000080: c3d2 0cbd 36c6 42bc 12d8 82bd 9a65 a33d
00000090: 6d49 86bd 3176 0ebd 2f9f b3bb f4e0 82bd
000000a0: af5d 1a3e b3b6 c4bd 4291 673c 1f9d 1b3e
000000b0: 62cd 053e 15b2 0f3e 1221 4f3d d844 6ebd
000000c0: 93ee e53d ee09 a63d 16a3 153e 87b2 13bd
000000d0: b7b2 e33c d319 1f3d e60f fe3c c4aa d53d
000000e0: 84eb a4bd 552a 30be 2622 7abd 58d4 88bd
000000f0: 3ce9 4c3d 618a 9c3d 4535 c43d 98b4 2c3e
00000100: 6684 823d 8794 e73b 8a70 c4bb b8b2 46bd
00000110: 602f 9c3c efb6 93bd 9860 33bd 65f2 bc3c
00000120: 32e1 103e 7846 b5bd 1afa 90bd 3549 093e
00000130: 5d55 b93c 3a44 aebd aac8 0cbe a6b1 fabd
00000140: 1f57 403b 7612 d83c 2217 303d e514 c33d
00000150: af39 4a3d 342e ae3c eb68 053e 0e9d ccbd
00000160: 41f0 95bd c1e7 263c 9436 0fbe ad7d 36be
00000170: 1a44 8ebc 74ee 0ebe 08ba f9bd 0ef1 0d3c
00000180: 0eea dabd ddc9 ccbb 5282 55bc 38ef 78bc
00000190: fdb1 313e afc2 f0bd db93 223e 46c2 813d
000001a0: e497 05bd abf0 72bc 4bb3 4bba 183f c7bd
000001b0: a398 03be 529a 3ebd 3a90 d23d 2c71 1f3d
000001c0: 47a6 903d 9eda 953c f0fd 8abd 73ee 293d
000001d0: d291 1abe 465d 40bd a065 1d3e b5ce 5cbd
000001e0: b971 4a3c 830e ebbd 279e c1bc ad33 b2bc
000001f0: 5025 1bbe 4e26 623d a2fa 4ebc 3060 8f3a
00000200: c2ef 893c 7d0a f93c e9c0 e53d 4bcb 183c
00000210: 40ce 9a3d 19a1 163e b083 083e 32e8 01be
00000220: 16a8 4fbd 147e a03d 72b7 173e 9927 7c3d
00000230: e6e0 343e 328d bebd 09f2 babd a30b e43d
00000240: a044 cbbd 7a56 193c 7d31 b5bc d295 a03d
00000250: 9155 cabc 5719 d8bd 8e17 333e eb1f c03d
00000260: c73b fe3e 7614 ccbe 8ddc a83c 6d8b cfbc
00000270: 2cee 94be f9f5 bd3e 54c6 dcbc c800 5b3d
00000280: 88f7 9bbd 827d dabe 5811 13bd 09fa 433c
00000290: 5c9a 40bd e6e2 b03e 9cd9 20bd a40a 95bd
000002a0: 31f0 ce3d c6a2 913d 9394 8bbc 1144 113f
000002b0: 0794 08be 601b f4bd 251c 6f3c 39f8 953e
000002c0: fab6 433d 2656 bc3d 0c6f acbe b4ee 0e3e
000002d0: 8141 47be cc5c c9bd 87fa 0f3e 3577 733e
000002e0: fcc0 103e afaf bdbe 2df9 2ebe 7689 f13d
000002f0: 3fd5 cabe 1221 533d 71a7 be3c 24c7 bb3e
00000300: a8cb 8dbd 287c 3d3d 2960 11be bc34 10be
00000310: 8203 f03d 82a0 b9be cc0d d2be 023b 013e
00000320: f4ff 3a3e 6615 893d 2b24 903d 5d54 833d
00000330: 5dbd 163e f5f7 e73d 6f50 5abd 3c90 c8bd
00000340: 79d8 2abe 07d3 e1bd 37c6 ea3d 1559 ac3c
00000350: 7167 6f3d 6a27 163e db91 ba3c 9488 31be
00000360: 29a0 263e 71af 14be abfa 0bbe e3d7 07ba
00000370: 4c09 b4bd 3543 203e d6de df3d 3290 1abe
00000380: 8604 14be a819 963d bd4e 0b3c 8bcf ac3a
00000390: bf63 07bd 48bf 9ebd 5418 ba3b 2891 093e
000003a0: 98c1 01bb da1d eb3d 35e3 b73c 4d06 2dbe
000003b0: 5688 adbc 832a 93bd 8e13 22bd b21f c5bc
000003c0: a6e1 a2bc 1892 83bd 81ed 99bd 1c9b f7bc
000003d0: 75c5 71bd 9799 7cbb fd2c 35be 7f96 2dbe
000003e0: 87ed 06be 3ef4 54bd c7ea 61bb 0ac1 2cbe
000003f0: 4222 323e 5f4c f03d 6d86 bfbd 406b ac3d
0.16170765 -0.036083974 0.0072169653 -0.0925377 -0.13016725 0.037023216 0.020937815 -0.048811857
-0.07993007 0.14938834 0.08193581 0.049417093 -0.03717828 0.09449053 -0.018313749 0.050918665
0.10519643 0.027741669 -0.0014078063 -0.03136549 -0.09790702 0.053662784 -0.044726495 -0.09420298
-0.14803395 -0.041276667 0.12941472 0.13093828 0.085552394 -0.108330145 -0.1153304 -0.0010675032
-0.034380686 -0.0118880775 -0.063888684 0.07978363 -0.065569736 -0.034780685 -0.0054816226 -0.06390563
0.150748 -0.096051596 0.014133753 0.15196656 0.13066629 0.14032777 0.050568648 -0.058171123
0.11227145 0.08107363 0.14612994 -0.03605893 0.027795179 0.038842987 0.03101344 0.104329616
-0.080527335 -0.17203648 -0.061067723 -0.06681126 0.050027117 0.07643581 0.09580473 0.16865766
0.06372909 0.0070672664 -0.005994861 -0.048510283 0.019065559 -0.07212626 -0.04379329 0.023064801
0.14148405 -0.088513315 -0.07078953 0.13406833 0.022623712 -0.08509107 -0.13748422 -0.12240915
0.0029348803 0.02637599 0.04299081 0.0952547 0.049371418 0.021262266 0.13028304 -0.09990893
-0.073212154 0.01018709 -0.13985664 -0.17821379 -0.017366458 -0.1395815 -0.12193686 0.008663429
-0.10689174 -0.00624965 -0.013031559 -0.015193753 0.17353053 -0.11755883 0.15876715 0.06335883
-0.032615557 -0.0148278875 -0.0007770552 -0.09728831 -0.12851195 -0.04653389 0.10281415 0.03892629
0.07062965 0.018292721 -0.06786716 0.04148717 -0.15094689 -0.046963952 0.15370798 -0.05390807
0.012356215 -0.11477377 -0.023634983 -0.021753157 -0.15150952 0.05521231 -0.012632998 0.00109387
0.016837958 0.030400509 0.11218435 0.009325813 0.0755887 0.14709891 0.13331485 -0.12686232
-0.05069741 0.078365475 0.14816073 0.0615612 0.17663917 -0.093042746 -0.09128196 0.11135032
-0.099251986 0.0093589965 -0.022118324 0.07841076 -0.024699004 -0.10551708 0.17489454 0.09381088
0.49654981 -0.3985936 0.02061298 -0.025335038 -0.2908796 0.37101725 -0.026950039 0.053467542
-0.07615572 -0.4267388 -0.035905212 0.0119614685 -0.04702221 0.3454811 -0.03927003 -0.0727742
0.101044066 0.07111125 -0.01703862 0.56744486 -0.13337718 -0.11919284 0.0145941125 0.2929094
0.047781922 0.09196119 -0.33678472 0.13958246 -0.19458582 -0.09832153 0.14060412 0.23775943
0.14136118 -0.37048098 -0.1708724 0.11793797 -0.3961582 0.05154521 0.023273202 0.3667537
-0.0692361 0.046260983 -0.14196838 -0.14082617 0.11719419 -0.3625527 -0.4102615 0.12620166
0.18261701 0.066935346 0.070381485 0.064125754 0.14720674 0.11326591 -0.053299364 -0.097931355
-0.1668414 -0.110265784 0.11463588 0.021038571 0.05844826 0.14663473 0.022774627 -0.17337257
0.16272034 -0.1452005 -0.13669841 -0.0005182011 -0.08790836 0.15650637 0.109311745 -0.15094069
-0.1445485 0.07329112 0.008502659 0.0013184411 -0.03305411 -0.07751328 0.0056791697 0.13434279
-0.0019799229 0.11480303 0.022447208 -0.16896935 -0.021183174 -0.07185843 -0.03956943 -0.024062965
-0.019882988 -0.064243495 -0.075160034 -0.03022533 -0.0590262 -0.0038543695 -0.17692943 -0.16951941
-0.13176547 -0.05199074 -0.0034472214 -0.16870514 0.17395881 0.11733317 -0.093518116 0.08418894

lstm.weight_hh f4 [200, 50]
00000000: c3a6 c3bd 0bc5 79be f1c9 0dbe e842 f0bd
00000010: 20d9 2fbc e0cb 193a a246 eabd 9d38 b23c
00000020: 26c4 b83d 10cf fbbb 80f5 a9bd 3416 68be
00000030: aebf f1bd 77fb c73d a966 ea3d 5b5a 68be
00000040: 838f 0d3e 66f6 773e c725 ce3e 00e5 52be
00000050: 5e47 d5bd ee36 1fbe 4adb 9d3d 9632 6bbe
00000060: 108f 9e3d 1b3d 2b3e 744b 1dbe 2190 423d
00000070: 2f90 3c3e 1d19 253b 083a a5bd cd5d 6fbe
00000080: 74e5 0cbd 1dbb 79be 41a7 c4bd 1d6a 023d
00000090: 99b2 a0bd 2125 a93e f186 10bd b6bc 5c3e
000000a0: aacc 413d ae3e 203e a015 4fbe 942a cb3d
000000b0: 02a9 6b3e 7ca7 37be 7891 0e3e 71c5 cabd
000000c0: 865f 633e 9480 003e 51f8 93bd 6073 b73e
000000d0: 545b e43e 4b38 8c3e 49f9 303f 4f85 d83e
000000e0: 6a5c d43e 3eb9 bdbd 7643 0fbe 5ba0 e33e
000000f0: 8698 063f 4e17 063d 9608 933e 3945 1fbf
00000100: a47f 01be 42e8 163e 1e55 c0be 3339 2c3d
00000110: 2c5f e53d d8f8 e93d 1727 d2bd 2d66 32be
00000120: e199 7fbe 33bc 72bd 9082 473e 7aff 2bbe
00000130: 6916 9cbe 71f2 bebd 149b 29bf f18b bdbe
00000140: ab70 503e fd8b 0a3e adce acbd 9bb1 853d
00000150: 263d 643e 7395 993e 2df5 d8bc d974 273d
00000160: 361b 533d 8945 3e3d 8f6b 9fbe 886b f7bc
00000170: cc49 793e 28ab d8be 6933 87bd 8ea5 3b3e
00000180: bd32 dfbd f061 853e c843 d53d 3cc2 27be
00000190: 197b f5bd 2b8f 4dbe a149 d33d 9520 fbbd
000001a0: 5f69 093e 8259 253e 5921 493d b341 463d
000001b0: 2b0b 9a3d 0a04 bc3c 4810 e33d 1620 16be
000001c0: 2531 b5bc 8ad8 35bd 35cd a23b 9db7 3dbe
000001d0: 6790 bb3d c418 e63d 7729 1b3e 48d0 4cbe
000001e0: ea0f a2bd 1dd1 29be 9fce 823d 34ae 6dbe
000001f0: 68d4 19be 8d74 4a3d 5d4f 8cbd 166d 3a3e
00000200: f1a3 023e 6310 59bd 200c 3abd 7f48 3bbe
00000210: 2555 0a3e 180a 05be 6ba9 29bd 65f1 243e
00000220: e97a 9bbe 9698 163e 66d0 47bd bbdd 8f3d
00000230: 12f7 323c 7203 1a3e 4c0d a2bd 3b36 c5bd
00000240: 419a 4c3d c4c3 a5bd 506c 633e fc24 33be
00000250: 70b7 7e3d 64da 4a3e 37cf 63be 94fb 27be
00000260: b1b6 be3c 4ace 583d dd42 d53d f035 843b
00000270: 4ac7 f43d ffba 53be 1907 3c3e 52ba 1cbd
00000280: 46c6 c83d 3ad7 38be d301 3c3c 53ed 55bd
00000290: 4ebf 913d b2b1 05be 4d79 05bc aa60 373e
000002a0: 4a1d 273e fef3 f2bd ff64 0cbe 8178 17be
000002b0: b0b7 143e 78b3 35be 0c6c 5fbd 3a93 363d
000002c0: 6475 08be 98f2 db3b 7e01 c8bc 5a27 cebc
000002d0: 948d bbba ed66 13be e2de 82bd f617 c0bd
000002e0: b782 30be 3845 fb3d a482 29be 1d2f 363e
000002f0: 7e00 943d 4fdd 013e 0ad6 343e 3438 033e
00000300: 2866 653d 5cbc 9dbd aafb 8c3d e9c4 5b3e
00000310: d92b abbd 182c 9bbd d223 303e ae7a 0cbd
00000320: 3b0a 61be ea91 31be c5c5 68bb 00e5 e1bd
00000330: bfba b43d 0823 b3bd b378 3fbe 743d b1bb
00000340: c105 393e 45b7 c2bd fbdc 86bd 923f 01be
00000350: 3d20 823c 9950 123e 4b6d 0d3e eccb c1bd
00000360: 8e0c 743e e31d 0c3e 5c4e ca3d 2e6b 2dbe
00000370: 05c8 02be aea3 c1bd 6f75 503e 5713 1cbe
00000380: 8cae 08be 85be f03d d0ed f2bd f418 d23b
00000390: a10f fc3d 9718 0bbe 22e7 8b3d 29b7 0bbd
000003a0: 1674 ac3d c1c4 17be e9f5 76bc 16a8 293e
000003b0: dd3c 31be cfe5 3a3e 129f 10bd d348 783d
000003c0: 76d4 1abd a406 633e ed98 4cbe cb3d 943d
000003d0: 5177 a93d c8ae 0b3d 5944 413e dd92 49be
000003e0: a825 813d 35f6 493e ee05 83bd 36d0 47be
000003f0: 2c2e ab3d d8cc 11be 4472 483e 1b23 0b3e
-0.09553292 -0.24391572 -0.13846566 -0.11731511 -0.010732919 0.00058668666 -0.114392534 0.021755511
0.09021787 -0.007684596 -0.082987785 -0.2266472 -0.11804138 0.0976476 0.11445362 -0.22690718
0.13824277 0.24215087 0.40263197 -0.20595169 -0.10414003 -0.15548298 0.07707842 -0.22968516
0.07742131 0.16722529 -0.15360814 0.047500733 0.18414377 0.002519197 -0.08067709 -0.23375626
-0.03439851 -0.24387784 -0.09602214 0.03183948 -0.07846565 0.3303614 -0.03528494 0.21556363
0.047314323 0.1564891 -0.20223093 0.099202305 0.2301369 -0.17934984 0.1392268 -0.0990094
0.22204408 0.12549049 -0.07225097 0.35830212 0.44600928 0.27386698 0.6913038 0.42289206
0.41476756 -0.09263848 -0.13990578 0.4445828 0.5257648 0.03273707 0.28717488 -0.62215
-0.12646347 0.14737037 -0.3756494 0.042046737 0.11199793 0.11424416 -0.10261362 -0.1742179
-0.24961044 -0.059261512 0.194834 -0.16796675 -0.30485848 -0.09323586 -0.66252255 -0.3702083
0.2035548 0.13529964 -0.08437858 0.06528016 0.22288951 0.29996833 -0.026484096 0.04088292
0.051539622 0.046453033 -0.31136748 -0.030202642 0.24344558 -0.42318082 -0.066016026 0.18324873
-0.108983494 0.26051283 0.10413319 -0.16382688 -0.1198637 -0.20074145 0.10316778 -0.12262074
0.13419102 0.16147426 0.04910407 0.0484025 0.07521661 0.022951145 0.1108709 -0.14660677
-0.02211816 -0.04439596 0.0049683102 -0.18527074 0.09158402 0.112351924 0.15152536 -0.20001328
-0.079131916 -0.16583677 0.06387066 -0.23210984 -0.15022433 0.049427558 -0.06851075 0.18205675
0.12757851 -0.052994143 -0.04542172 -0.18289374 0.13509043 -0.12992132 -0.041421335 0.1610771
-0.3036721 0.14706644 -0.04878273 0.070247136 0.010923164 0.15040377 -0.079126924 -0.09629484
0.049951795 -0.0809398 0.22209287 -0.17494577 0.06218666 0.19809872 -0.22247015 -0.16404563
0.023280473 0.052931108 0.10413144 0.00403475 0.11952074 -0.20676802 0.18362083 -0.038263626
0.09803443 -0.18050852 0.011475044 -0.052228283 0.071165666 -0.13056067 -0.008146596 0.17907968
0.16319767 -0.11862944 -0.13710402 -0.14792062 0.14523196 -0.17744243 -0.0545464 0.044574
-0.13326031 0.006712269 -0.024414774 -0.025165249 -0.0014309161 -0.14394732 -0.06390168 -0.0937957
-0.17237364 0.12269062 -0.16553742 0.1779141 0.072266564 0.12682079 0.17659774 0.12814409
0.056005627 -0.07701942 0.068839386 0.21461834 -0.08357973 -0.075767696 0.17201164 -0.034296684
-0.21976559 -0.17340818 -0.003551827 -0.110300064 0.088246815 -0.08746916 -0.18698387 -0.005408937
0.18068601 -0.09507612 -0.065851174 -0.12621906 0.015884513 0.14288558 0.13811223 -0.09462723
0.23832914 0.13683276 0.09878227 -0.16935417 -0.12771614 -0.094550475 0.20357297 -0.15241753
-0.13347834 0.11755089 -0.118617654 0.006411666 0.123076685 -0.13583599 0.068311945 -0.034110222
0.08420579 -0.1482115 -0.015073278 0.16568026 -0.17308374 0.18251728 -0.03530795 0.060616326
-0.037800275 0.22170502 -0.19980212 0.072383486 0.08274711 0.03410223 0.18873729 -0.1968493
0.063060105 0.19722827 -0.063976154 -0.1951302 0.08358416 -0.14238298 0.19574839 0.1358761

lstm.bias_ih f4 [200]
00000000: b50c 173d 86ad 5d3d 1b36 2d3c 22ac fa3d
00000010: e0b3 973d 704a 103e 615d be3d 1077 babb
00000020: 20a7 e33d e139 303e 4c4c ceb7 bdb0 283c
00000030: c0bf dabc 76af 393d 091f 1abd a2e6 013e
00000040: e1b9 a93d 16c1 2fbd 6ac1 e7bc 60f8 ef3d
00000050: f81a be3d 656c d93a 5b4e d6bd 5aea 983b
00000060: e699 923c 0f71 7c3d 7781 c03d b838 c3bc
00000070: c42d fd3d 5f62 da3c 083a fdbc 78e8 f7bb
00000080: bbc1 94bb aefc 6a3d 9576 c7bb 822f 0cbd
00000090: e82f 8e3d 4034 223e 9229 d93c c03f 133d
000000a0: fcd6 99bb 3259 293d feef 313c eb26 6e3d
000000b0: f4fd 42bd e9c2 b03d 23f1 ab3d 34be 2f3e
000000c0: 63a0 013e 0662 c93d f93e 063e 9ac2 e53d
000000d0: 6e48 ecbd 4f1a 7bbd 267b 45bd 9931 a3bb
000000e0: 650d 0bbe 71d7 68bd 9edd 4c3d c908 09bd
000000f0: 3088 a83c 4842 31bd d5c7 cc3d 0639 dbbd
00000100: 6aac 9a3d 4335 00be 8e26 833c 8d8c abbd
00000110: 7c92 5bbc 026b 3b3d 21f5 c1bc ea4a 423d
00000120: f847 0ebd 975a 053e 117a 09be e70b 893d
00000130: 5d3e 24be c00b 1abe fcdc 283d fd00 3bbe
00000140: 2a10 083e 0ee2 d43b fd00 b2b9 7234 04be
00000150: 0ce9 bfbd 7a27 c13c 38de e13c f87e 8d3d
00000160: 2eb3 b2bc cdf1 ad3d 6e18 093e a0b9 cabd
00000170: 9c14 86bd 8420 9dbd 7172 dfbc 6f78 07be
00000180: 0940 063d d496 7fbc 4ae7 113d 1cba 76bc
00000190: c533 5ebb 76b3 03be 32eb 273d c653 d0bd
000001a0: 8a07 ef3c f047 f0bc 8de6 74bd 3271 de3c
000001b0: cbaf 2dbd da7b e2bc 08bc b1ba 18ee a43b
000001c0: 572e 423d 1dfc bb3d 9e2c 5ebc 6dae f93d
000001d0: d596 c13d 4a50 4bbd b597 0c3e e86a 48bd
000001e0: 7933 41bd b086 143e 3c78 0b3d 5df6 a4bd
000001f0: 71ee be3c c957 2a3d e753 b1bb 2773 ccbc
00000200: 65f1 2e3d 968b b2bd cbe3 b1bd 7c00 ee3c
00000210: d7fc b9bd 4ccd 3e3d 072c a03d 055c aa3d
00000220: cc17 a73d cf89 ad3d c3bc 523c 18c8 1a3b
00000230: 79ef 723d a60c c93c 0479 e9bd 672d cebc
00000240: c7af 523d 83d2 fd3c c72f 5fbc dbb0 10be
00000250: f383 903b 2705 a63d 1554 9e3d c817 383e
00000260: 756a e43c fe25 f2bd c09c 1c3e 065c 003d
00000270: f9cb e43d 3272 64bc 801a d43d 9310 123e
00000280: ce4e 2d3e d564 2d3d 9766 1f3d e4c6 f3bc
00000290: 6ec1 7c3d 5f0a 213e f62f f93d b0c4 82bd
000002a0: 24f8 85bd b252 403e eee6 d63b 668d 043e
000002b0: 4825 4a3c 920c 61bd e331 01bc 99d1 4d3d
000002c0: f7e5 a13d 6326 fabb ca74 2e3e 0f18 fd3d
000002d0: 178d a93d 0c64 b23d 25c5 203e e912 793c
000002e0: bb06 7d3d b2c2 bcbd 6f74 903d 80e5 893d
000002f0: 2e2e 243d b47e 343e e31a 01be ed90 163e
00000300: 7123 d43d 685a 2c3e e2cf b53d c1c8 c53d
00000310: df81 98bd bc82 ee3d c5b1 cc3d 2f5e e43c
0.036877353 0.054120563 0.010571982 0.12239863 0.07407355 0.14090896 0.09295154 -0.005690463
0.11115861 0.17209579 -2.4592642e-05 0.010296044 -0.026702762 0.04533335 -0.037627254 0.12685636
0.08287407 -0.04290875 -0.02829047 0.11717296 0.09282488 0.001658809 -0.10464164 0.0046666088
0.01789565 0.06163126 0.093996935 -0.023830757 0.12362245 0.026658235 -0.03091146 -0.007565554
-0.004539696 0.05736988 -0.006087134 -0.034224994 0.06942731 0.15840244 0.02650908 0.03594947
-0.0046948176 0.04134483 0.010860441 0.058142584 -0.04760547 0.08630926 0.083956026 0.171624
0.12658839 0.098331496 0.1310996 0.11218758 -0.11537252 -0.061304387 -0.048213147 -0.0049802777
-0.13579328 -0.056846086 0.050016038 -0.033455644 0.020572752 -0.0432761 0.099990524 -0.10704236
0.075524166 -0.12520318 0.016009595 -0.08376417 -0.013401624 0.045756347 -0.023676457 0.047434725
-0.034736603 0.13022839 -0.13425471 0.06691723 -0.16039415 -0.15043545 0.041226372 -0.18262096
0.13287416 0.0064966744 -0.00033951542 -0.12910631 -0.09370622 0.023578394 0.027571782 0.06908983
-0.021813955 0.084933855 0.13388225 -0.098986864 -0.065469 -0.076722175 -0.02727625 -0.13229536
0.032775912 -0.015599925 0.035620965 -0.01505902 -0.0033905369 -0.12861428 0.040995784 -0.101722285
0.0291784 -0.029331177 -0.059790183 0.027153585 -0.042403977 -0.027646948 -0.0013560066 0.005033266
0.047407474 0.09178946 -0.013560442 0.12191472 0.09452597 -0.049637116 0.13729747 -0.04893008
-0.04716823 0.14504504 0.03405021 -0.080548026 0.023307057 0.041587625 -0.0054116133 -0.024957253
0.04271068 -0.0871803 -0.08686026 0.029052965 -0.090814285 0.046582505 0.078208975 0.083183326
0.08158836 0.084735505 0.012862387 0.00236178 0.05931041 0.024542164 -0.11400035 -0.025168134
0.051437166 0.030984169 -0.013622231 -0.14129965 0.004410261 0.081064515 0.07730881 0.17977822
0.027882794 -0.11823653 0.1529417 0.03133776 0.11171717 -0.013943242 0.10356617 0.14264135
0.16924593 0.04233249 0.038916197 -0.029757924 0.061707906 0.15726613 0.12167351 -0.063851714
-0.0654147 0.18781546 0.0065582907 0.12944564 0.01233799 -0.05494363 -0.007885429 0.050248716
0.079051904 -0.0076339706 0.17036739 0.123581044 0.08278864 0.08710489 0.15700205 0.015202262
0.061773997 -0.09216823 0.07053458 0.06733227 0.040083103 0.17626458 -0.12607913 0.14703722
0.103583224 0.16831362 0.08877541 0.096574314 -0.07446646 0.11646029 0.09994844 0.027876941

lstm.bias_hh f4 [200]
00000000: e6a0 193e 1939 893c 5e2d 253e ab1b 30bb
00000010: 2557 a83d a246 8a3d 5db5 993d 5e4e a33d
00000020: d0ec d63b 8bca 1d3e 6f55 f53d 0800 b4bd
00000030: 1e46 94bd 70ed 143e 08db 98bc 6cf2 e33d
00000040: 29ee e73d 4a89 573c 4a22 e7bc b7ef 9e3d
00000050: e68c e63d 7621 003d 57a5 64bd 0591 063d
00000060: a28a 003e 5832 143d a017 833d fffd 3abd
00000070: ce79 173e 95b7 743d 5760 00bd c3d7 4cbd
00000080: 25e6 6e3d 63a6 933d c9cc f43d fad8 123d
00000090: 0c92 173e 6604 a73c c7b8 9d3c 233e 5ebc
000000a0: 4cbb f33c 1f65 093e 44b5 7cbc 03c3 fc3d
000000b0: 3c91 2e3d df74 a63d 4d79 b83d a2d1 1b3e
000000c0: 4e25 84bd b871 eb3d 35ad dc3d 90e5 2e3e
000000d0: 4eb8 c2bd 3b01 00be 0c24 38be 3df9 833d
000000e0: c30a ebbc b744 a03c 7ce6 043e 641a 49be
000000f0: 473e 12bb 7f52 933d 4baf a9bd d4ac ddbd
00000100: 693d 5bbc 15ed 1bbd d839 033d c0e0 853d
00000110: c42e 3f3d 23ca d0bd deb3 ef3d bd37 d3bd
00000120: 4aac 02bd 251b 173e 5868 c1bd 5416 81bd
00000130: 7757 2d3c cdca 1b3c bfad 8f3d 6024 46be
00000140: caf4 97bc b23a cd3d f565 29bd e2ab 1fbe
00000150: 86c9 683b 06c6 063c ff1b c63d 6234 88bc
00000160: e72b 923d 024c 5f3d 106a 233e ecf0 e93c
00000170: 7d42 3ebd 095a 02bd 5d87 2c3d 790f 5cbe
00000180: 7cac 2c3e ed43 41bc 95c1 093e c6d0 b4bd
00000190: 5171 ebbd 0fdb baba db50 8ebc 8d19 79bd
000001a0: 1865 5f3d 24db 713d 2479 b3bd bb2a 84bd
000001b0: 4a6b 7bbd 34d3 0bbe cdd5 cbbd 11af 553d
000001c0: 573e fe3c 3186 893d 15bd 69bd ed79 4c3c
000001d0: 578d aa3d 926a babc 89aa 2739 63e7 84bd
000001e0: 3c0e 8ebc a791 c73d 346a a63c f5ba efbd
000001f0: f9ca 543d dd64 b03d c677 bcba 75f2 d8bc
00000200: a08a d53d 46d9 fabb bd88 51bc 2632 60ba
00000210: ffbd d8bc 7689 b6bd eaab 3e3d 75b8 fd3c
00000220: 4cfb 15bb 8f48 bc3d f585 b63d a79a 913d
00000230: 8e1b 8b3c 9d54 d63d 6ac0 bbbd 37d9 6c3d
00000240: 29a8 db3d 21f2 01bd 006c 86bd 4fcb e9bc
00000250: 0068 f3bb f5f6 9f3d bb10 1a3e cce7 8d3d
00000260: f617 2e3c 86ed ecbd 82f3 b93d cff7 fb3d
00000270: 251e 953d 2aa5 783c ebd8 833d e9e9 853d
00000280: 166c 023d 9945 0e3e 86b6 803d 8968 0d3e
00000290: 0507 d43c b97b ba3c ca7b c6bb 13ec cc3d
000002a0: 69e2 963d 0a84 113c e3a5 5a3d 220f d5bc
000002b0: cd6d d33d b5c8 793d 8321 833d 7630 263e
000002c0: 15d6 923d 48be 5d3d 1eca bf3c 6a2d cc3d
000002d0: dff7 17bd f573 6d3d dc12 013e 8abd a03c
000002e0: dd3e 6a3d 307d 89bd a6b1 043e 7278 b73d
000002f0: aedf 6fbc bc91 e33d 8292 88bc e898 023e
00000300: 7765 4b3c 492b 32bb 206f bf3d 2fd4 c33c
00000310: a396 a1bd 8c18 d23d 5153 2c3c ceb4 113c
0.15002784 0.01675086 0.16130587 -0.002687196 0.082197465 0.067517534 0.075052954 0.07973932
0.006558992 0.15409295 0.11979186 -0.087890685 -0.07239936 0.145437 -0.01865913 0.11130223
0.11324722 0.013155291 -0.028214592 0.07760566 0.11257343 0.03128191 -0.055821743 0.032853145
0.12552884 0.036180824 0.064009905 -0.045652386 0.14792559 0.05974539 -0.031341877 -0.050010454
0.05832495 0.0720947 0.11953122 0.035851456 0.14801806 0.02038784 0.019253148 -0.013564619
0.029752396 0.13417481 -0.0154240765 0.12341883 0.042618975 0.0812776 0.09007511 0.15216687
-0.06452428 0.114962995 0.10775224 0.17079759 -0.095078096 -0.1250047 -0.17982501 0.06444023
-0.028691655 0.019564016 0.12978548 -0.19638973 -0.0022314952 0.07193469 -0.082853876 -0.1082398
-0.013381341 -0.038067896 0.032037586 0.06537008 0.04667546 -0.101948045 0.11704229 -0.103133656
-0.03190259 0.14756449 -0.0944373 -0.06303087 0.010579935 0.009508801 0.07015561 -0.19349813
-0.018549342 0.10020961 -0.041357 -0.15592912 0.0035520508 0.008225923 0.096733086 -0.01662654
0.0713728 0.054515846 0.15958428 0.028557263 -0.046450127 -0.031824145 0.04212128 -0.21490277
0.16862673 -0.01179598 0.13452752 -0.08828883 -0.11496223 -0.0014255958 -0.01737254 -0.060815383
0.05453977 0.05904688 -0.0876334 -0.06453463 -0.061381616 -0.13654786 -0.09952889 0.05216891
0.031035585 0.06715048 -0.05706509 0.012480241 0.0832774 -0.022755895 0.0001598989 -0.06489446
-0.017340772 0.09744578 0.020314313 -0.11705581 0.051951382 0.08612988 -0.0014378957 -0.0264828
0.10426831 -0.0076552955 -0.012788949 -0.00085523946 -0.026457785 -0.08912937 0.04655067 0.030971745
-0.002288538 0.09193527 0.08912269 0.07109576 0.016980913 0.104653575 -0.091675594 0.05782434
0.107254334 -0.031725053 -0.06563568 -0.028539328 -0.0074281693 0.07810775 0.15045445 0.06928977
0.01062583 -0.115687415 0.090796486 0.12303125 0.0728114 0.015176097 0.06437858 0.065387554
0.03184136 0.13893737 0.062848136 0.13809408 0.025882253 0.022764074 -0.0060572373 0.10005965
0.07367403 0.008881578 0.05338086 -0.026008192 0.10323677 0.060982425 0.06402876 0.16229424
0.07169739 0.054136544 0.023411807 0.099695995 -0.037101623 0.057971913 0.1260485 0.01962163
0.057188857 -0.06713331 0.12958393 0.0895852 -0.014640732 0.11111781 -0.016671423 0.12753642
0.012414328 -0.0027186444 0.09347367 0.023904888 -0.0789006 0.10258588 0.010517911 0.008893205

lstm_args.weight_ih f4 [200, 150]
00000000: c061 debc 03cc 363e 96f1 87bc 272a 3f3e
00000010: 8352 923b 1040 f63d 960f d73d c582 d9bc
00000020: e5bf 273e 3d57 b2bd f9df 9ebd 3b47 ab3d
00000030: ac3f 503d 97ee 18be 8454 ecbd 1e37 60be
00000040: 8697 dbbd 2922 0d3e ebc3 93bd efa9 003e
00000050: 4581 273e 384a dcbd 6a3c 1b3e 1b18 523e
00000060: a7aa b43c f2c6 88be fcad 93bd e8d1 4fbe
00000070: 01e7 d4bc 13d8 173e 252a 6f3e 7bf1 cdbd
00000080: 5ed8 84be c23a 62be 6462 da3d 255b 1c3e
00000090: 75ee 023e 943e ee3d cab5 013e c569 373e
000000a0: ce91 bbbd bd60 87bd 5437 a7bc 3525 85bd
000000b0: 68a0 98bd 868a 9ebd 1130 80be d8ad 133e
000000c0: 801e a73d 718d b5bd 00fb 28be 474b 743c
000000d0: 0fec 65bd 1289 18be c06d 13be b28d 19bb
000000e0: 9d28 cc3d aed7 893c 6311 b83d 08ed 023e
000000f0: 7cf2 e2ba 662e abbb ce1b f3bd f7b6 34be
00000100: 11b8 4fbc a507 553d 6186 cabd dfc6 db3d
00000110: a62b 783d a865 193b b9bb 583d 34de 20bd
00000120: 87bb edbd f43c 043d dd69 3d3d 09ec 11be
00000130: ae5d 05bd 08d0 223d 83b0 d1b9 5964 713c
00000140: 1642 8b3c bd48 78bc 769a 523d 3404 acbd
00000150: d7e6 62bd b401 913d bc85 843b 3c8c a23b
00000160: 5917 913d c9df d5bb b0fa 4a3d 0551 b63d
00000170: b1bc 3b3e dc8b 263d e3a3 d3bb bd1b bcbd
00000180: 849e 363d 49f1 3d3e c7f2 0d3d 5610 c83c
00000190: 7c47 02be f198 043d c9bf c9bd e575 bfbd
000001a0: 7653 7c3d 3ef0 0ebe ae88 36be 1a4c 803c
000001b0: 5877 7a3d 28a7 9b3d be7a 8bbd fc6c d0bd
000001c0: 155e 2ebe 4509 0e3d 1f67 863d 17f0 fcbd
000001d0: 6034 cb3d d358 2b3d 2729 a0bd d5ff fc3c
000001e0: fc85 673d 45d6 ee3d 730b 04bd f790 2d3e
000001f0: e2bb 163e f9f2 aabd f7b9 9b3c d0f3 f63c
00000200: 1eed 4abd 3aca 1c3d d7db cfbd f8cd e63d
00000210: c8ef 3cbe c878 0ebe ce20 42be ce82 f53d
00000220: 07c3 1f3b e960 97bb 660b 5dbd 8051 423a
00000230: ffab 4abd c8ac 663d 3f47 c93d a0a7 3dbd
00000240: bf52 353c b4cf 36be 5459 3f3e fac4 babd
00000250: 8496 093e 2866 f83d 9c30 3d3c 9a7c 093f
00000260: d1f7 583d 5c2d 4b3d b644 6d3e 159f 9f3e
00000270: 7081 19be 6cfc c83d 27ee e53e 4f3d ccbe
00000280: caca bdbe d722 23be 9aa1 f73e 60dd a8be
00000290: c0a1 05bf 87f5 1bbd 1e01 e1be f3e7 c13e
000002a0: 90ad bbbd 0e28 f23d d9e8 d03e 2184 e2bd
000002b0: 0000 eebd e76a 543e 5630 1e3e 325d 68be
000002c0: cd52 ffbe 7aeb 82be 27d4 b3be d6c8 853e
000002d0: 44fb 343e 40f1 93be e10b b3bd de2c e3bc
000002e0: 5701 e93e 3df3 1ebe 3c73 cc3e f87d cc3e
000002f0: 7df1 00bd 9481 b53e e2aa aabe 24fd 8b3d
00000300: 2dfa 9ebe 0af1 c2be 3474 c5be 0cf0 81be
00000310: e2a2 d6be b0e0 94be 5fec c93d d20e cc3e
00000320: 7869 c3bd 4b70 c53c 0bce fbbd 826b 5d3d
00000330: b8cb 00bd 5ad2 94bd fc47 53bc fbed 623d
00000340: 6c96 9fbc 8ad3 34bc 3a66 a7bd 4f0a 1f3d
00000350: 2777 553d 7964 4e3d f059 cbbd c4ad 563c
00000360: 9ff6 a6bd 6232 7a3c 4918 2dbb 9110 a13d
00000370: 795f 04bd 9b04 ebbd ba40 793d 3c00 97bc
00000380: dd23 573d 410d 3f3d 0de5 653d fa28 cb3d
00000390: b897 ac3d 2ef5 d9bb 3c4a 903c 842e d4bd
000003a0: 883b bd3d a26d 5dbd 620b 4dbd 5cc6 043e
000003b0: d048 89bd 7ebb 7f3d 15e6 203d 8156 133d
000003c0: 6528 b73c 1225 b23d 19ba b63c 1c1e 073d
000003d0: 57ba 5f3c 988c aebd 870c 47bd 8a95 e53d
000003e0: b1b1 cf3d e172 7e3b 4ed0 7a3d ec63 e03d
000003f0: 9ef9 a8bd 735f 00bd 181d f63d c758 e9bc
-0.02714622 0.17851262 -0.01659469 0.18668424 0.0044654026 0.12023938 0.1050102 -0.026551614
0.16381796 -0.08708046 -0.07757563 0.083631955 0.050841972 -0.14934765 -0.115395576 -0.21896026
-0.1072226 0.13782562 -0.07215103 0.12564825 0.16357906 -0.107563436 0.15159765 0.20517008
0.02205403 -0.26714283 -0.07210919 -0.20294917 -0.025989057 0.1482852 0.2335592 -0.10055824
-0.25946325 -0.22092727 0.10663298 0.15269144 0.12786277 0.116330296 0.12667003 0.17911442
-0.091586694 -0.06610248 -0.020412125 -0.06501237 -0.0745247 -0.07741265 -0.25036672 0.14421785
0.08160114 -0.088648684 -0.16501999 0.014910526 -0.056133326 -0.14896038 -0.14397335 -0.0023430404
0.09968684 0.016826477 0.08987691 0.12785733 -0.0017314698 -0.005224037 -0.11870538 -0.1764792
-0.012678162 0.052009244 -0.09888912 0.10731291 0.0605885 0.002340654 0.0529134 -0.03927441
-0.116080336 0.032284692 0.046243537 -0.14250197 -0.032560043 0.039749175 -0.00039995098 0.014733397
0.016999286 -0.015154061 0.051416837 -0.08399239 -0.055395927 0.07080403 0.0040442627 0.004960565
0.07084531 -0.0065269214 0.04955548 0.08902172 0.18333699 0.040660724 -0.006458746 -0.09184978
0.044584766 0.18549074 0.03465536 0.024421852 -0.12722582 0.03237242 -0.09851033 -0.093486585
0.061603032 -0.13958833 -0.17825577 0.015661288 0.06114897 0.07600242 -0.068105206 -0.10177037
-0.17028077 0.03467681 0.065626375 -0.12350481 0.09922099 0.041832756 -0.07820349 0.030883709
0.05652426 0.116619624 -0.03223748 0.16949831 0.14720109 -0.083471246 0.019009573 0.030145556
-0.04954254 0.038278796 -0.10149353 0.11269754 -0.18450844 -0.13913262 -0.18957826 0.1198784
0.002437772 -0.004619707 -0.05396595 0.0007412657 -0.049480435 0.05631712 0.09828042 -0.046302438
0.0110670915 -0.1785267 0.1868642 -0.091196015 0.13436323 0.1212886 0.011547234 0.5370575
0.05297071 0.049603805 0.23170742 0.31176057 -0.14990783 0.09813771 0.44908258 -0.39890525
-0.37068778 -0.15931259 0.4836548 -0.32981396 -0.52199936 -0.03807595 -0.43946165 0.37872276
-0.09163964 0.11824046 0.4080265 -0.11060358 -0.11621094 0.20743905 0.15448126 -0.22691801
-0.4986786 -0.2557028 -0.35122797 0.26129788 0.17673975 -0.28894997 -0.087425 -0.027731355
0.45508835 -0.15522476 0.39931667 0.39939857 -0.0314803 0.35450423 -0.33333498 0.06835392
-0.31050244 -0.38074523 -0.38565218 -0.25378454 -0.41921145 -0.29077673 0.09859537 0.39855057
-0.09541601 0.024101397 -0.12295159 0.054057606 -0.03144428 -0.07266684 -0.01289558 0.055402737
-0.019480906 -0.011036763 -0.08173795 0.03882819 0.052115586 0.050388787 -0.099292636 0.013102952
-0.08152508 0.015270801 -0.002641218 0.07864488 -0.032317612 -0.11475488 0.060852744 -0.018432729
0.052524436 0.0466435 0.056126643 0.09919925 0.084273756 -0.006651542 0.017613523 -0.10360435
0.0923987 -0.054059632 -0.050059684 0.12966293 -0.06703341 0.062434666 0.039281923 0.03597117
0.022358129 0.08698477 0.022305535 0.0329877 0.013655267 -0.0852291 -0.04859593 0.11210163
0.10141314 0.0038825797 0.06123381 0.109565586 -0.08250736 -0.031341027 0.12017268 -0.028484715
