models/mcts_models/german_experiment-2021_12_20-16_27_11.model (torch, 407122 bytes, 47 tensors)

Mprog.weight f4 [1, 100]
000000 33 b2 95 3f aa be 8f 3f 9b a3 12 40 ee 83 d5 3e
       1.1695007 1.1230061 2.2912357 0.41702217
000010 4f 5e 22 3e 0f 0c e7 bf 5d 9e 53 be be ca 65 3f
       0.15856288 -1.8050555 -0.2066588 0.89762485
000020 9c eb 1c 3f d6 b4 8c 3e 73 73 b2 be e5 92 89 3f
       0.6129701 0.27481717 -0.34853706 1.0747954
000030 ed 3a 0f 40 87 44 bf 3e d9 9a a8 bf 4a 07 d3 3d
       2.2379715 0.3735697 -1.3172256 0.10304125
000040 10 37 af 3e f6 88 6e 3f 94 1b 11 bf 7c 80 a9 bf
       0.34221697 0.93177736 -0.56682706 -1.3242335
000050 c1 6d d0 bf 8a 72 99 3f 34 88 95 3f 41 61 bd 3f
       -1.6283494 1.198808 1.1682191 1.4795305
000060 45 15 8d 3f 92 60 37 bf 01 69 bb 3f 90 27 18 3f
       1.1022116 -0.7163173 1.464142 0.5943537
000070 bd 2a 82 bf e4 1a 7d be c0 89 ab 3d ce d1 c6 bd
       -1.0169293 -0.24717289 0.08375883 -0.09707986
000080 28 6b bc be 29 2a 9a 3f b5 4c 9a 3d bc f8 09 bf
       -0.36800504 1.2044116 0.07534162 -0.53895164
000090 2e 55 2e 40 c7 41 1f bf 36 86 93 3d 7c 57 38 3f
       2.723949 -0.62209743 0.07203333 0.7200849
0000a0 4e a0 40 bf c4 1e 4e 3f b4 b2 0e be c7 10 fb bf
       -0.75244606 0.80515695 -0.13935357 -1.9614495
0000b0 e6 8f a3 3f 1a 72 6a 3f c0 8a 67 bf 60 0f 0f 40
       1.2778289 0.91580355 -0.9044609 2.2353134
0000c0 91 84 03 bf f9 87 82 3f aa 63 a9 bf 17 ce ad 3f
       -0.51374155 1.0197746 -1.323354 1.3578519
0000d0 13 ad d9 bf 0c 95 9f be 75 2a 4e 40 b1 88 ac bf
       -1.7005943 -0.311684 3.2213414 -1.3479215
0000e0 07 ac ab be 5d d5 ed bf ca 07 1c bd 86 5e 33 bf
       -0.33529684 -1.8580738 -0.038093366 -0.70066106
0000f0 b3 4f b1 3f 47 c1 01 be e0 96 a2 3f 5d a4 ce 3e
       1.3852447 -0.12671386 1.2702293 0.40359774
000100 d6 b3 b3 bf e5 ea 75 3f 0b ad 29 3f 5e 86 86 bf
       -1.4039257 0.96061546 0.6627967 -1.0509756
000110 01 50 b7 3f 79 5b 80 3d 53 c6 b0 be 8a bd 7d bf
       1.432129 0.06267447 -0.3452631 -0.9911734
000120 32 a4 41 3f 20 60 52 3d aa 04 80 3c 21 67 43 3f
       0.7564117 0.051361203 0.015627224 0.7632924
000130 ec ed 5c 3f a1 bd f3 3f a8 55 92 bd bb ef bd be
       0.8630054 1.9042245 -0.07145244 -0.37096962
000140 46 3d cd 3f 45 e8 5b 3e 82 00 9f bf 8c 08 d8 bf
       1.6034324 0.21475323 -1.242203 -1.6877608
000150 74 42 11 40 1e 57 bf bf 86 a7 e7 3e 17 d9 a2 bf
       2.269681 -1.4948461 0.45244998 -1.27225
000160 72 6f cd 3e 72 c7 b6 bf e2 e8 33 3e 85 45 46 3f
       0.4012409 -1.4279616 0.17569306 0.7744983
000170 97 93 26 3f 8a 44 b4 bf 03 a6 97 3f bb 2a 10 be
       0.65068954 -1.4083416 1.1847538 -0.140788
000180 4d 41 0e 3f ff de 5a 3f db 98 a2 bf 37 47 f2 3d
       0.5556839 0.85496515 -1.2702898 0.118299894

encoder.l1.weight f4 [50, 44]
000000 f0 2f b8 bd 78 40 11 3d ad bd 0e bd 52 10 ac 3d
       -0.08993518 0.035461873 -0.034848858 0.0840155
000010 8f 01 94 3d 00 b5 31 bd 48 fe ea bd 42 63 37 3c
       0.0722686 -0.043385506 -0.114742815 0.0111930985
000020 18 12 89 bd f2 b9 2f 3e dd e3 25 3e 97 a0 8b 3d
       -0.06692904 0.17160776 0.16200204 0.068177395
000030 a9 e3 ca 3d f5 46 83 bd 46 82 1f 3e 24 b2 17 be
       0.09906704 -0.06410018 0.15577039 -0.14814049
000040 6c 40 37 3d b6 8e 23 bd 43 6a e7 3d 1b 32 08 be
       0.04473917 -0.03993102 0.11299565 -0.13300364
000050 4f b1 b8 bd 5b 58 0f 3e 9f b3 b3 bd 41 88 27 be
       -0.09018194 0.13998549 -0.087744944 -0.1636057
000060 6e b7 d9 bd f2 d9 d2 3d 67 04 f4 bd 19 03 6b 3b
       -0.106306896 0.10295476 -0.11914902 0.003586
000070 74 f8 91 3c 4a 47 2c be a8 3d 23 3e fc 82 a0 bd
       0.017818667 -0.1682407 0.15941489 -0.07837483
000080 77 bf 1b bd d5 c6 04 b9 d5 68 87 3d 84 06 b7 3e
       -0.038024392 -0.00012662572 0.06611792 0.3574716
000090 2b aa 65 bd 81 af 97 bc 40 f2 b8 3e 5e 2b d0 bd
       -0.056070488 -0.018516304 0.36122322 -0.10164522
0000a0 20 4f e7 bd 6b 61 46 3c c8 98 43 3e 56 d2 b3 3e
       -0.11294389 0.012108187 0.1910125 0.3512141
0000b0 60 ea 5d 3b 1c 6a a2 3d 0c 42 9a 3d 03 c8 81 bd
       0.0033861622 0.07930395 0.07532129 -0.06336977
0000c0 52 eb 1f 3e 60 ae ca 3b 7c 0d 23 be eb 4e ae 3d
       0.15617111 0.006185338 -0.15923113 0.08511146
0000d0 a8 bb 96 3d ca 2e b7 3d e2 9f 4b 3e d8 51 d8 bc
       0.07360011 0.08944471 0.19885209 -0.026406214
0000e0 ee 4a a6 bd 83 95 83 bd 62 5a 2d 3d f6 20 87 3d
       -0.081197605 -0.064250015 0.042322524 0.06598084
0000f0 b6 cc 64 3e 40 8a bc bc 7e 2c 07 3e e8 93 1a bd
       0.22343716 -0.023015141 0.13200566 -0.03773871
000100 88 b3 2a 3e 2f ac 2e bc 48 ef 50 3e 7c 95 86 bc
       0.16670048 -0.010661169 0.20403779 -0.016428702
000110 a8 d1 cb 3d 2b 08 ed bc fb 42 51 bb 4b 93 90 3e
       0.09952098 -0.028934559 -0.0031930793 0.28237376
000120 ab 1c 92 be 6f 59 25 be 85 70 91 3d dc 03 b6 3e
       -0.28537497 -0.16147397 0.071015395 0.3554982
000130 c8 79 b5 3d a9 7c 4b be fe ad d9 3d 56 d0 f5 3d
       0.088611186 -0.19871773 0.106288895 0.120026276
000140 0d 28 a4 3d 5a b3 67 bd fc 49 8e bd 2a e1 3a 3e
       0.080154516 -0.056567527 -0.06947705 0.18249956
000150 6e d7 b3 3d 4e 43 9f bd 87 71 78 3d 9b 72 97 3d
       0.08781324 -0.07776509 0.060655143 0.07394906
000160 5e e8 4d 3d 9d ae 7b bd 32 ad cc 3d 30 2f 14 3e
       0.05027043 -0.06144582 0.09993972 0.14471126
000170 7a 60 55 bb 74 ef cd bc ba fc ad bd 9a 7b 6e bd
       -0.0032558725 -0.025138594 -0.084954694 -0.058223344
000180 85 cb 6b 3d 0e 9d e3 bd 88 81 08 bd 80 69 08 ba
       0.05756714 -0.1111394 -0.033326656 -0.0005203709
000190 db f5 c0 bd 90 e6 c7 bc 65 91 3a bd 99 35 e4 bd
       -0.09421893 -0.024401933 -0.045548815 -0.111430354
0001a0 fc 36 6f bd 20 a1 f5 bd 3b 60 7d bd 1e e5 87 bd
       -0.058402047 -0.11993623 -0.06185935 -0.066354975
0001b0 26 28 16 bd bf 87 be 3d 83 9e 88 3d f3 59 35 be
       -0.036659382 0.09303235 0.06670859 -0.17710094
0001c0 a3 ad 2c be f5 c6 90 3d 9d 4b 33 3d f7 c2 5f 3d
       -0.16863112 0.07069198 0.043773282 0.054629292
0001d0 4d e5 a8 3d 51 fc 51 3e 50 ee a8 bd 7c 99 3e be
       0.08246861 0.20506407 -0.082485795 -0.18613237
0001e0 63 65 05 bd 78 71 30 3d 50 ab 23 3d 30 0b 98 3e
       -0.032567393 0.043076962 0.0399583 0.29696035
0001f0 9d 4c bc 3d 37 5e 3c bd 60 8b 8e 3e 7a 2e 40 be
       0.091943 -0.045988288 0.2784071 -0.1876773
000200 24 08 08 be 8d ef 1e 3e af 07 ac bd c5 aa c9 3e
       -0.13284355 0.15521069 -0.08399903 0.393881
000210 94 08 ca bc 1f c5 06 be 5a 2e 9b bd 3d 8d 3f 3e
       -0.024662293 -0.13161133 -0.075772 0.18706222
000220 8f 00 ae bd 1a a1 7f 3d 33 21 eb bd 30 25 2f bc
       -0.084962 0.062409498 -0.114809416 -0.010690019
000230 38 98 a0 bc c0 ca ad bd a3 ea c8 3d a6 fc 13 bd
       -0.019603834 -0.08485937 0.098103784 -0.036129616
000240 2d d9 52 bd 1f ca 5e bd 44 9a 5d 3d b4 61 82 bd
       -0.051476646 -0.054391976 0.054102197 -0.06366292
000250 ed 33 e6 bd f6 23 6e 3d c9 f9 6e 3d 4f 41 61 3d
       -0.11240373 0.058139764 0.058343682 0.054993924
000260 1a b8 d4 3d 90 e6 e6 bd db e8 c6 3d 77 94 fa 3c
       0.10386677 -0.11274445 0.097123824 0.030588372
000270 6e ea 3b bd 82 89 58 bd aa 51 12 3d e2 58 5b 3d
       -0.045877866 -0.052865513 0.035722412 0.053551562
000280 f1 f1 3b bd 82 74 1a be c3 0e 25 3c b1 6d 11 3e
       -0.04588503 -0.15083507 0.01007432 0.14202
000290 ca 49 90 ba d7 56 fd bd 7d d8 cc 3d 90 2c ab 3d
       -0.0011008319 -0.12370079 0.10002229 0.08358109
0002a0 2b b1 32 3e f8 29 2a 3d 8d af 08 3e 05 1e 3f bd
       0.17450397 0.04154393 0.13348217 -0.04665949
0002b0 ff a2 87 3d 08 ac e5 bc 20 fd c8 bd a4 8f 20 3e
       0.06622886 -0.028036132 -0.09813905 0.15679795
0002c0 a8 7c cc bc 88 f2 c6 3c 68 86 96 3d 70 90 1b bd
       -0.024961784 0.02428557 0.07349855 -0.037979543
0002d0 95 61 96 3d e4 d4 0c bd 0a 0c 72 bd 81 5c 11 be
       0.07342831 -0.034382716 -0.059093513 -0.14195444
0002e0 4b 34 ff 3d 4a d0 3c 3d 71 bf 39 be b4 d8 e3 bc
       0.12461146 0.046097077 -0.18139435 -0.027813293
0002f0 e0 d0 9c bc c3 d5 4c be f6 7b 0b 3e c1 46 96 3d
       -0.019142568 -0.20003419 0.13621506 0.07337714
000300 56 4d 09 3e b1 9a dc ba 1f 0a 81 be e7 00 30 3e
       0.13408408 -0.001683077 -0.25203034 0.17187844
000310 a9 40 b5 3d a5 11 59 3d 22 93 1e 3d 76 2f c5 bd
       0.088502236 0.052995343 0.038714536 -0.09628193
000320 59 f8 25 3e a2 03 4a be bc ef af bd c2 4c 87 bd
       0.16208018 -0.19727948 -0.085906476 -0.06606437
000330 48 6c 24 3d 1a d5 da bc f2 90 d4 3d 24 c4 6a 3d
       0.040142328 -0.026712943 0.103792086 0.05731596
000340 6e 91 c5 bc 86 ab 29 3e 86 ef 7a 3d 75 18 93 be
       -0.024117198 0.16569337 0.061263584 -0.28729597
000350 75 cb c2 bd e7 11 d2 bd 64 9f d3 bb ef 24 75 3d
       -0.095114626 -0.10257321 -0.00645821 0.059849676
000360 aa 6e c0 3c 91 4e 35 3e af 2d 53 3c 56 a4 b3 be
       0.023490269 0.17705752 0.01288931 -0.35086316
000370 12 24 a8 bd fa 88 00 bd c4 aa 4d bd 3c ea 4e 3d
       -0.08210005 -0.03138063 -0.050211683 0.050516352
000380 1f 70 dc 3c 22 fb 41 3d c4 4e 9f bd a7 03 a8 bd
       0.026908932 0.04735864 -0.07778695 -0.08203822
000390 28 83 42 3e ef 00 e2 bd bf 31 70 3e cd 21 49 bd
       0.18995345 -0.11035334 0.23456477 -0.0491045
0003a0 f4 2f 99 bc 66 78 af 3d 25 c5 92 bd 2a 25 7a 3d
       -0.018699624 0.08567886 -0.071665086 0.0610706
0003b0 7e 66 16 3d 97 ed bf 3d 9b 37 28 3e 2a 32 1f 3c
       0.036718838 0.093714885 0.16427462 0.00971655
0003c0 b0 5d 6f bd df 9f ee 3d 4a d8 da 3c bf 95 a8 bd
       -0.058438957 0.11651587 0.026714463 -0.08231687
0003d0 02 af 3d bd 21 63 29 bd ed 8c 37 3c 18 00 04 3e
       -0.04630948 -0.041354302 0.011203033 0.12890661
0003e0 28 24 73 3c 22 c2 ba bd 87 71 5b be bf 34 72 3e
       0.014840163 -0.09119059 -0.21430026 0.23652934
0003f0 3d 4a e6 3d 2e c2 8b bc 0a fb 5f bd f6 72 4b 3e
       0.112446286 -0.017060366 -0.05468277 0.19868073

encoder.l1.bias f4 [50]
000000 3b 7e 23 bd 49 c1 08 3c 77 60 66 3c 85 c7 93 3d
       -0.039915305 0.008346864 0.014061085 0.0721579
000010 05 f2 32 3d 58 e9 33 bd c7 19 eb 3c 4d 20 1f 3d
       0.04368784 -0.043923706 0.028698815 0.038849164
000020 f4 1b 46 3d 9f 0e 1a bd 2c 91 11 3c d6 e7 0d 3e
       0.048366502 -0.0376116 0.008884709 0.1385797
000030 78 5c 17 3d 4f 57 83 bd 9e 37 59 3c fd 66 5d bd
       0.03695342 -0.06413137 0.013257889 -0.054053295
000040 76 56 31 bd e2 40 78 bd a1 8d 60 bd 35 c0 01 3d
       -0.043295346 -0.060608752 -0.054822568 0.031677444
000050 1d 65 12 3d 86 36 49 3d a0 39 e9 bc bc c5 ce 3c
       0.03574096 0.049124263 -0.02846986 0.025240771
000060 31 9e 26 bd 85 8c 48 bd 94 e7 a2 bd 2c a6 95 3d
       -0.040678207 -0.048962135 -0.07954326 0.073070854
000070 36 ee 85 3d db ad 0d bb 5b 9d b4 3c c8 0f 78 3d
       0.06539576 -0.0021618519 0.02204769 0.060561925
000080 60 3d d1 3c 8f 31 1f 3d 8c bc 13 3d 25 be ad 3d
       0.025541961 0.038865622 0.036068484 0.08483533
000090 ef 67 30 bd 4b 8a 40 bd 9c b6 3e 3d d2 9c 3d bd
       -0.04306787 -0.047006886 0.04656087 -0.046292134
0000a0 52 17 4e bb 43 de 43 3c 89 7e 69 bd 65 18 00 3d
       -0.0031447005 0.011954847 -0.05700544 0.031273264
0000b0 74 28 4f 3d 15 8b a9 3d 9a 87 0e 3c 58 dc f8 ba
       0.05057569 0.08278481 0.008699322 -0.0018986566
0000c0 cd e0 08 bd 6d 88 8b 3d
       -0.03341751 0.068131305

encoder.l2.weight f4 [50, 50]
000000 9b a0 94 3e 45 62 08 3e 4d 2f 54 3e 75 2f c2 bc
       0.29028782 0.13318737 0.20721169 -0.02370427
000010 1b b2 45 be 9d 9e 73 3e de ae b1 3d a2 29 66 3e
       -0.19306223 0.23790975 0.086759314 0.22476819
000020 10 26 8a 3d 22 bb 0a 3d 01 47 36 3e bb 61 c4 bc
       0.06745541 0.03386987 0.17800523 -0.023972383
000030 c0 9d 98 be 06 e6 86 3e fa 0a 5b 3d e0 78 50 3d
       -0.29807854 0.2634737 0.053477265 0.050896525
000040 de 3a ee 3d b9 c4 27 3e 06 d3 c3 3d b4 0a 9c bd
       0.11632322 0.16383637 0.09561734 -0.07619229
000050 e6 b5 02 3e ba 07 7c 3e cc 6e 31 3e d8 d1 40 b9
       0.12764701 0.24612322 0.17327422 -0.0001838872
000060 f9 42 5e 3e f1 75 a4 3d a8 16 aa 3e 06 4f 0e 3e
       0.21705236 0.08030308 0.3322041 0.13897333
000070 1c 51 ea 3c 87 ab 56 3e 52 75 e1 3d e2 25 aa 3e
       0.02860313 0.2096387 0.11008705 0.33232027
000080 cc a8 a0 bc 3f 50 37 3e bf ba 40 3d c4 a5 12 bb
       -0.019611739 0.17901705 0.047053095 -0.0022376636
000090 78 34 3d 3e ad e4 85 3e f1 b7 dc 3d 8e 1e a7 3e
       0.18477046 0.26151028 0.107772715 0.326405
0000a0 ad db 07 3e fb 0a 10 3e 61 bc af bd b6 c7 27 3c
       0.13267393 0.14066689 -0.08580852 0.010240486
0000b0 43 b9 9d 3d 93 06 97 3e 25 f2 07 3e f6 10 4b 3d
       0.077013515 0.29497203 0.13275965 0.049576722
0000c0 70 35 5f 3e a4 eb 9a 3d 92 58 a1 be 07 af ff bd
       0.21797729 0.07564476 -0.31512886 -0.12484556
0000d0 86 37 ff bd 62 1a 9a bd 94 af 8e 3d 96 af 66 bd
       -0.12461762 -0.07524563 0.069670826 -0.056319796
0000e0 30 57 16 be 89 83 d9 bc 93 0f 59 bd 22 36 69 be
       -0.14681697 -0.026551979 -0.05299337 -0.22774556
0000f0 6c b0 3e be 1d 41 e6 3d cc ec a6 3e ca 21 d4 bd
       -0.18621987 0.11242888 0.32602537 -0.10358007
000100 5f 03 7e bd 53 c5 32 3c ce cb ba b8 41 29 72 be
       -0.062014934 0.010911304 -8.907133e-05 -0.2364855
000110 a9 81 a9 bd 2f 47 02 3e 9a 03 05 be 04 a8 72 be
       -0.08276684 0.12722467 -0.12989655 -0.23696905
000120 13 ac 6d be 59 70 19 be 8e 39 a0 bb fd cd 36 bd
       -0.23210172 -0.14984263 -0.0048896736 -0.04463004
000130 e7 32 1a be b8 09 6c be 61 c7 12 be 6a 1e 60 be
       -0.1505848 -0.23050582 -0.1433387 -0.21886602
000140 fa c2 0a be 06 82 8c be 85 44 fd bc c8 89 54 be
       -0.1355094 -0.2744295 -0.030916462 -0.20755684
000150 99 55 30 bd 5f b7 38 3d 39 35 bc bd 76 7b 10 bd
       -0.043050382 0.04509675 -0.09189839 -0.03527399
000160 78 73 3b be f8 52 68 be 15 d9 16 be 84 a6 52 be
       -0.18305767 -0.226879 -0.14731248 -0.20571333
000170 c4 76 e1 bd 81 6b ab bd 5a 2d 89 bc 20 7e 91 be
       -0.11008981 -0.08370114 -0.016745258 -0.28416538
000180 b1 60 2e be 93 5b 2e be 06 96 1a be 1e f8 07 be
       -0.17029072 -0.1702712 -0.15096292 -0.13278243
000190 96 33 c6 be aa 0d c0 3d 88 7a 4f be ca 01 81 3d
       -0.38711232 0.09377606 -0.20261586 0.06299169
0001a0 ae 1f 5a 3e 6b 3e fe bd ad ec 85 3e a2 73 44 be
       0.21301147 -0.12414249 0.26157132 -0.19184735
0001b0 f3 f1 85 bd b7 88 af bd 2b b0 99 be bb 9c f8 3d
       -0.06540289 -0.08570998 -0.30017218 0.12139269
0001c0 f7 ed 62 3e ff dc ed bc 69 e4 1e be 5b 36 a4 be
       0.22161089 -0.029036043 -0.15516819 -0.3207272
0001d0 2e d3 ca bd da 9a 86 be 48 f0 14 be 4d 56 98 3e
       -0.099035606 -0.26290017 -0.14544785 0.29753342
0001e0 be a1 42 be 90 2f 97 3d 28 71 b5 bc a8 5c f5 bc
       -0.19007012 0.07382119 -0.022148684 -0.029951409
0001f0 22 94 db 3c 27 bd b0 bd 33 41 4b be a2 a1 22 be
       0.026804034 -0.08629828 -0.1984909 -0.1588197
000200 cf 78 63 be ee f5 86 be f7 ec 31 3e ab d9 fc bd
       -0.22214054 -0.26359504 0.17375551 -0.12346204
000210 57 3f 5d be 19 2e 23 bd 69 20 62 be ee f5 87 bd
       -0.21606193 -0.039838884 -0.22082676 -0.06638704
000220 59 52 32 3d 28 86 09 3d 0b 21 3d 3c 60 0c b8 be
       0.043535564 0.033575207 0.011543523 -0.3594694
000230 a2 32 97 3d 5b 9f cc bd 6c ba 22 be 03 b8 b0 3d
       0.07382704 -0.09991332 -0.15891427 0.086288475
000240 c2 81 ba bd f2 5a f2 bd 78 1d ac 3d f7 29 e4 3c
       -0.091067806 -0.11833753 0.08404058 0.027852042
000250 1c d5 e4 bc e5 9b 19 bd 43 be 24 be c6 79 83 be
       -0.02793365 -0.03750219 -0.16088204 -0.25678843
000260 d8 08 67 bd 4a 77 a0 3d 12 fb 6c 3d 6d e9 0f be
       -0.05640492 0.078352526 0.057856627 -0.14053889
000270 32 93 c9 bd 8a da da 3d 15 07 12 3d ad de 09 be
       -0.098425284 0.10686214 0.035651285 -0.1346385
000280 ba da 85 bd e3 1c d4 3c 06 48 9e 3e 08 cc 96 be
       -0.065358594 0.02589268 0.30914325 -0.29452538
000290 e6 10 a4 bc 07 7d 6b 3d 2c 98 3c bd 78 69 00 be
       -0.020027589 0.057492282 -0.04604356 -0.12540233
0002a0 75 aa b3 bc dc 44 f4 3d 65 31 13 3c 0d 21 9d be
       -0.021931866 0.119271964 0.008983945 -0.30689278
0002b0 03 6f 93 be 13 44 bf 3c a8 b0 05 b9 c0 8c 27 3e
       -0.28795633 0.02334789 -0.00012749678 0.16362286
0002c0 0c de 15 be 56 dc 7b bc f5 a9 5d bc 71 f5 69 bd
       -0.14635485 -0.015372356 -0.01352929 -0.057118837
0002d0 33 4a 73 be 6a f2 83 be 4f ce 54 bd 40 21 da bd
       -0.23758774 -0.25770885 -0.051954564 -0.10650873
0002e0 d2 71 4d bd 0d 5d fd 3d 4d 61 ab bd 9c a5 51 be
       -0.050157376 0.12371264 -0.08368168 -0.20473331
0002f0 b5 f9 1f be a4 68 cf bd 7a 5d 18 be d7 d0 17 be
       -0.156226 -0.101273805 -0.14879408 -0.1482576
000300 34 26 09 be 53 02 37 be 99 35 8d 3c 75 7d 14 be
       -0.1339348 -0.1787198 0.017237471 -0.14500983
000310 bc 2f da bc 34 cb 7d be 30 e5 60 be 7e a5 5c 3d
       -0.02663409 -0.24784547 -0.21962428 0.053868763
000320 7b 0f 28 3e 33 7d 93 3e 2f b2 ab bd 09 e4 8a 3c
       0.16412155 0.28806457 -0.08383595 0.016954439
000330 9d 39 56 be 0e 70 a0 3d 3f 70 a6 3e 4b 05 6f bd
       -0.20920415 0.07833873 0.32507512 -0.058354657
000340 a5 d5 27 bd 56 c8 13 3e ab 5f a7 3d 85 47 6f bd
       -0.04097523 0.14431891 0.08172544 -0.058417816
000350 34 7f 48 be a1 5a 44 3e d6 99 c9 bc 43 75 53 be
       -0.19579774 0.19175197 -0.024609488 -0.206502
000360 e3 62 2b be 90 cb 59 3e 62 64 59 bd 70 6e 85 be
       -0.16736941 0.21269059 -0.053074248 -0.2606082
000370 48 05 41 be 1d 1c 65 3e 53 c7 80 3d 14 05 b5 3d
       -0.18849671 0.22374006 0.06288018 0.08838859
000380 a8 15 c9 3d 18 b9 c0 bd e7 79 7b 3e 30 f7 80 3c
       0.09818584 -0.09410304 0.24558221 0.015742868
000390 9c 9e 94 bd ff 27 06 3d c1 f5 cc 3e 3f 3a a6 3d
       -0.07256815 0.032752987 0.40031245 0.08116578
0003a0 7f c8 f3 3c 15 0e 75 3e 27 f3 77 3b 41 00 fd bd
       0.02975869 0.23931153 0.003783414 -0.12353564
0003b0 f3 b0 85 3e 97 85 59 bc 65 c1 4b 3e a9 6e f4 3d
       0.26111564 -0.013276479 0.19897993 0.11935169
0003c0 04 3e 1f 3e 38 a4 b0 3d 05 46 c4 bc 4d 85 d8 3d
       0.15551001 0.08625072 -0.02395917 0.105723
0003d0 98 36 0e 3c 6f 9b bb 3d b3 6e 57 3c 85 70 5c 3e
       0.008680008 0.09160506 0.013148951 0.21527298
0003e0 b0 ac ef 3c a7 0f b5 3d 98 93 c9 3e 07 ed 29 3e
       0.029257149 0.08840876 0.39370418 0.16594325
0003f0 da c3 ad 3d d9 92 c0 bd 34 5d 87 be 19 4c 23 3e
       0.08484621 -0.09403009 -0.26438296 0.15946998

encoder.l2.bias f4 [50]
000000 4c 3b 45 3d d1 fe 69 3d 0d a9 19 3d 3a 9e fd 3d
       0.048152253 0.057127777 0.037514735 0.12383695
000010 74 6e 94 3c 4e c6 fe bd 98 84 fa bc 3c c0 2c bc
       0.018119074 -0.12440167 -0.030580804 -0.010543879
000020 81 d3 e3 bd 5c fc 33 3d ef a2 e6 bc 4e 28 a2 bd
       -0.111243255 0.04394184 -0.028153865 -0.07917844
000030 02 9c b1 bc b3 5d 41 bd aa d4 91 3c df b8 f5 3c
       -0.021680836 -0.0472085 0.017801601 0.02999538
000040 5f cf 5f 3c e5 26 d2 bb 78 80 64 bd d5 76 8b b9
       0.013660281 -0.006413328 -0.05578658 -0.00026600683
000050 85 f2 84 3c 42 73 aa bc a6 10 f6 3a 83 31 84 ba
       0.016228924 -0.020806912 0.0018773272 -0.0010085556
000060 dd 62 7b bd 69 9f 31 bd fe 3e 9d bd 60 52 07 3c
       -0.06137358 -0.043364916 -0.076780304 0.008259386
000070 b7 76 cc 3d 9a b4 fc 3c b6 da a9 bc 0d 99 93 bd
       0.099835806 0.030847836 -0.020734172 -0.072069265
000080 26 78 23 3d c0 bb 1e 3e 73 0c 4d bd c4 c2 e4 3d
       0.039909504 0.15501308 -0.0500607 0.11169961
000090 b9 54 91 bb fd 29 48 3c 8f 98 be 3d d2 c4 f6 3c
       -0.0044351486 0.012217042 0.09306442 0.030123148
0000a0 bc e8 3d 3c fc 9e 51 3d 0b 18 5a bd d0 db 1a 3d
       0.011591133 0.05117701 -0.053245585 0.037807286
0000b0 3d 46 c8 bc a7 b5 d2 3c fc fe 17 bd f3 f5 ae 3d
       -0.024447555 0.025721384 -0.037108406 0.08543005
0000c0 1b 5c 85 bd 7e 22 e8 3d
       -0.06511708 0.11334704

lstm.weight_ih f4 [200, 150]
000000 8d 5c 00 3e fc 0f d8 bd be 9c f0 bd ee fd 86 bd
       0.12535305 -0.10549924 -0.11748646 -0.06591402
000010 02 12 f1 3d 21 da 36 3e 61 95 13 3e 54 a7 46 3e
       0.11771013 0.17856647 0.14412452 0.19399768
000020 8a 61 f3 3d 6d 74 5f 3d e0 59 45 3d 78 ce 0f bd
       0.118838385 0.05455439 0.048181415 -0.035109013
000030 b3 d5 4a 3c 25 5d e6 bc 8b 40 d9 3d 0e e5 fc 3d
       0.012380051 -0.028120587 0.10608014 0.12348376
000040 94 8a 08 be a8 76 38 bd f7 4e 56 3d 53 b0 d7 3d
       -0.13334113 -0.045035034 0.0523214 0.10531678
000050 c7 a4 86 bd 5c 0d 1d 3e 76 b0 a7 bd 65 5c 00 3e
       -0.065743975 0.15337127 -0.08187954 0.12535246
000060 08 30 ed 3c 8f cc 53 3e 6e b8 24 3d d3 73 c3 bd
       0.028953567 0.20683502 0.04021495 -0.09543576
000070 41 ee 82 bd 16 da 08 3d 1f 83 e0 3d 69 77 a3 3d
       -0.063930996 0.033411108 0.10962509 0.0798176
000080 f2 5f da 3d e2 48 a5 bb 58 7e 10 3e ea 42 f4 bb
       0.10662831 -0.0050440887 0.14110696 -0.007454266
000090 bb 0b 32 3e 24 66 a3 bd e8 4c 2d be 51 b4 b7 3d
       0.17387287 -0.07978466 -0.16923869 0.089699395
0000a0 fc 37 9c bd 3a e5 c7 bd 93 04 7c bd f6 91 af bd
       -0.07627866 -0.09760518 -0.0615278 -0.08572762
0000b0 16 a3 b2 bc 55 c0 d1 b9 92 11 29 be 7d 01 03 be
       -0.021806281 -0.00040006885 -0.16510609 -0.12793536
0000c0 9d 3d 30 3e 7c 81 8f bd 12 19 da bc 06 4b a8 3d
       0.17211004 -0.07007119 -0.026623283 0.082174346
0000d0 ed 89 5a 3d 50 ef 19 bd 07 cb cd 3b 5e 7f 23 be
       0.053354193 -0.03758174 0.0062803063 -0.15966555
0000e0 2d 67 03 3c 87 12 75 3c 8c c3 a8 3d 5d d0 0f 3e
       0.0080202045 0.014958031 0.082404226 0.14044328
0000f0 09 37 02 be e3 2b 04 3d 48 14 f6 3d a8 ba de 3d
       -0.12716307 0.032268416 0.12015587 0.108754456
000100 ff 0d 1b be 99 11 e4 3d 9f 87 d0 3d ef 24 34 3d
       -0.15142058 0.11136169 0.10182118 0.043980535
000110 d1 8b 8c bd 63 fe ee bd 04 f9 16 be 80 b0 d1 3c
       -0.06862605 -0.11669614 -0.1474343 0.025596857
000120 9e a8 3a 3d 3a d5 b6 3d ab 15 8c 3d 87 0b 0b be
       0.045570962 0.089273885 0.0684007 -0.13578616
000130 02 07 6f 3d f1 0e dc 3d 68 3b d6 bd 65 98 08 bd
       0.058356293 0.10745037 -0.104605496 -0.03334846
000140 c0 62 70 3d e8 49 59 bd 4a 50 06 3d 2a 9c 1a 3d
       0.058687925 -0.053048998 0.032791413 0.037746586
000150 63 78 10 3e a5 c0 14 bd 08 24 16 3e ae b8 bb bd
       0.14108424 -0.036316533 0.14662182 -0.09166084
000160 b8 20 cc bc 3c d2 aa 3d a1 b0 18 be 55 5b ab 3d
       -0.024917945 0.0834088 -0.14911129 0.083670296
000170 08 a3 d5 bd 7c b8 64 bd fd 22 b6 3d 28 e9 9d 3d
       -0.10431486 -0.05584 0.08893392 0.07710487
000180 09 78 10 3b a8 85 55 3c cd 45 02 be 68 60 74 3d
       0.0022044203 0.013032354 -0.1272194 0.059662253
000190 9a b2 23 be b9 20 0f 3e d6 bf 17 3b 6b 5e 3c bd
       -0.159861 0.13977326 0.0023155115 -0.04598848
0001a0 9e 55 1c 3e 62 5f c3 bd f0 3b 08 be d1 b6 07 bd
       0.15267035 -0.09539677 -0.13304114 -0.03313333
0001b0 ab 32 3c 3d f2 d2 2f bd 56 e5 e3 3d 15 b0 01 3a
       0.04594676 -0.042925783 0.11127727 0.0004947198
0001c0 c5 64 c0 bc a4 83 95 3d 20 30 62 3b 4a 8f 15 3e
       -0.02348555 0.07300499 0.0034513548 0.14605442
0001d0 19 1a 5c 3d 65 5e 00 be 86 56 a1 3d bd 00 33 bc
       0.053735826 -0.12536009 0.07877831 -0.010925469
0001e0 90 06 19 3c 7d 85 ed bc 7f 75 d3 3c aa ad 3a bd
       0.0093399435 -0.028994316 0.025812862 -0.045575775
0001f0 7d ad 67 bc 8c 02 99 bc f7 54 39 3c 20 bc 98 3d
       -0.014140484 -0.018677972 0.011311761 0.07457757
000200 98 f1 69 3c 6c cf bc 3c 7f bb 7a 3d e9 56 71 ba
       0.014278792 0.023048125 0.061213966 -0.0009206371
000210 37 99 a7 bd 4b 00 2f bd 17 a8 a1 3c 8d aa d0 3c
       -0.0818352 -0.04272489 0.019733472 0.02547195
000220 f4 00 e1 bc df 75 0b 3d 22 8a d8 3d 8f aa 06 be
       -0.027466275 0.034047958 0.10573222 -0.13151
000230 fb fd 2f 3d a1 fe 1a 3e 61 cf cd 3d 52 ad c8 bd
       0.042966824 0.15136196 0.1004932 -0.09798683
000240 1c bc 9c 3d f0 13 ac 3c 8f 17 0f 3e b6 8b d9 3d
       0.076530665 0.0210056 0.1397383 0.10622351
000250 f2 5e c7 bd ec 0b f7 3d aa 63 84 3c e5 d4 06 be
       -0.09734906 0.12062821 0.016160805 -0.1316715
000260 48 0d 9a bc d6 6b fb bd 41 73 68 bc 3b d5 15 3d
       -0.018805161 -0.122764274 -0.014187635 0.036580306
000270 07 52 ad 3d cf ed f8 3c 19 6e 46 3e cf 22 46 3d
       0.08462911 0.030386833 0.19377936 0.04837304
000280 47 19 fe 3d 1b b9 e4 bd fb ec 0d 3d 68 28 d7 bd
       0.12407165 -0.111681186 0.03464983 -0.10505754
000290 3e ec f4 3d 62 44 0a 3e e6 71 63 bc a7 88 00 be
       0.11959122 0.13502648 -0.013882136 -0.12552129
0002a0 9f fb e7 3d 16 4f 74 3d e6 60 ad bd 9b fb 0c 3e
       0.1132729 0.059645735 -0.084657475 0.13767855
0002b0 b0 4d 03 be 30 bc 70 3d df c4 d4 3d 6c 02 1b 3e
       -0.12822604 0.05877322 0.10389113 0.15137643
0002c0 98 97 d9 3d ff fa 5c bd 45 b6 03 bc 64 98 a7 3d
       0.10624617 -0.053950306 -0.008039062 0.08183363
0002d0 9b 1b d9 3d 44 c1 0f bc 29 5a 4e 3d 7d b1 17 3d
       0.106009685 -0.008774105 0.050378952 0.0370345
0002e0 63 29 13 3e 88 35 6e 3c c1 f9 41 3e 75 b0 6a bd
       0.14371257 0.01453913 0.1894293 -0.05729719
0002f0 27 45 16 be 85 4b b4 3d 5d 2c 4c bb 5f c2 1e be
       -0.14674817 0.08803467 -0.0031154372 -0.15503834
000300 ce aa c8 bd 70 0c a5 bd 59 c9 24 bd d9 47 e1 3d
       -0.097982034 -0.08059013 -0.040231083 0.11000032
000310 72 13 5f bc 10 57 d8 bc 1a 40 56 3e 12 cf 6f bd
       -0.013615476 -0.026408702 0.2092289 -0.058547087
000320 f8 5e e1 3d 61 bc d3 3d 78 f3 ea 3d f2 f6 46 bc
       0.11004442 0.10338665 0.11472219 -0.012143837
000330 69 9b aa 3d 45 3e 27 bb c9 4a 97 bd 5d dc 5d bd
       0.083304234 -0.0025519293 -0.07387311 -0.054165233
000340 8c d0 9a 3d 42 db 49 bc f4 43 a3 bc f2 3c 06 3e
       0.075593084 -0.012320342 -0.019929864 0.13109186
000350 24 c1 2b bd 6d 8b 1c 3d f1 75 18 bd fd 82 0d 3e
       -0.04193224 0.038218904 -0.037221853 0.138195
000360 e8 53 11 3e f0 fa 89 3d ba df b8 bd 65 9d 1a 3c
       0.14192164 0.06737316 -0.090270475 0.00943694
000370 2c f1 cc bb 03 00 2a 3d d0 be 91 3d 84 cd 45 bd
       -0.006254336 0.041503917 0.07116473 -0.048291698
000380 03 9d f1 3c 9b 5a b0 bd 48 ff 51 bd 1d 82 1b bd
       0.029493814 -0.086110316 -0.051268846 -0.037965883
000390 b9 25 07 bd 83 29 89 bc df 4f ab 3d 27 fe c1 bc
       -0.03299496 -0.016743427 0.083648436 -0.02368076
0003a0 e3 42 79 bc 25 89 19 3d d4 cc 3d 3c 5d 58 ac 3b
       -0.015213701 0.037484307 0.011584479 0.005259557
0003b0 42 e5 1a bc 87 c5 4e bd 20 36 2f 3d 44 ae b1 3d
       -0.009454073 -0.050481346 0.042776227 0.08675817
0003c0 72 39 b9 bc 44 f4 b1 3d 37 4d 05 be 14 d9 df 3c
       -0.0226104 0.08689168 -0.13017736 0.02732519
0003d0 54 a7 01 3e 30 71 12 3e b1 d3 54 bc c9 bb 61 3d
       0.12661487 0.1430099 -0.012989924 0.055110727
0003e0 90 aa 54 bc e6 a6 bb 3c 48 57 dc 3b 4a 24 fd 3d
       -0.012980118 0.022906732 0.006724272 0.12360437
0003f0 eb 55 eb bd 34 26 ac bd 21 ce 3a 3d 9c b3 ba 3b
       -0.11490997 -0.08405724 0.045606736 0.0056976806

lstm.weight_hh f4 [200, 50]
000000 f7 fc ea bc 00 1c 0b 3d ad 2b 09 bd 0f b2 4c bd
       -0.028685076 0.03396225 -0.033488918 -0.049974497
000010 4b cc 66 bd f3 43 7e bb df b7 71 bc b9 3c d0 3d
       -0.056347173 -0.0038797825 -0.014753311 0.10167832
000020 c5 42 de 3d 0c 58 33 3d fd ca 98 3c e8 e3 a2 bc
       0.10852579 0.04378514 0.01865148 -0.019884065
000030 76 33 a2 3d af 76 cc 3c bb 3a b0 bd c6 16 8b 3d
       0.07919972 0.024958936 -0.08604952 0.06791453
000040 75 ab e0 bb 52 71 e3 bd 03 0c 07 3d 51 0f 39 bd
       -0.006856377 -0.111055985 0.03297044 -0.045180622
000050 3e 08 e1 bd fc a4 b4 bd e5 ae 93 bd 55 0d 60 3d
       -0.109879 -0.08820531 -0.07211093 0.054700214
000060 77 22 92 3a 67 86 c7 3d b1 7c 07 3e bb b9 8c 3d
       0.0011149187 0.09742432 0.1323116 0.06871363
000070 ae 83 92 bd 5c de 8e 3d 3f 9e 17 3d 3c 0a df 3c
       -0.07154022 0.069760054 0.03701615 0.02722656
000080 69 1e c5 3a e3 a9 28 be ee 10 6e bc 6c 46 1c be
       0.001503897 -0.16471057 -0.014530404 -0.15261239
000090 10 ec 92 3e 5f 5b 80 3c 83 d1 15 be d7 12 27 bd
       0.28695726 0.01566857 -0.14630704 -0.04078945
0000a0 a6 6a 10 be 16 d4 e2 bd 47 76 38 3e 6b cc 1b 3d
       -0.14103183 -0.110756084 0.18013869 0.038036745
0000b0 25 47 7c bc ea 2d fc bd e8 30 cb bb e9 27 10 3d
       -0.015397822 -0.12313445 -0.0062008984 0.03519431
0000c0 cc 93 27 3d 82 a5 65 bc 47 60 c8 bd d0 8f ab bd
       0.040912434 -0.014016511 -0.097839884 -0.083770394
0000d0 95 ad e2 bc cf e0 03 bd 74 7b 1d be 93 73 bd bd
       -0.027670661 -0.032196816 -0.15379125 -0.0925056
0000e0 65 e7 5f 3d d7 b9 eb bd f4 d7 b9 3d d9 71 35 bd
       0.054664034 -0.115100555 0.09074393 -0.044298027
0000f0 0f 78 33 be 9e 35 89 bc c1 ad 4f bd 0b d4 9b 3d
       -0.17526267 -0.0167492 -0.050702814 0.07608803
000100 91 19 1f 3d 3b f9 96 3d 91 25 1c bd 96 95 b1 bd
       0.03884274 0.07371756 -0.038121764 -0.086711094
000110 2c 38 02 3c e3 96 5b bd 91 09 64 bd 48 cc 8b 3d
       0.007947963 -0.053610694 -0.055673186 0.06826073
000120 5c b6 cc 3c 46 08 01 3d 98 09 ab 3d 23 3d e4 bd
       0.0249893 0.03150203 0.08351439 -0.111444734
000130 55 2b eb 3d 05 f4 ee 3d ac bd 0f 3e b0 1f d9 bd
       0.11482874 0.11667637 0.14037198 -0.10601747
000140 0f 47 c5 3d 72 38 83 3c 99 c3 c8 3d b4 47 b4 bc
       0.09632694 0.016018126 0.09802932 -0.022006847
000150 39 1e 70 bd 2c 22 4e bd 77 46 5a 3e 63 9e a0 bd
       -0.058622573 -0.050325558 0.21315943 -0.0784271
000160 77 19 ba bc 01 6b 48 bd ed f1 dd 3d a8 a5 85 3c
       -0.02271722 -0.048930172 0.10837159 0.016314343
000170 49 b2 a1 3d f8 6a 0b be ba 97 ba bc 85 99 2c 3d
       0.07895333 -0.13615024 -0.022777427 0.042138595
000180 f7 4f 37 3d f3 f4 e8 bd fb ff 93 3c b9 68 e7 3d
       0.044753995 -0.11374845 0.018066397 0.11299271
000190 0b 04 26 3e f1 a5 07 3e 0b 2b 32 be f8 c0 bc 3d
       0.1621248 0.13246895 -0.17399232 0.09216493
0001a0 dd 5b 96 3e 3a 21 91 3e 8c 25 f4 bd b0 72 21 3e
       0.2936696 0.28345662 -0.11921224 0.15766406
0001b0 af 68 f8 3d a5 1e 20 3e 7b c8 af bd 58 ed 36 3e
       0.12129342 0.1563669 -0.085831605 0.17863977
0001c0 94 8e 62 3e fa b4 20 3e 3a 8e 53 bd 29 79 b1 3d
       0.22124702 0.15694037 -0.05164931 0.086656876
0001d0 3b 8f a2 bd 9f 34 01 bd cb 38 96 bd d8 e5 26 3e
       -0.07937475 -0.031544324 -0.07335051 0.16298616
0001e0 04 6b 2e be c6 8a 03 be 6e 03 72 be 69 bb 58 3e
       -0.1703301 -0.12845907 -0.23634121 0.21165241
0001f0 a8 bb a1 bc ef 15 c1 3d 6c 59 21 be 09 5b 14 be
       -0.019742802 0.094280116 -0.15756768 -0.14487852
000200 e2 6b 8d be 46 da b0 3d e5 ee 39 3c 4f 01 f8 bd
       -0.2762137 0.08635382 0.011348461 -0.121096246
000210 a8 68 56 be ce 0e c0 bd d2 23 8c 3e d4 92 8b 3c
       -0.2093836 -0.09377824 0.2737108 0.017037787
000220 75 70 57 bd 13 fe 29 3e 42 ec 1c be 1a d6 ed 3d
       -0.05259748 0.16600828 -0.153245 0.11613102
000230 c0 31 5b be ad 7c f3 bd 6c 88 28 3e 63 c1 6e 3e
       -0.21405697 -0.118890144 0.16458291 0.23315959
000240 f6 b9 17 be d5 1d 05 be f4 2c 78 3e fd 5a d9 bd
       -0.14817032 -0.12999661 0.24235898 -0.10613058
000250 fc bd c4 bd 84 8b 18 bc be d6 57 bd 32 b2 c5 3c
       -0.09606549 -0.009310607 -0.05269503 0.024132822
000260 2e b2 41 be 64 22 66 3d 0b d8 10 3e 44 40 f5 bc
       -0.18915626 0.05618514 0.14144914 -0.02993787
000270 77 0e c5 bd 23 83 9d 3c b8 f8 50 3d a2 1d 32 3e
       -0.096218996 0.01922757 0.051018447 0.17394117
000280 aa 1f 34 3e 1d 6d a7 bc 4b a0 24 3e 3a 9c b5 3d
       0.17590204 -0.020437771 0.16076772 0.088676885
000290 9d bc b2 3c f4 bc 3e 3e 58 6c 8b bc a9 0b 9f bd
       0.021818453 0.18626767 -0.017019436 -0.07765896
0002a0 18 e9 b8 3b ae 79 13 3e 8b 7a 93 bd 4b 15 bc 3c
       0.0056430213 0.14401886 -0.072011076 0.022959372
0002b0 76 97 2d bc 00 f4 d8 3d f4 d9 08 be 55 ca 3b 3e
       -0.010595193 0.10593414 -0.13364393 0.18338902
0002c0 2f 31 34 bd 44 02 86 3c 2d 08 f9 bd cc 3d bc bd
       -0.043992218 0.016358502 -0.121597625 -0.09191474
0002d0 17 9f a7 3d ce e5 4a bd 06 b2 09 bd 25 3b 81 be
       0.08184641 -0.049535565 -0.033617042 -0.25240436
0002e0 73 27 ad 3c fb dc 47 be fd 2f 2a bd 57 5c ae 3c
       0.021136975 -0.19517891 -0.04154967 0.021284265
0002f0 14 6c 35 3d 84 a3 02 3e 48 5b 73 bd 9f 84 19 be
       0.044292524 0.12757689 -0.059413224 -0.14991997
000300 7d 26 17 3e d7 15 11 3e 84 23 3e bd 61 d5 e4 bd
       0.14760776 0.14168487 -0.04642059 -0.11173511
000310 3b 8b 29 3d ea b2 66 3c d6 de a9 3c 5c 82 56 bd
       0.041392546 0.014080742 0.02073614 -0.052370414
000320 2a 82 92 3b d6 ba 3f bd 92 d9 c2 3d e2 63 7e bd
       0.004471083 -0.04680904 0.095141545 -0.062106974
000330 a0 84 96 bd cd a8 27 be 9f 8a dd 3c c8 5f b8 3c
       -0.07349515 -0.16372986 0.027043639 0.02250661
000340 f6 df 5f 3d 05 d8 cb bd df c6 ce bd 60 48 3b 3d
       0.054656945 -0.09953312 -0.100965254 0.04572332
000350 79 5d 82 bd 5c 4d b8 3c 75 98 08 3e 83 51 8a bd
       -0.06365485 0.022497825 0.13339408 -0.067538284
000360 60 8c e7 3d 92 2b bb bc 16 ef 31 bd 28 82 0a be
       0.11306071 -0.022847924 -0.0434409 -0.13526213
000370 bb 61 f1 3c 7a 91 81 bc 98 25 0b bd 5e 04 dc 3b
       0.029465547 -0.015816439 -0.0339714 0.006714388
000380 4f e6 87 bd 34 24 53 be 3e b0 50 3e 85 f0 15 3e
       -0.06635725 -0.20619279 0.20379731 0.14642532
000390 1c bb 20 3e 86 85 69 3d 71 32 5d 3d 18 3b bc bc
       0.15696377 0.057012103 0.054003183 -0.022977397
0003a0 9d 9d 4e bd ff 4a 08 3e 59 ff 61 be f3 93 a6 3d
       -0.05044328 0.13309859 -0.22070064 0.08133688
0003b0 f0 2a 51 3e 3d 27 93 bc 8e 34 e7 3b df 8b f7 bd
       0.20426536 -0.017963046 0.0070558256 -0.12087225
0003c0 d8 d9 15 bd 80 a7 71 3d 7a e1 8d bd 48 18 c1 bd
       -0.036584705 0.05899763 -0.06927772 -0.094284594
0003d0 87 ab 5a 3d 47 d1 fd 3b 98 c0 37 be b1 e4 a8 bd
       0.053386237 0.007745895 -0.17944562 -0.082467444
0003e0 cf 09 ba 3d 22 ed a7 bc bf a5 84 3d e8 90 a7 bb
       0.09083902 -0.020498816 0.06476926 -0.0051137097
0003f0 bf 15 55 bd f4 e1 0d be 48 5f 97 bd 13 31 7f bd
       -0.05202269 -0.13855726 -0.0739122 -0.06230266

lstm.bias_ih f4 [200]
000000 86 f7 16 3e a6 db 13 3d ed 0f ff 3c 17 89 c7 3d
       0.1474286 0.036098145 0.031135524 0.09742945
000010 5d 01 9f 3c 72 38 86 bc 1a 3b c2 3d 44 dc 4b 3d
       0.01940983 -0.016384337 0.09483929 0.04977061
000020 0c 2a b8 3d 1a 09 1e 3d b2 19 aa 3b 9d 55 0a bd
       0.08992395 0.0385829 0.0051910514 -0.033773053
000030 0e d2 a4 3c 8f 71 08 3d 1d 13 e2 3d 4e bc 9e ba
       0.020119693 0.033311423 0.11038802 -0.0012110563
000040 27 31 8d bd d2 7e 11 bc 85 7f c2 3c 1a 22 a2 3d
       -0.06894141 -0.008880334 0.023742447 0.079166606
000050 26 53 d2 3d 8d a1 93 3d d4 04 4c bd ec 53 86 3d
       0.102697656 0.07208548 -0.049809292 0.065589756
000060 14 ec 82 bb 06 97 f0 bc 5c de 91 bc 12 61 e0 bc
       -0.003995428 -0.029368889 -0.017806225 -0.027390037
000070 49 6c 89 bd 11 80 61 3c 3b f1 4a bb 1d b9 43 bd
       -0.06710107 0.013763444 -0.0030966538 -0.04778396
000080 c1 30 92 3d cf ae ff 3d 1e fb 42 bb be 0b 16 3e
       0.07138205 0.12484514 -0.0029751728 0.14652917
000090 ab 9f 4d 3d b2 25 00 3e f4 d8 fc bc 5d e8 c6 bc
       0.0502011 0.1251438 -0.03086517 -0.024280721
0000a0 68 0a 24 3d 35 5a e7 3d 14 8b 6c 3b 80 d7 b3 bc
       0.040048987 0.112965025 0.003609364 -0.021953344
0000b0 62 2b 06 3e cd 1d d8 3c 96 8c fe 3d 70 85 8f bc
       0.13102487 0.026381398 0.124291584 -0.017519683
0000c0 45 00 bb 3d 97 b7 a6 3d 0e 01 c1 bd 5d e1 97 3c
       0.09130911 0.08140486 -0.09424029 0.018540079
0000d0 05 d9 9d bd 14 b9 88 bc 1d f9 c2 bc 6c 93 71 bd
       -0.07707409 -0.016689815 -0.023800427 -0.058978483
0000e0 1e e7 2a 3d f6 2a 8c bc 06 95 ac bd 5e 7d 8b bd
       0.041724317 -0.01711033 -0.084268615 -0.06811021
0000f0 a7 9a 9b bd 9e 3f d7 bd 06 2c e9 bc 8c 23 e6 3d
       -0.07597857 -0.10510181 -0.028463375 0.11237249
000100 5a 05 11 bd 13 ef 82 3d 77 3d a9 bd fc 8f 47 3c
       -0.035405494 0.06393256 -0.082636766 0.012180325
000110 9a 1f db 3c 98 6b 0c bd 2e 62 7d bd b4 0c 4d bc
       0.026748467 -0.034282297 -0.06186121 -0.012515236
000120 66 ee 0c 3d 35 6b 8d 3d 83 9e 9d bd 1b d5 61 3d
       0.034407042 0.06905214 -0.07696249 0.055134874
000130 49 34 8c 3c 59 cb 8a 3d a9 15 8e bd bd 3d bc 3d
       0.017114775 0.06777067 -0.06937725 0.09191463
000140 ca 81 f9 bc a2 05 a2 bc 69 bc f8 3c a9 59 fe b9
       -0.030457396 -0.019778077 0.030363278 -0.00048513457
000150 da c8 23 3d 12 13 e7 bd d0 22 28 bd 68 9e 83 bd
       0.03998647 -0.11282934 -0.041048825 -0.06426698
000160 15 04 cb 3c 81 3b b5 bc 40 a7 70 bd dc f1 b0 bb
       0.02478222 -0.0221231 -0.058753252 -0.0053999256
000170 51 da a1 3d 08 99 b0 bc 4a b4 b3 bc e8 fd 54 3b
       0.07902969 -0.021557346 -0.021936554 0.0032499973
000180 d2 6d 9c 3c 74 28 c3 bd 39 5e ff 3a d5 34 0f be
       0.019095335 -0.095292 0.0019483037 -0.13984998
000190 9a f0 e3 3d 23 b8 99 3d 33 72 d3 bd 47 6d ab 3d
       0.111298755 0.075058244 -0.10324516 0.083704524
0001a0 03 db b9 bd 6f 20 bf bd 50 1b ca bc 72 67 1d bd
       -0.09074976 -0.09332358 -0.024671227 -0.03842873
0001b0 39 05 2b bc 6f dd ea bc 74 69 48 bd 5c 47 c7 3d
       -0.010438257 -0.02867004 -0.048928693 0.097304076
0001c0 4c 1c 51 3d 42 e8 99 bc b9 78 af 3c 54 ca 89 3d
       0.051052377 -0.018787507 0.02141987 0.06728044
0001d0 b8 d8 c9 3c a8 12 3b 3d 83 1d 7e bd a4 3c 1b bd
       0.024639472 0.04567209 -0.062039863 -0.03789963
0001e0 72 09 8b bd e8 36 82 3d 0d 61 18 bd e6 b7 8b 3d
       -0.06788911 0.06358129 -0.03720193 0.06822185
0001f0 47 53 31 bd 82 d6 89 3d 58 57 a2 3d ff af 88 bd
       -0.04329231 0.06730367 0.07926816 -0.066741936
000200 e8 9f 30 3d 5a 05 03 3c f1 36 52 bd 51 af 5f 3d
       0.04312125 0.007996881 -0.051321927 0.054610554
000210 9b 37 20 3c ac dc fb bc 4b 12 20 bd 81 69 b5 3c
       0.009778882 -0.030744873 -0.039079946 0.022145035
000220 44 f2 73 3a 46 bc 1e 3d ae c5 f7 3c a5 31 29 3d
       0.0009305815 0.03875377 0.030245628 0.04130711
000230 f0 95 b9 3d 66 4f 8f bd 76 3c c5 3b f5 b7 d1 bd
       0.090618014 -0.06997566 0.0060191704 -0.10240165
000240 6c 1d c1 bd cc 1b 3f 3c 51 cc c3 bd ef 3e 20 bb
       -0.0942944 0.011664342 -0.09560455 -0.0024451574
000250 2b b7 e6 bc 17 45 3f bd 40 b3 d0 3c e6 b1 41 bd
       -0.028163513 -0.04669675 0.025476098 -0.047288798
000260 f8 30 35 bd 3a ed 94 bc 87 27 63 3c 14 39 8b bc
       -0.044236153 -0.018179525 0.0138644045 -0.01699499
000270 99 7b e5 3d 32 36 11 3e 8e 58 f7 3d 6f ba 21 3c
       0.11205215 0.1418083 0.12077437 0.009871109
000280 89 97 7b 3d 98 87 2e 3d 2c f9 df 3d 6e c6 7e bd
       0.061423812 0.04260978 0.10936198 -0.062200956
000290 d3 e2 d1 3d ea f3 24 3c 40 7c c1 3d 7b e8 88 3d
       0.102483414 0.010067919 0.09447527 0.06684967
0002a0 97 40 9d 3c e9 98 c8 bc df f7 7b 3d 2a e6 ec 3c
       0.019195838 -0.024486976 0.061515685 0.028918345
0002b0 61 97 93 bc 48 b2 80 3d b7 19 0f 3e 79 c0 96 ba
       -0.018016519 0.062840044 0.13974653 -0.0011501453
0002c0 c7 42 d8 3d 3d 04 05 3e 9c 56 27 bd 58 06 34 3a
       0.10559612 0.12989898 -0.04085408 0.00068674004
0002d0 7a a9 f6 3d 7f ec 26 3d 70 90 6d 3d 19 82 63 3d
       0.12044044 0.040752884 0.057999074 0.055543993
0002e0 63 58 ed 3d 29 0b ae 3d 52 94 24 bd 63 48 72 3d
       0.11589124 0.084982224 -0.04018051 0.059151065
0002f0 c7 41 bc bb f6 36 f3 3d 9c 38 0a 3e f1 b2 16 3d
       -0.005745146 0.11875717 0.13498157 0.036791746
000300 05 27 57 3d 47 c2 c2 bc ee 55 96 3d 9a 47 c2 bb
       0.052527446 -0.02377428 0.073406085 -0.0059289457
000310 b5 0a 16 bd df 65 03 3e 64 cf de 3d 27 c0 3d 3d
       -0.036631305 0.1283183 0.108794 0.04632583

lstm.bias_hh f4 [200]
000000 44 f6 b0 3d b4 6f 7e 3d 1e 45 27 3d 0a d4 f8 bb
       0.086407214 0.062118247 0.0408374 -0.0075936364
000010 62 39 92 bd 01 85 17 3d 43 ce 25 bd 80 17 94 3d
       -0.07139851 0.036992077 -0.04047991 0.07231045
000020 5c f7 50 bd da 14 b5 3d 0a 42 e9 3b 24 4f e9 3b
       -0.05101715 0.08841868 0.007118468 0.00712003
000030 93 5d dd 3d e4 b7 0b bd 5e 8e 3e 3c ce c2 aa bb
       0.108088635 -0.03411092 0.011630623 -0.005211211
000040 15 2d c0 3d 32 88 0d 3d 20 59 a7 3d bf d1 13 3e
       0.09383599 0.034553714 0.08171296 0.1443548
000050 1c 2e a5 3d c2 17 67 3d 60 ba da 3d 00 c5 8e 3c
       0.08065435 0.05641914 0.106800795 0.017427921
000060 89 32 4a bd 1d 90 0e 3e ca ab 15 3e 1b 40 ef 3c
       -0.0493646 0.13922162 0.14616314 0.029205373
000070 69 fc 4d 3d 6c 72 c8 3d ab ca 03 3d 6c a1 b9 3d
       0.050289545 0.09787449 0.0321757 0.09063992
000080 e7 5f 48 bd 82 6f 04 3d ab 6b d5 3c 2e 37 f3 3d
       -0.048919585 0.032332905 0.026052317 0.11875759
000090 05 54 64 3b 5b 45 44 3c fe 77 c4 bc 4d ff a8 bc
       0.0034840119 0.011979426 -0.023982998 -0.02062955
0000a0 60 52 d1 3c 13 6d 0c 3e d8 bb 44 3d 2b 9c 43 bb
       0.025551975 0.13713484 0.048030704 -0.0029847722
0000b0 4c 45 8b 3d cd 57 1a bd 1d c1 9d 39 b6 bd 93 bc
       0.06800327 -0.03768139 0.00030089254 -0.018034797
0000c0 c8 fe 81 3b 41 5c a6 3d e5 f2 b2 3c fd 89 f0 bd
       0.00396714 0.08123065 0.021844337 -0.11745069
0000d0 25 2e cd bd 6f fb 54 bd 3c 3d c7 3d fb 83 98 bd
       -0.10018567 -0.0519976 0.097284764 -0.07447048
0000e0 41 95 f6 bd 37 59 c5 3d 11 91 d0 bd 42 6c f3 3c
       -0.12040187 0.09636157 -0.10183919 0.029714707
0000f0 2b 9e d5 bd ea 57 fe 3c f5 73 d1 bd 06 cc 88 bc
       -0.10430559 0.03104778 -0.10227195 -0.016698848
000100 73 4e 8d bd 61 83 8a 3d 10 8f a8 bd 08 1a b5 bd
       -0.068997286 0.0676334 -0.08230412 -0.08842856
000110 12 e1 01 bd dd c2 8f 3c 36 5d 2a 3d 71 68 00 bd
       -0.031708784 0.017548973 0.0415928 -0.031349603
000120 b8 20 f2 3d cd 9c d9 3d 58 90 87 bc 51 08 93 3d
       0.11822647 0.106256105 -0.01654832 0.071793206
000130 29 ec ca bd 24 43 92 bd b1 9d a7 ba d7 7a 86 bd
       -0.09908325 -0.07141712 -0.0012788085 -0.065663986
000140 ea b5 ca 3c e7 e3 63 3c 92 01 85 3d f4 91 3b 3d
       0.024744947 0.013909317 0.0649444 0.04579349
000150 07 29 d4 bc 36 6b dd bd 00 36 9b bc a7 6f 6b bd
       -0.02589847 -0.108114645 -0.018946648 -0.057479527
000160 2f 95 90 3c 31 fd ae 3d e5 79 30 bd 61 aa 1a be
       0.017649261 0.08544386 -0.043084998 -0.15104057
000170 a8 f7 c1 bd ed 08 71 3d 57 e6 04 be 46 9b 8a 3c
       -0.09471065 0.058846403 -0.12978493 0.016919743
000180 29 1d 2a bd c8 8c df bd 60 3e 05 be 1d 8d 16 3b
       -0.041531716 -0.10915524 -0.13012075 0.0022972294
000190 d8 15 65 3d 73 cd 8f bd d1 b7 54 3d c4 e0 a2 bc
       0.055929035 -0.07021608 0.051933113 -0.019882567
0001a0 65 18 39 bd 6b fa 94 bd fb c8 38 3d 5a 90 a7 3b
       -0.04518928 -0.07274326 0.045113545 0.0051136436
0001b0 39 9e b2 3c d9 e1 3f 3d 4c 11 3c bb d5 ea c6 bc
       0.021803962 0.046846244 -0.0028696833 -0.024281899
0001c0 73 00 b5 bd e4 06 2c 3d 89 28 ff 3c 93 87 8d 3d
       -0.08837976 0.04199876 0.031147258 0.06910624
0001d0 0e ee ad bd 26 14 d6 bc 9e e2 c1 bd 1c 57 66 bc
       -0.08492671 -0.026132654 -0.09467052 -0.014058854
0001e0 aa f9 97 3d 33 84 41 bd c8 f0 59 3d 6b 31 9e bd
       0.074206665 -0.047245216 0.053208143 -0.077242695
0001f0 e9 48 bd 3c 74 16 69 3d f9 6b 23 bd 0e 8d eb 3d
       0.023106055 0.05690618 -0.039897893 0.115015134
000200 ab 32 92 3d f1 ca ae 3d b5 d6 3f bd b8 ac ae bd
       0.071385704 0.08534802 -0.04683562 -0.08529037
000210 30 e2 ec 3d 93 e8 8b bd 6f 59 f4 bc dc 12 e5 bd
       0.11566579 -0.068314694 -0.029827802 -0.11185238
000220 a0 94 a5 3d 35 60 1d bd 6e 02 ab 3b a3 08 64 3d
       0.080849886 -0.03842183 0.0052187955 0.0556723
000230 c4 bb fa 3d 5e c2 b5 bd 09 87 d1 bd e9 8e d9 bd
       0.12242845 -0.08874963 -0.10230834 -0.10622961
000240 a8 50 5e bd 62 c6 04 bd 45 00 dc bd 07 54 8f bd
       -0.05427614 -0.032415755 -0.10742239 -0.06998449
000250 85 be b0 3c 01 64 0c bd fe c7 92 bc 91 22 9f 3d
       0.021575222 -0.03427506 -0.01791763 0.07770265
000260 fb 6d c9 3d bd bc 00 3c db 07 c6 bc ac 31 d4 bc
       0.0983543 0.007857499 -0.024173668 -0.025902592
000270 75 30 d1 bc 12 46 fa 3d 5f ae 41 bd ee 5c 6c 3d
       -0.025535801 0.12220396 -0.047285434 0.057705812
000280 db 3b 56 3d a3 bc f3 3d a5 d2 1c 3e 79 80 17 bc
       0.052303176 0.11901214 0.1531473 -0.009246939
000290 5d 81 a9 bb 0b 89 2a 3d eb 7e 79 3d 93 b9 f0 3d
       -0.005172892 0.0416346 0.060912054 0.117541455
0002a0 d3 9b bc 3d 96 8c 47 3d 5b 7e 67 3c d6 6d e9 ba
       0.092094086 0.048718058 0.014129247 -0.0017809223
0002b0 d5 7f ab 3d 81 2c e8 bc 73 3f c5 3c f6 ff b8 3d
       0.083739914 -0.028341534 0.024078107 0.09033196
0002c0 72 3e 9f 3d bc 73 ec 3d 00 fe 92 bc 28 40 49 bd
       0.077755824 0.11545512 -0.017943382 -0.04913345
0002d0 f3 98 ad 3d 3f 62 4a 3d 65 4c 38 bc 39 0e d9 3c
       0.084764384 0.0494101 -0.011248683 0.02649604
0002e0 80 64 5c 3d 1f 83 d8 3d 86 8f b8 3d d6 90 1d 3d
       0.05380678 0.10571884 0.0901175 0.038468204
0002f0 2f ef 6d 3d ac 79 11 3b c3 52 98 3d c4 19 59 3d
       0.05808943 0.0022197766 0.074376605 0.053003088
000300 d8 b5 82 bc ac ef 06 bd f4 af f8 3d 33 a0 b3 3d
       -0.01595585 -0.032943413 0.121429354 0.0877079
000310 61 11 06 3e 6d cd 23 3d d0 cf 57 3c b2 35 6a 3c
       0.13092567 0.03999083 0.013172105 0.0142950285
