models/mcts_models/synthetic_long_experiment-2021_12_21-12_59_46.model (torch, 425530 bytes, 55 tensors)

Mprog.weight f4 [1, 100]
000000 25 08 bc bd a8 ba e9 b9 73 5b 91 be 23 c0 a7 3e
       -0.09181241 -0.00044580293 -0.28390083 0.32763776
000010 b7 41 1f be f5 01 00 3f 99 bc c6 39 ad 73 09 c0
       -0.15552412 0.50002986 0.0003790602 -2.1476853
000020 9e c0 33 3f 8d 61 13 3b 44 2e eb 3e ff 6d fd 3f
       0.70215786 0.0022488565 0.45933735 1.9799193
000030 c2 5d d1 be a0 2b 44 bf 4f c0 ae 3e ef 77 23 40
       -0.40891844 -0.76629066 0.34131095 2.5541952
000040 96 cf 28 bf 0b d0 9f bf af 11 8f bf ee 20 41 3e
       -0.6594175 -1.2485365 -1.1177272 0.18860218
000050 11 a8 87 3f fa 36 f9 3f 4d bb 8b bf d8 7f 16 bb
       1.0598165 1.9469903 -1.0916535 -0.0022964384
000060 76 e2 68 3e 9d b9 5e bf 2f a9 ce ba 21 4f 8e 3c
       0.22742638 -0.87001973 -0.0015766973 0.017371716
000070 84 84 c3 3c 86 47 ad 3e 3e 40 38 bf 87 59 6e 3f
       0.0238669 0.3384363 -0.71973026 0.9310536
000080 80 f3 18 be 17 e6 89 bf 85 2f db 3f 8f 53 4f be
       -0.14936638 -1.0773343 1.7123877 -0.20246719
000090 38 f2 06 bf f6 ca e5 3e 02 65 61 3e d3 71 04 3c
       -0.52713346 0.4488141 0.22011188 0.008083778
0000a0 e5 af c7 3f 05 00 d8 3e dd df 9d 3f a8 aa 09 3e
       1.5600554 0.42187515 1.2333943 0.13444006
0000b0 18 eb 5b bf 4d bd c9 3d 80 e0 6e bf bf 6a 20 3e
       -0.859056 0.098505594 -0.9331131 0.1566572
0000c0 14 eb 95 3e 94 a1 35 be 70 fe ac be 9d 3b 25 bf
       0.29280913 -0.17737418 -0.3378787 -0.6454409
0000d0 9a c7 84 bf 70 04 a1 bf a3 e3 b9 bf 18 42 e5 3f
       -1.0373414 -1.2579479 -1.4522594 1.7910795
0000e0 01 5f 87 be 3b 6d 0e be ad d8 c2 bc 99 dc c6 3e
       -0.2643967 -0.13908856 -0.02378496 0.38840178
0000f0 f2 a4 d8 3e 1e 8a 92 3f ce c8 8c bf 53 f1 94 3d
       0.42313343 1.14484 -1.0998781 0.072725914
000100 0e 91 ae 3c ea 02 1f be 5f 07 9a 3f fd d1 ee be
       0.021309402 -0.15528455 1.20335 -0.46644583
000110 e3 b3 03 3e 3d 99 d4 3d 68 8d 02 c0 5b 0d 00 be
       0.1286159 0.103807904 -2.0398808 -0.12505095
000120 ec f6 4d 3f 03 5b 18 40 18 d0 1d 3f 96 98 53 3f
       0.804549 2.380555 0.6164565 0.826547
000130 33 43 65 3f fb 16 1e be a9 aa 97 bf 04 87 be be
       0.8955566 -0.15438454 -1.1848956 -0.37212384
000140 33 20 d5 be 09 00 a1 bf 1a 79 05 bf 4d 8e c1 bf
       -0.4162613 -1.2578136 -0.5213791 -1.5121552
000150 08 8d d0 3b 4f a0 60 3f a6 4d 4f bf 5e 86 42 be
       0.0063644685 0.8774461 -0.8097786 -0.1899657
000160 b6 b6 b0 bf 2d 26 32 bf 7a 6e bb be b5 58 04 3f
       -1.3805759 -0.695895 -0.36607724 0.51697856
000170 74 68 4b be 99 f8 a7 bf d6 df 8a bb dd 60 d0 be
       -0.19864064 -1.3122741 -0.004238109 -0.406989
000180 04 29 95 bf 31 20 57 bf a5 63 30 40 fc 17 5e bf
       -1.1653142 -0.84033495 2.7560818 -0.8675535

encoder.l1.weight f4 [50, 64]
000000 be 89 16 3c 0e 34 92 3c 50 8a ad 3d 20 f6 b7 bc
       0.009188114 0.017847087 0.08473647 -0.022456229
000010 c4 63 89 bd d0 51 ef bb 5b 62 48 3d d2 e4 e4 3d
       -0.06708482 -0.007303454 0.048921924 0.111764565
000020 4d cb 0a 3d be 8f e3 bc 36 e1 59 bc 81 60 aa be
       0.03388529 -0.027778503 -0.013298323 -0.33276752
000030 27 fe d7 bc c3 89 90 3e 99 1b 0e be 97 20 74 bd
       -0.026366306 0.28230104 -0.13877715 -0.059601393
000040 13 76 1e 3d 90 d4 78 3d 5b a3 9c 3e 73 c0 85 3d
       0.038686823 0.06074959 0.3059338 0.065308474
000050 7a 96 cf bd e7 2b 2d be 48 6e 18 bd 43 47 a8 3d
       -0.10136123 -0.16911279 -0.037214547 0.08216717
000060 c0 5e da 3c 1b f4 6b 3d 4a aa 1c bd 39 39 49 3d
       0.026656508 0.057605844 -0.038248338 0.049126837
000070 3a 06 3a bc 1f a7 ad bd 58 0f 22 be 0c f4 6b 3e
       -0.011354024 -0.084791414 -0.15826166 0.23042315
000080 cc 1c 34 be 8a 93 4a bd f3 66 fb 3d a7 9a 42 be
       -0.1758911 -0.04945711 0.122754954 -0.19004308
000090 54 50 2f 3e 1a 26 94 be 0f 67 74 3d 1a 5e 99 3e
       0.17120486 -0.2893532 0.059668597 0.29954606
0000a0 5d 02 8a 3e 88 1d 72 3d 73 26 1b bd 89 4a 5b 3f
       0.26954928 0.059110194 -0.037878465 0.85660607
0000b0 57 63 86 3d a9 1d 46 3c ed 50 de 3d fc 57 40 3d
       0.06561916 0.0120920325 0.10855279 0.04695891
0000c0 b0 c0 3f bd 05 57 6b bc 26 8c 95 bc b5 4c ff 3d
       -0.04681462 -0.014364009 -0.018255305 0.124658026
0000d0 31 9e c8 3b b6 4d a6 bd 7d 88 a8 3d f9 4c 95 bd
       0.0061223735 -0.08120291 0.08229158 -0.07290072
0000e0 d0 fd 7b bd 3b 7c 20 3e f9 ac de 3d 48 a9 07 3e
       -0.06152135 0.1567239 0.10872836 0.1324817
0000f0 73 ed c1 3d 88 58 d1 3d eb 11 85 bd 23 56 e8 3c
       0.09469118 0.10221964 -0.06497558 0.028361386
000100 18 55 e7 3b 8b 6d 92 3d cf 85 8e 3c b0 f8 31 bd
       0.0070597045 0.071498 0.01739779 -0.043450058
000110 b9 cb 7d 39 c0 13 29 bd 2f da 26 3e 2b db c4 3c
       0.00024203853 -0.0412786 0.16294168 0.024030289
000120 57 eb 20 bd d0 e6 cd 3d b8 31 83 be 10 0c cd be
       -0.039286938 0.100537896 -0.2562387 -0.40048265
000130 7f 8b 67 3e 69 b2 be 3d 45 fb 88 3e 0d ac 8b bd
       0.22611807 0.09311373 0.26754203 -0.068199255
000140 33 1b cc bd 5a 68 8c 3e 4f a8 c3 3d 57 43 de 3d
       -0.09966125 0.27423364 0.09553587 0.10852688
000150 95 b9 22 3e 10 bf 87 3d 9b 8d 3d 3e ed a4 af bd
       0.15891106 0.06628239 0.1851105 -0.08576379
000160 e0 b6 5b bd 5f 89 2e be 8d 9c 7e be 1d c5 34 3e
       -0.0536412 -0.1704459 -0.24864407 0.17653318
000170 3b 1b 3b bc 69 37 6e bc f0 55 b0 3e 74 3c e7 bd
       -0.0114200665 -0.014539578 0.34440565 -0.112908274
000180 a9 5c fe 3e 0c 96 9f bb 03 13 77 be d5 50 08 be
       0.4968007 -0.004870182 -0.24128346 -0.13312085
000190 ce 3a 1d bd 67 12 20 bd a8 d2 2f 3e 02 01 8a 3e
       -0.03838616 -0.03908005 0.17170203 0.26953894
0001a0 f8 eb ca 3e 99 b6 86 bd 75 de 98 bc d3 e6 fc be
       0.39633155 -0.065777965 -0.018660763 -0.49394855
0001b0 36 89 82 3d a8 6b aa 3d f2 30 83 3d 75 dd 6e 3c
       0.06373827 0.08321315 0.0640582 0.014579167
0001c0 49 16 bf 3d 62 22 5c 3d 1d d3 29 bd fa 13 8e 3d
       0.093304224 0.053743728 -0.0414611 0.06937404
0001d0 38 a7 91 3c fa 43 27 3c 68 45 96 be 80 1f d1 3d
       0.017779931 0.010209078 -0.29349828 0.10211086
0001e0 2f b9 e2 3d 53 6a 5d 3d da 77 80 bc eb c6 6b 3e
       0.11070477 0.054056477 -0.01568215 0.230251
0001f0 5f 88 89 bd 41 0d 6a 3d 29 18 e3 bd 05 fb 74 bd
       -0.06715464 0.057141546 -0.110885926 -0.059809703
000200 1c ab 90 bd 22 4b 26 3d 88 06 70 3d 60 6a 3a bd
       -0.070638865 0.040598996 0.05859998 -0.045511603
000210 be 6b 22 3e 6d 42 a9 3d 9a c1 01 3d 1c 3c 22 bb
       0.15861413 0.08264623 0.031678773 -0.0024755066
000220 e0 34 55 3d 88 9d 70 be 52 1d ae be e5 5a 67 be
       0.05205238 -0.23497593 -0.34006745 -0.22593267
000230 41 ff 41 be 28 08 87 3e 97 bd 95 3e 6d 9a b6 3d
       -0.18945028 0.2637341 0.29246208 0.08916173
000240 ba 3f c0 3d 13 f2 46 bd f4 d8 9e 3e 66 4a b4 bc
       0.09387155 -0.048570704 0.31024897 -0.022008132
000250 13 9a b0 3d 8e c3 8a 3d a2 bf 33 3e fa 08 4c bd
       0.08623137 0.0677558 0.17553571 -0.04981325
000260 73 25 06 3c 7b 88 ef bd ab 0c 87 be ef b6 08 3e
       0.0081876395 -0.116959535 -0.26376852 0.13351034
000270 5d ab 72 bc 95 07 e7 bc 24 4c 37 bf 47 e3 f9 3d
       -0.014811364 -0.028201858 -0.71600556 0.12201553
000280 06 50 d3 be 8d 92 90 3e 43 b0 28 3e 19 bb 2a 3e
       -0.4127199 0.2823681 0.16473489 0.16672935
000290 bd d0 3a be f8 ee 36 3e 54 f3 17 be e6 6e 9c 3d
       -0.1824369 0.17864597 -0.14838916 0.0763834
0002a0 ed 93 50 3e 73 86 b5 3c 90 8f c5 3d b7 07 a2 be
       0.20368929 0.022158837 0.09646523 -0.3164651
0002b0 8f 78 f1 3d 20 3d 2a bd d5 5d 58 3d ac 54 9f 3d
       0.11790573 -0.0415622 0.05282386 0.07779822
0002c0 51 cb c6 3c fd a2 65 3d 10 44 1f bd 6e 8d 8a 3d
       0.02426687 0.05606364 -0.03888327 0.06765257
0002d0 4e 51 a3 3c 49 79 8e 3d c1 c8 98 be b3 e3 57 3e
       0.01993623 0.06956727 -0.29840663 0.21082954
0002e0 8b 42 22 3e 84 a4 12 bd 32 09 00 3e a1 bb 07 3e
       0.15845697 -0.035801426 0.12503508 0.13255168
0002f0 88 02 4f be e7 43 b1 3d 31 e9 3c 3d 20 9e fe 3d
       -0.2021581 0.086555295 0.046120826 0.12432504
000300 20 a1 f1 bc 91 74 2f 3d 5b 02 57 3c 07 31 f1 bc
       -0.029495776 0.042835776 0.01312312 -0.029442323
000310 b8 66 d4 3c 9c 3f 31 3d d5 2a 87 bd 4b dd 02 bd
       0.025927886 0.043273553 -0.065999664 -0.031949323
000320 ab bf b8 bd 20 c6 a2 3d da ea a7 3d 05 ad b4 3d
       -0.09020933 0.079479456 0.08199091 0.08822063
000330 44 99 0e be 74 0a 40 be 1f e4 21 bc e2 51 83 bd
       -0.13925654 -0.18753988 -0.009881048 -0.06412102
000340 8d 43 07 3d ce e1 01 3e 91 a0 db 3b 27 22 88 3c
       0.033023406 0.12683794 0.0067024906 0.016617848
000350 c9 b1 98 bd 16 ff 7f 3c 5b c8 cb 3d ca f8 03 bd
       -0.07455785 0.015624782 0.09950324 -0.032219686
000360 a7 2d c5 bd 4d 06 9e 3d bd 51 9a 3d d3 f2 2d 3e
       -0.09627848 0.077160455 0.075351216 0.16987161
000370 5c 03 7a be 34 ee 80 bc c9 9f 46 be b0 0d ab 3d
       -0.24415344 -0.015738584 -0.1939689 0.0835222
000380 b6 d9 ee bd dd e4 17 3e eb 7f 5f 3e 72 5a 71 3d
       -0.11662619 0.14833398 0.2182614 0.058924146
000390 64 88 6d 3e ce 83 a9 be 9a 0d c8 bc 01 52 ed 3e
       0.2319656 -0.33108371 -0.024420548 0.46351627
0003a0 03 e7 8f 3e 94 90 89 3e af af 81 be d6 46 11 3f
       0.28105935 0.26868117 -0.25329348 0.5674871
0003b0 ab ea f1 3d 41 38 12 3d 85 df 12 bd ec a8 3c bd
       0.118123375 0.03569818 -0.035857696 -0.046059534
0003c0 84 04 f6 3d 1a 34 cb 3c fe 1c 4b 3d 92 d5 51 3d
       0.1201258 0.024805117 0.049588196 0.051229067
0003d0 30 39 cc 3d 36 36 2a bd bc 92 b7 bd c5 d4 ac 3d
       0.09971845 -0.041555606 -0.08963534 0.0843902
0003e0 bb 51 12 3e bc f6 9a ba 3d de 46 3d bb d0 93 3d
       0.1428899 -0.00118228 0.048551787 0.072175466
0003f0 ab e9 6c 3d 78 a9 ae bc 4d c9 03 3d ca c7 6e bd
       0.05784003 -0.021321043 0.032174397 -0.058296002

encoder.l1.bias f4 [50]
000000 91 04 cc 3d 2e 79 09 3e f5 b8 44 3d 01 65 a4 3b
       0.099618085 0.13425133 0.04802795 0.0050169234
000010 67 59 b6 3d 8d 86 93 3d 67 81 aa 3c 50 4e 57 bc
       0.08903771 0.07203398 0.020813657 -0.01314123
000020 4b 58 5a bd 59 42 af 3d 23 b9 a4 3d af 1a bf 3c
       -0.05330686 0.08557577 0.080431245 0.023328153
000030 8c d2 90 3d 51 46 9e bc 61 2e d3 3d cd 4f d0 3d
       0.07071409 -0.019320639 0.103115804 0.10171471
000040 87 7b b7 3d 56 2d 42 3c cf a2 49 bd 01 12 3e bd
       0.08959108 0.011851629 -0.049227532 -0.04640389
000050 f2 e9 bc 3c a2 d1 cb 3d a9 b5 6c 3c 37 bf ce 3d
       0.023060773 0.09952094 0.014447608 0.10095065
000060 b7 5e 05 bd 40 f5 5d 3d 27 27 83 3d 6b 20 04 bd
       -0.03256103 0.054188967 0.06403952 -0.03225748
000070 b9 d4 ac 3d ac 5d 6c bd 16 3a 24 3d 39 d3 33 3d
       0.08439011 -0.05770652 0.040094458 0.04390261
000080 4e cf d8 bc 7b 13 0c 3e 89 18 99 3d 46 17 80 ba
       -0.026466038 0.13679306 0.07475383 -0.0009772561
000090 a8 40 79 3d 11 6e 00 be ac a4 39 3c 38 d3 4c 3e
       0.060852677 -0.12541987 0.011330765 0.20002449
0000a0 86 a5 03 bd c8 73 65 3d 1e 80 dd 3d bc d9 b6 3d
       -0.032140277 0.05601862 0.10815452 0.08928248
0000b0 50 b4 d3 3c 14 91 f1 3d ef b4 08 3d aa c5 43 3d
       0.025842816 0.117952496 0.033375677 0.04779593
0000c0 6c 77 24 bd 43 81 0e bd
       -0.040152952 -0.034791242

encoder.l2.weight f4 [50, 50]
000000 1c dd 0e 3e 1c 16 62 3e 01 9d 2f be 55 b8 cd 3d
       0.13951534 0.22078747 -0.17149736 0.10044924
000010 62 df c1 3e e6 ab 35 be ea d4 ca bd 74 a8 f6 bd
       0.3786574 -0.17741355 -0.099038914 -0.12043849
000020 42 f0 36 3e 6a 0d e3 bd 64 9d e4 3d 44 24 d0 3d
       0.17865089 -0.11086543 0.111628324 0.10163167
000030 61 71 b4 bd 2a c4 24 be 0f a8 bf 3d 5c e1 c9 3e
       -0.08810688 -0.16090456 0.093582265 0.39429748
000040 99 13 4a 3e 56 27 6e 3e 48 40 fa 3d 6a 2d f8 bd
       0.19734038 0.23257193 0.12219292 -0.12118037
000050 f8 77 2a 3d b3 48 64 3e 82 0d 73 3e 51 c3 db bd
       0.041618317 0.22293358 0.23735622 -0.10730613
000060 f8 31 1f bd 43 60 0d 3e db ac d8 bd 75 fc 2e 3c
       -0.038866013 0.13806252 -0.105798446 0.010680308
000070 bb 47 8b be 4e 09 a1 bd a7 78 dd 3d a7 7a aa 3d
       -0.27203164 -0.07863103 0.10814028 0.08324175
000080 f6 19 06 3f c4 0d bf 39 58 a3 71 bd 52 35 1e 3f
       0.52383363 0.00036440615 -0.058993667 0.6180011
000090 cd 7e a8 3d ef 28 be be b9 06 09 3e a4 53 0e 3f
       0.0822731 -0.37140605 0.1338147 0.55596375
0000a0 af dd 6a 3c e6 66 66 3e 6a 0a 03 be 0b 92 fd 3d
       0.01433508 0.2250019 -0.12796941 0.12381371
0000b0 7d 0f e3 3e aa d9 95 3e 59 73 96 3e 19 3c d0 3d
       0.44347754 0.29267627 0.29384878 0.10167713
0000c0 ee 88 01 3e 84 bb 6c bd 33 cf 10 be 3a 0a b2 3a
       0.12649891 -0.057796016 -0.1414154 0.001358337
0000d0 ee 2e 00 3d 0f b5 7f be 84 0b 43 3e db 72 81 be
       0.031294756 -0.24971412 0.19047362 -0.2528294
0000e0 bf 4a 0f be c0 71 ff bd e5 b3 81 3d 31 d0 85 bd
       -0.13993357 -0.12472868 0.0633314 -0.0653385
0000f0 8f b9 d8 be bf 5c 7c be 6c e5 91 bb 4b 60 56 3e
       -0.4232907 -0.24644755 -0.004452398 0.2093517
000100 04 b1 e4 be b2 b7 3b 3c dd c3 a8 be 64 d3 44 3e
       -0.44666302 0.011457371 -0.32961932 0.19221264
000110 26 fc 04 bf 17 3c 03 be 81 42 6d be bf 85 b3 3e
       -0.5194725 -0.12815891 -0.231699 0.35062978
000120 fb a6 b1 bc cb 90 08 3d d3 2a 0b be ff a2 07 be
       -0.021686068 0.03334121 -0.13590555 -0.13245772
000130 cf 97 c9 3e c3 22 2c 3e f2 72 e2 bd 9a be 49 be
       0.39373633 0.16810136 -0.1105708 -0.19701615
000140 ed c2 91 3d 81 20 a8 3d 04 05 1e 3e ae c9 08 3e
       0.07117257 0.08209325 0.15431601 0.13358185
000150 e2 8f 90 bd c7 b7 8f bd 83 14 36 be cd 59 13 be
       -0.070586935 -0.070174746 -0.17781262 -0.14389725
000160 c8 88 95 3e 0a 66 85 3e f5 23 de 3d cb a8 83 be
       0.29205918 0.26054412 0.10846702 -0.25714716
000170 e6 5c 28 3e b1 99 cf be cb 6c f8 be 94 8e bb 3c
       0.16441688 -0.40546945 -0.48520502 0.022895135
000180 b7 17 5c be 2e ea f3 be fb 19 5e 3e 9e 65 9a 3d
       -0.21493421 -0.47639602 0.21689598 0.07538913
000190 39 9d 3d 3d 82 49 5b 3e 88 6d b9 bd 01 81 30 3e
       0.046292517 0.2141476 -0.090540946 0.17236711
0001a0 f5 fb 4f 3e 31 2a cb 3d 97 f8 02 3d c6 de 34 be
       0.20310958 0.09920157 0.031975355 -0.17663106
0001b0 77 be 11 3e 2c 1c 83 be a5 57 9d bc ce 27 e0 3d
       0.14232813 -0.2560743 -0.019206831 0.10945092
0001c0 4d 02 1c 3e 6f 27 27 be fd 95 98 3e 33 d6 17 3e
       0.15235253 -0.16323636 0.29801932 0.14827804
0001d0 4f 5a a0 3e 2b d2 fa 3d f2 48 dd 3e 81 f2 fe bc
       0.313189 0.122471176 0.43219715 -0.031121494
0001e0 77 1d a8 3e ba d1 04 3d b7 cb 6e bd 33 43 21 3d
       0.3283498 0.032426573 -0.058299746 0.039370727
0001f0 da 45 8e bd 82 de 6b 3e 24 be 26 bf 98 08 b6 3d
       -0.06946917 0.23034099 -0.6513388 0.08888358
000200 af ea c2 bc c1 14 ec bd 67 93 37 3e 2b 3f 9e bd
       -0.023793546 -0.11527396 0.17927323 -0.07726892
000210 66 44 eb 3d 33 1b ae 3d 71 98 dd bc d0 0c 12 3e
       0.11487655 0.085012816 -0.027050229 0.142627
000220 8b ae 79 3e 6b aa da bd 63 f1 09 be 8a 4e da 3e
       0.24382989 -0.10677036 -0.13470988 0.42638046
000230 c6 54 55 be f6 3b 16 3d 2a 54 13 be 4c 72 7b 3e
       -0.2083312 0.036678277 -0.14387575 0.2455532
000240 65 0b f5 3e 12 8d 96 3e 8f 18 c5 3e 15 67 c1 3c
       0.47860256 0.29404503 0.384953 0.023608724
000250 b6 79 fb be 77 6f 9e be c6 13 8c 3d b0 25 0d be
       -0.49116296 -0.30944416 0.06839709 -0.13783908
000260 9e d8 31 bb 24 51 f8 3e 28 04 10 be 81 17 37 3e
       -0.002713717 0.48499405 -0.14064085 0.1788006
000270 93 ea 03 3e 1b 10 47 bc f7 06 8a bd e5 81 0a bc
       0.12882452 -0.012149836 -0.0673961 -0.008453821
000280 08 56 7c 3e e5 4c 77 3e 72 2d ab bd e8 dc dc bd
       0.24642193 0.24150427 -0.083582774 -0.10784322
000290 53 75 06 3f 95 01 f6 3d 17 12 90 3e bc b1 30 be
       0.5252277 0.120120205 0.281388 -0.172553
0002a0 32 22 23 3f 69 fc 21 3e 19 55 ad 3d 08 a8 55 be
       0.6372405 0.15818943 0.08463497 -0.2086488
0002b0 6e a0 0b 3e e8 8f 4b 3d 3d f6 40 3e 85 77 40 3e
       0.13635418 0.049697787 0.18843932 0.18795593
0002c0 a1 e5 ac be 17 43 a6 bd d5 16 85 3d 64 d5 f1 3d
       -0.33768943 -0.08118265 0.064984955 0.11808279
0002d0 10 28 18 3d 3a 1b a1 3c 38 70 04 be 54 8a d3 bd
       0.03714758 0.019666303 -0.12933433 -0.10329118
0002e0 1c 3c 86 3c a8 a8 4a 3e 7c 52 72 3e 97 88 b1 bd
       0.016386084 0.197909 0.23664278 -0.086686306
0002f0 a8 b0 5d be 7f c1 5d be 1c 87 72 be b0 58 a6 3e
       -0.2164942 -0.21655844 -0.23684353 0.32489538
000300 a8 90 80 be b2 5d c4 3e 89 84 05 3f 48 e9 6b 3d
       -0.25110364 0.38352734 0.5215536 0.05759552
000310 82 20 27 3e 7e d9 c7 3e 88 b6 62 be 75 74 f3 bd
       0.16320994 0.3903312 -0.22139943 -0.11887447
000320 eb 7e 13 3e 2c 35 09 be d4 f1 4d be 40 4a 24 3e
       0.14403884 -0.1339919 -0.20111781 0.16043949
000330 bc 6b 82 be ce f4 b7 3d 92 11 67 bc 87 f5 53 3e
       -0.2547282 0.0898224 -0.01410331 0.2069913
000340 12 6b 0c be 99 87 6d bb 25 56 e7 3e b7 23 1b 3e
       -0.13712719 -0.0036244153 0.4518291 0.15150343
000350 b2 84 12 be 3c 4e ab be 93 b0 fb 3e d9 b9 22 3c
       -0.14308432 -0.33458126 0.49158153 0.009932005
000360 b0 dd f3 3e de 34 0b bd 8c 6e 42 3e db f7 ec 3c
       0.47630072 -0.033985965 0.18987483 0.02892678
000370 12 11 b1 bd d0 f7 82 be e1 34 19 3d e1 b5 18 bd
       -0.08645834 -0.2557969 0.037403945 -0.03728283
000380 5c 7a 89 3e 02 94 79 3d 9e db 6b bd 13 88 1a 3d
       0.26851165 0.060932167 -0.05758249 0.037727427
000390 cd 9a 03 ba dc 32 37 3e 7a 34 8d bd 95 1a 09 3b
       -0.00050203205 0.17890495 -0.06894775 0.0020920385
0003a0 ec cc 88 be d0 31 1a be 22 00 ba 3d 92 48 bf 3d
       -0.26718843 -0.15058064 0.090820566 0.093400136
0003b0 52 52 24 3e a7 84 b0 bd 4e 44 10 3d ed 31 69 be
       0.16047028 -0.086190514 0.03522139 -0.22772951
0003c0 37 fb 0e 3e a6 a8 0c 3e 46 fb b4 be ca d8 b4 3e
       0.13963018 0.1373621 -0.35347956 0.35321647
0003d0 2d a0 0c 3f 84 54 97 be 09 d6 15 3e 9c a7 34 3e
       0.5493191 -0.29556668 0.14632429 0.17642063
0003e0 45 7d 3e 3e 52 cf ba be 42 8e 31 be 0e f7 a4 ba
       0.18602474 -0.36486298 -0.17339423 -0.0012585835
0003f0 51 00 94 bd b5 32 20 bf 02 1e 10 3e ea 4a e2 3c
       -0.07226623 -0.6257737 0.14073947 0.027623612

encoder.l2.bias f4 [50]
000000 cd 96 15 3d e6 0e d0 bd 89 23 87 bc f3 5c b1 3d
       0.036520768 -0.10159092 -0.016496437 0.08660307
000010 90 a7 1c bd 24 62 b9 bd c6 74 07 bd 00 98 15 3d
       -0.038245738 -0.09051922 -0.03307035 0.03652191
000020 a1 47 a3 bd 3d cb a4 bd f5 6f 1e bc eb 9f 1f 3d
       -0.079726465 -0.08046577 -0.009670247 0.03897087
000030 51 31 bf bd 9b ae 70 3d d2 45 a8 3d bd e9 96 bc
       -0.09335578 0.058760267 0.08216442 -0.018422002
000040 d8 2b de 3c f2 23 67 bd 75 7b 2a bd 75 63 64 bb
       0.027120516 -0.056430764 -0.041621644 -0.003484932
000050 9f fb da bd 71 43 38 bd 0b 87 3e 3d 5e 16 a7 3d
       -0.10692524 -0.044986192 0.046515506 0.08158563
000060 5b 70 42 ba 72 7a 3f bd aa 2c b9 bc d0 8d 03 be
       -0.0007417255 -0.046747632 -0.022604305 -0.12847066
000070 72 b4 99 3d 9f 57 85 3d 77 2f 9b 3d 66 e5 eb bc
       0.0750512 0.06510853 0.075774126 -0.02879591
000080 89 66 74 bc e1 ac f4 bb 5d 78 4d 3d e2 c0 7f bd
       -0.014917024 -0.007466898 0.050163615 -0.062439807
000090 98 3e 15 bd cf b8 59 3d 68 85 60 3d 2e 98 91 3d
       -0.036436647 0.053154763 0.054814726 0.07109104
0000a0 93 7e 17 3e 35 fd 94 3d b5 20 07 3e 14 f0 62 bd
       0.14794378 0.07274858 0.1319607 -0.055404738
0000b0 11 02 8c bd 7d b7 ce 3d f9 28 a3 3d 54 26 83 3d
       -0.06836332 0.10093591 0.07966799 0.06403795
0000c0 22 64 54 bd cc 2a fa bc
       -0.051853307 -0.030537985

lstm.weight_ih f4 [200, 150]
000000 44 d7 ea 3e 9b fc 58 be a2 fd 37 3e 5e d9 59 3e
       0.4586736 -0.21190111 0.17967847 0.21274325
000010 9b 50 91 3e b0 89 a0 bd a5 52 67 3e ed d4 56 3e
       0.2838181 -0.07838762 0.2259012 0.20979662
000020 03 84 1f be 57 c0 7e be 81 6d 65 be 1c 0a 82 3e
       -0.15577702 -0.2487806 -0.22405054 0.25398338
000030 77 65 8a 3e 96 6d 88 3e 84 61 10 3e 1e d2 2c be
       0.27030537 0.26646107 0.140997 -0.16877028
000040 1e d5 af 3e f0 3c b1 3e 7f fe db bd 28 05 d0 3e
       0.34342283 0.34616804 -0.10741901 0.40628934
000050 c6 7e 88 3e ee 33 2e be 0b 40 88 3e 63 b4 72 3e
       0.2665922 -0.17011997 0.2661136 0.23701625
000060 1d b8 50 bf 09 2f ca 3d 8f 41 8a be f7 18 73 3e
       -0.81530935 0.098722525 -0.27003142 0.23739992
000070 b8 ba 3a be 23 5f 75 be 59 3d 17 3e 5d 58 95 be
       -0.1823529 -0.23962073 0.14769496 -0.29168978
000080 c6 f3 68 be 3a da 6d 3e 27 7b 6e 3e db 32 33 3e
       -0.22749242 0.23227778 0.23289166 0.17499869
000090 e9 a2 99 3e 88 85 e2 3e 5d c0 a5 3e 5d 94 27 3e
       0.30007103 0.442425 0.32373324 0.1636519
0000a0 42 79 45 3e 3c 97 4d 3e 94 d4 00 3e 96 37 c0 be
       0.19284537 0.20077223 0.12581092 -0.3754241
0000b0 60 68 7a 3e da aa e7 3d 0b 20 85 3e 59 07 98 3e
       0.24453878 0.11311884 0.2600101 0.29693106
0000c0 68 c2 b6 be ac 1c a6 be ad 60 ca 3d f4 57 b3 bc
       -0.35695195 -0.3244375 0.09881721 -0.021892525
0000d0 79 35 64 bd b0 a0 4f 3c 62 01 cb 3d 47 ca e7 bb
       -0.055715058 0.012672588 0.09912373 -0.007073674
0000e0 a3 c6 4d 3d 0a 6b dc 3d 09 08 40 3d 72 8a 12 bd
       0.050238263 0.107626036 0.046882663 -0.035776563
0000f0 81 15 c0 bd 95 40 2e 3d 82 22 c3 bc 15 aa f3 bc
       -0.093791015 0.04254206 -0.023820166 -0.029744187
000100 f3 59 ae bd 79 6e 67 3d 67 f1 b0 3d 17 68 81 3d
       -0.0851325 0.05650184 0.08639794 0.06318682
000110 74 58 ae 3d 52 1d 49 bb b2 51 88 3d 52 9b c9 bd
       0.08512965 -0.0030687642 0.06656207 -0.09844078
000120 28 bc 16 bd 0e 54 fc 3d de 58 ba bc 9f 3b e4 3d
       -0.036800534 0.1232072 -0.022747453 0.11144184
000130 52 96 d2 3a 3a c3 38 bd ec 16 20 3d e9 fd 6f 3d
       0.0016066527 -0.045108058 0.03908436 0.058591757
000140 ca 03 33 3c 0c 8a f6 bd c8 07 a5 3d 8c 17 36 bd
       0.010926196 -0.12038049 0.08058125 -0.04445605
000150 e4 02 dd bd 0e 91 19 3d d4 b8 99 37 39 4b f5 3c
       -0.10791567 0.03749185 1.8325089e-05 0.029943096
000160 8a 67 8d bd 0e 72 72 bd 5a d7 c2 3c 56 d7 cf bd
       -0.06904514 -0.059190802 0.023784328 -0.10148494
000170 da 03 ac bc 61 ed 02 be bb f4 0e 3d 3d 92 98 ba
       -0.02099793 -0.12785865 0.034901362 -0.0011640262
000180 e9 ae ac 3c b2 b3 91 3d 5c 1e de 3c d6 0a 5f bd
       0.021079497 0.07114352 0.027114086 -0.054453693
000190 de 02 3d 3d 5c 16 3e bd 20 a7 ab bc 36 d5 2e 3d
       0.046145312 -0.046408042 -0.020953715 0.042683803
0001a0 72 08 5b bc 33 9d 59 bd 55 cf f3 bc bc 35 23 3d
       -0.013368713 -0.053128432 -0.02976195 0.039846167
0001b0 0a 8d 2e 3d 70 c7 17 3d 1a 46 f3 bc 44 92 16 bd
       0.042614974 0.037055433 -0.029696513 -0.036760584
0001c0 ae 36 aa 3d ac 5a de bd 7f 28 80 bd 05 09 2c 3c
       0.083112106 -0.10857138 -0.06257724 0.010500197
0001d0 9e 8d 74 3d f7 df ac 3c ce 20 4f 3d 9d 40 3a bd
       0.05970537 0.021102889 0.050568394 -0.045471776
0001e0 a9 38 fe bc 91 8d a3 3d 96 c6 6d bc e5 b7 a4 bd
       -0.031032877 0.07985986 -0.014512679 -0.080428876
0001f0 4b c1 c3 bd 92 db 01 3c 29 a3 8a bd a8 0f 18 bd
       -0.09558352 0.007925885 -0.067694016 -0.037124306
000200 2f d5 ea 3d e2 67 8e 3d ca c6 ed 3d 63 46 4c bd
       0.11466443 0.06953408 0.11610182 -0.049871814
000210 cd 5e 49 3d da c1 ff 3d 10 ad 4e bc 1c fc 7f bc
       0.049162675 0.12488146 -0.0126145035 -0.015624072
000220 af 3c 88 3c c1 bc 31 3d 63 8c 44 3d 09 0a fb 3c
       0.016630499 0.0433929 0.047985446 0.030644434
000230 34 d5 03 bd eb 9b 5b 3d fb 60 9e bc 86 59 c2 bc
       -0.03218575 0.05361549 -0.019333353 -0.023724329
000240 c5 68 0c 3d 9c c9 9b 3d 72 c2 e3 bc d1 f4 5f 3c
       0.034279604 0.07606813 -0.02780268 0.013669209
000250 dd 80 5c bd 3a 7f 88 bd 2b 76 d3 3e 98 8b 38 be
       -0.05383383 -0.066648915 0.41301093 -0.18022001
000260 3b 4c 0f 3f 02 a1 88 3d 71 c1 be 3d 96 b6 52 be
       0.55975693 0.06671335 0.0931424 -0.20577464
000270 cc 52 41 3e 49 79 97 3d cc 85 fd bd 77 27 d0 be
       0.18879241 0.0739618 -0.12379035 -0.4065511
000280 38 95 65 be 20 b8 fa 3e 32 7a ca 3e d9 51 bd 3e
       -0.22420204 0.489686 0.39546353 0.36976507
000290 1d d2 93 3e 41 86 17 be 78 ef f9 3d f2 6d 22 3f
       0.2887124 -0.14797308 0.12203878 0.63449013
0002a0 19 b1 20 bf f9 46 4d 3e c3 49 9e 3d df 0b d4 bd
       -0.6277023 0.20046605 0.07728913 -0.10353827
0002b0 7c cb 24 3e ae b1 c0 3e 13 83 81 bf fa f5 71 3e
       0.16093248 0.3763556 -1.0118126 0.23628989
0002c0 ef fe e5 bd fd 52 5d 3e 57 1f 5c be 95 a4 de be
       -0.11230265 0.21613689 -0.2149633 -0.4348494
0002d0 5e 58 04 3f 6f 83 78 be e1 14 ae be b1 e4 a6 3e
       0.5169734 -0.24268888 -0.34000304 0.32596353
0002e0 fd f4 34 3e 4f b1 82 3d f0 6f 68 3e 10 bd 3f 3f
       0.1767158 0.06381475 0.22698951 0.7489786
0002f0 1e 0e e0 3d ae df 16 3f 0a 97 ba 3e 76 a1 9d 3e
       0.10940193 0.5893506 0.3644336 0.30787247
000300 49 ac d4 3e a2 4c 1b bf 78 8c f8 3e 82 47 8d 3e
       0.41537693 -0.6066381 0.4854467 0.2759362
000310 31 e9 d3 3e 97 cf 0b 3f eb 46 c3 be d2 23 d3 be
       0.41388848 0.5461363 -0.38140044 -0.41238266
000320 a4 38 8a bd 86 d1 13 3d d0 b7 d5 3c e3 91 01 3e
       -0.067490846 0.03608849 0.026088625 0.12653308
000330 7c 3f 23 be 0e 28 1e 3e 2a 7b d3 3c a1 7d 17 bd
       -0.15942186 0.15444967 0.025815565 -0.036985043
000340 21 fa 54 3d 6a 65 30 3e 14 1b d9 3c b6 bf 8b 3d
       0.051996354 0.17226186 0.02650217 0.06823675
000350 c8 49 12 be b9 56 10 be b5 18 1f 3e d0 f0 2e bc
       -0.14285958 -0.14095582 0.15536769 -0.010677531
000360 21 1e f7 bd b5 e1 b6 3c 94 ab f9 3b 25 59 93 3d
       -0.120662935 0.022324422 0.0076193307 0.07194737
000370 ad 7c d8 3d 35 a6 05 3d ea 70 b4 3b 8f 87 d2 3d
       0.10570655 0.03262921 0.0055066245 0.10279762
000380 d3 f3 12 bd df 68 df bc 0b de 08 3d 09 9a b9 3d
       -0.03587706 -0.027271686 0.03341488 0.09062583
000390 3a 69 84 3d dd 25 af 3c f7 81 b9 bc 36 61 53 bc
       0.06465383 0.02138036 -0.02264498 -0.012901595
0003a0 7b 38 eb bd 01 0c c7 bc af 4e 0d 3e 0b bf 00 be
       -0.11485382 -0.024297716 0.13799547 -0.12572877
0003b0 38 f0 11 be 44 45 e2 3d 78 1a 05 3e f1 e5 c0 3a
       -0.14251792 0.110483676 0.12998378 0.0014716965
0003c0 52 ca cc 3c f7 b8 d3 bc 5c 22 92 3d 29 80 93 3d
       0.024998818 -0.025845034 0.0713546 0.07202179
0003d0 24 06 b3 bd dd 76 06 3e 74 a6 01 3d e7 05 f4 3d
       -0.087414056 0.1313128 0.031652883 0.11915188
0003e0 40 2a 46 3d 2f b3 ba bd 15 b6 90 bd 62 9d 05 be
       0.048380136 -0.09116208 -0.070659794 -0.13048318
0003f0 72 58 fb bd be e9 a1 bd b1 72 0b be 38 46 3d bd
       -0.12272729 -0.07905911 -0.1361797 -0.046209544

lstm.weight_hh f4 [200, 50]
000000 6f 49 93 be 12 e3 eb 3d 6b 96 1f be 9b 73 b6 bd
       -0.28766963 0.115179196 -0.15584724 -0.08908769
000010 18 d2 e6 bd 75 92 90 3e ae bd c2 3c 7a 5e 93 bd
       -0.11270541 0.28236738 0.023772087 -0.07195754
000020 e6 1c ca 3e 4e 81 16 3f b4 d1 b9 be 03 a9 83 be
       0.39475173 0.58791053 -0.36292803 -0.25714883
000030 e9 78 85 bd 42 80 11 bd b1 55 cb 3c 2f a9 1e be
       -0.065172024 -0.035522707 0.024821134 -0.15494226
000040 f6 57 53 be 7b 65 5d 3d 70 ee c5 be 18 9b 53 bd
       -0.20639023 0.054051857 -0.38658476 -0.05166158
000050 e6 ed 80 be bf 91 3e be e7 66 81 be 8d 18 87 be
       -0.25181502 -0.18610285 -0.2527382 -0.26385918
000060 d8 81 1c 3e 89 fb a8 bd 85 19 2d be e6 ee 29 be
       0.15283906 -0.082511015 -0.16904266 -0.16595039
000070 ce ed 9b bc f3 31 33 3e 39 db cc 3d 6e 9c 32 3d
       -0.019034293 0.17499523 0.10002751 0.043606214
000080 30 16 00 3f 30 92 1d bd a4 b1 aa be f9 e3 0b 3f
       0.50033855 -0.038469493 -0.33338654 0.54644734
000090 71 4f 59 be 7c 0b bf 3d 72 10 7e 3e 14 59 3c 3d
       -0.2122171 0.09328362 0.24810961 0.04598339
0000a0 31 99 08 3f 9c 96 3d be 9b 9c be be 55 b3 a4 bc
       0.5335875 -0.18514484 -0.37228855 -0.020105043
0000b0 67 7f b1 bd b5 6b 59 3d 9a 18 2d 3e 4f 82 2d 3e
       -0.08666878 0.053081233 0.16903916 0.1694424
0000c0 23 39 16 3e 78 04 24 be 0e 3e c5 bd 52 30 1e 3d
       0.14670233 -0.1601733 -0.096309766 0.0386203
0000d0 32 40 2c 3e e4 25 49 be 93 0e 69 3e 29 65 08 3d
       0.16821364 -0.1964336 0.22759466 0.0332996
0000e0 c9 77 02 3e 03 16 11 be 18 17 a9 3e f6 a4 cd 3e
       0.12741007 -0.14168553 0.33025432 0.40164918
0000f0 28 61 d0 bc cc e5 57 3d d0 db 03 be 13 3f f6 3d
       -0.025436953 0.052709386 -0.1287682 0.12023749
000100 8c 2b 58 ba 59 a7 90 3e cd 45 ab be 2a 74 1c 3c
       -0.0008246235 0.28252676 -0.3345169 0.00954918
000110 56 32 80 bd 23 0a e0 3e a6 b8 e3 be ec f4 2a 3d
       -0.06259601 0.43757734 -0.44476813 0.041737482
000120 91 35 4a 3c 94 c8 9f 3e 23 50 7f be 6d f3 6b 3e
       0.012341873 0.31207716 -0.24932913 0.23042078
000130 af ea 04 3d ce 19 9f 3e 1f 64 48 be 15 41 d9 bd
       0.032450374 0.31074375 -0.19569443 -0.106081165
000140 a1 0c 56 3e b5 9a 18 bd 10 03 9b bd 32 3e 27 be
       0.20903255 -0.037256915 -0.075689435 -0.1633232
000150 e7 16 44 3e fa 71 b3 3e db 6b 6c 3d ca 6e 16 be
       0.19149362 0.35047895 0.057720046 -0.146907
000160 c6 3d fb 3c 91 a3 eb bd 46 a5 43 bd af dc 5f 3e
       0.030669104 -0.11505807 -0.04776504 0.21861528
000170 b6 37 78 3e 17 16 c2 bd 2b 83 bc 3e 1f 43 93 be
       0.24240002 -0.094768696 0.36818823 -0.28762147
000180 0f c2 05 bd 30 80 ec be 12 bd c6 bd dc 44 55 3e
       -0.03265577 -0.4619155 -0.09704031 0.20827049
000190 93 e6 e5 bc b8 75 de 3d e5 2e c0 bd e6 da 79 be
       -0.028064048 0.10862297 -0.093839444 -0.2439991
0001a0 88 12 af bb 96 80 0e 3d 21 5e 70 3d 2f 2f d7 3c
       -0.0053427853 0.034790598 0.05868352 0.026267616
0001b0 22 0b bc 3d b6 fe b2 bc 25 d4 a0 3e 19 da 0d 3e
       0.09181811 -0.021849971 0.31411853 0.13852729
0001c0 b8 3b d0 be 49 c7 61 3d c9 78 d4 3e f2 ab 91 be
       -0.40670562 0.055121694 0.41498402 -0.28451496
0001d0 1c f6 4b 3e 18 dc cc bc cb c2 f4 3d 87 8e 73 be
       0.19918102 -0.025007293 0.11951216 -0.23784839
0001e0 b5 d5 93 3e a5 cf 41 3e f4 76 19 be aa b3 3d 3f
       0.28873983 0.18926866 -0.14986783 0.7410227
0001f0 12 dd 48 3c 22 6e d0 3d 09 00 e5 bd 63 09 5c 3d
       0.0122597385 0.10177256 -0.11181647 0.05371989
000200 04 cb 1a bb 11 8c 88 3d 3b 5c 56 3c df 1f be bc
       -0.0023619542 0.066673405 0.013083513 -0.023208557
000210 55 c7 28 3e 00 ae 97 3e 34 f7 42 bc 21 4d c1 be
       0.16482289 0.2962494 -0.011899758 -0.37754157
000220 c1 08 3d bd 81 63 9d be af 8e 56 3b 32 a1 07 bd
       -0.046150927 -0.30739978 0.0032738855 -0.033112712
000230 5a f3 e9 be e4 dd c7 3d d7 ad 1e 3b b1 5c 39 be
       -0.45693475 0.09759119 0.0024212503 -0.18101765
000240 d8 f5 ac 3e fd a8 24 be 64 4c 99 be 67 fb 0a 3f
       0.33781314 -0.16080089 -0.29941094 0.5428986
000250 34 1b 79 bd 07 81 43 3e a1 0a e8 3d 3b 2e b3 bd
       -0.06081696 0.19092189 0.11330152 -0.08749052
000260 10 89 39 be f9 36 a5 bd 6d 9e c9 3d 91 68 68 be
       -0.18118691 -0.08067126 0.098446704 -0.22696139
000270 d0 ef 1c 3e 77 cd 67 3e 67 c7 c9 3c 55 46 f0 bc
       0.15325856 0.22636972 0.024631215 -0.029330412
000280 45 f3 f2 3d d5 f5 bd bd 06 0d 04 be 61 56 bd bc
       0.11862806 -0.09275404 -0.12895593 -0.023112478
000290 72 52 2d 3e 30 8e a6 bb d2 3c b4 3d 99 4c 66 bd
       0.16925982 -0.005082868 0.08800663 -0.056225393
0002a0 d9 12 e5 3d 65 64 8d bd 74 71 96 3c 08 36 94 3c
       0.111852355 -0.06903914 0.018364646 0.01809217
0002b0 63 d9 03 be c7 d7 81 3e 38 07 d5 bd 80 17 9a bd
       -0.12875895 0.25359938 -0.104017675 -0.075240135
0002c0 60 01 c1 3d 68 75 23 3d 2d 3a e7 3d 3c 83 91 3c
       0.094240904 0.03990689 0.11290393 0.017762773
0002d0 b6 91 b4 be 71 a4 85 bd 61 0e 5b 3d 16 57 7f 3e
       -0.3526742 -0.06525505 0.05348051 0.24935564
0002e0 72 d7 ac 3d 99 54 ed bd 2f 24 dd 3d ca f5 8c bd
       0.084395304 -0.11588401 0.10797917 -0.06882818
0002f0 33 56 9e be dd db 28 be a8 2f f1 bd 98 9e c9 bd
       -0.3092514 -0.16490121 -0.11776668 -0.098447025
000300 e4 28 a0 bd 4f 14 5b 3e b5 b4 34 3d 97 c7 11 be
       -0.07820299 0.21394466 0.04411765 -0.14236294
000310 ed 3c 97 bb 9f 83 1d 3d 50 96 34 3d 97 47 0e 3e
       -0.004615417 0.0384556 0.04408866 0.13894497
000320 88 04 47 bc d1 21 1e bd 72 a8 4e 3d 18 87 04 3d
       -0.012147076 -0.03860647 0.05045361 0.032355398
000330 3f 7b d5 bc 5b aa 7c bd 77 78 29 bc ad 31 af 3d
       -0.026059745 -0.0616859 -0.010343662 0.08554397
000340 10 97 1c 3e 89 69 96 3d c7 12 88 3d c1 20 c4 3d
       0.15292001 0.07344348 0.066442065 0.0957656
000350 34 96 a5 3d 95 82 e6 bc fc e6 c5 bc 53 e4 14 3e
       0.080852896 -0.028138438 -0.024157993 0.14540224
000360 94 ca b0 bd fe d2 d9 3c 43 2b 14 be fd a7 1d 3d
       -0.08632389 0.026589867 -0.14469628 0.038490284
000370 3b 1e a8 3d f8 54 73 bd 7a 1d e9 3c 5f 3a d3 3d
       0.08208891 -0.059407204 0.028456438 0.10313868
000380 a0 ef 4e bd e2 6e 26 3e a2 b9 e7 3d 85 10 f3 3d
       -0.050521493 0.16253236 0.113147035 0.11868385
000390 66 68 70 bd 07 a1 69 bd ff 8f 12 3e c7 c7 52 bd
       -0.058693312 -0.057038333 0.14312743 -0.051460054
0003a0 4e 3c ab 3d 07 23 31 be 56 27 b9 3d f0 ff 02 3d
       0.083611116 -0.17298518 0.09040706 0.031982362
0003b0 42 2c 06 ba 3b 3e 2a be 65 78 f4 bd 82 5b 86 bd
       -0.0005118289 -0.16625302 -0.11937026 -0.065604225
0003c0 1d 7f 24 be 1b e8 a7 3c 00 97 07 3e b2 5e fa 3b
       -0.16064115 0.020496419 0.13241196 0.007640683
0003d0 d7 04 bf 3d bb 13 aa bd d4 15 c1 bd 24 36 32 bd
       0.09327095 -0.083045445 -0.094279915 -0.043508664
0003e0 29 09 2f 3d 20 5d 9c 3c d4 ef 51 3d fe 21 10 bd
       0.042733345 0.019087374 0.05125411 -0.035188667
0003f0 b2 48 ed 3d f4 8f c8 bd 65 14 a3 3b 07 95 99 bd
       0.11586131 -0.09793082 0.0049767965 -0.07499128

lstm.bias_ih f4 [200]
000000 fc 35 9d 3c 5a d6 0b 3c c4 49 2e 3e ff 07 fc 3d
       0.01919078 0.008534992 0.17020327 0.12306213
000010 1a e2 24 bc b3 e8 ab 3d 33 b3 11 3c 6d 80 85 3d
       -0.010063672 0.08393993 0.008892822 0.06518636
000020 b8 d1 0b 3e 91 9b 07 3d 7d d5 27 3e 78 2d 80 3b
       0.1365422 0.033107344 0.16390033 0.0039116703
000030 57 d7 10 3d 60 33 4c 3d 2b 1b 35 bd 28 38 b3 3d
       0.035361614 0.049853683 -0.044215363 0.08750945
000040 2d 86 21 bd c2 70 3d 3a 7c 73 a0 3d a6 d9 36 3e
       -0.0394346 0.000722658 0.07834527 0.17856464
000050 90 8b 62 bc ee da 11 3d b5 67 12 3c 45 f1 40 bd
       -0.01382722 0.03560918 0.0089358585 -0.047105093
000060 73 d8 a9 3d 09 1d fe 3d 7a 2b c5 3d e6 e5 49 3d
       0.082932375 0.12407882 0.09627433 0.049291514
000070 53 07 e0 3b c6 76 a2 bb 2c 7e 68 3d 8b 2a 84 3d
       0.0068368106 -0.0049580066 0.056760952 0.06453427
000080 de 21 5b 3d f6 a0 95 3d 74 b0 e0 3c cc a9 7c 3d
       0.053499095 0.073060915 0.02742789 0.06168537
000090 60 3d 68 3d 37 23 1d 3d 1c d7 45 3d 75 c4 f8 3d
       0.056699157 0.03836366 0.048300847 0.12146846
0000a0 20 a5 d8 bc 75 d9 8a 3d 04 ae b1 3d 2d 3a bf 3a
       -0.026445925 0.06779758 0.08675769 0.0014589481
0000b0 e6 08 5b bd d8 36 01 3e ef 76 a2 bc ee b8 88 3c
       -0.053475283 0.12618577 -0.019832103 0.016689744
0000c0 68 53 d7 3c fa 5e 41 3d e2 85 fb bc 23 15 83 3d
       0.026284888 0.047209717 -0.030703489 0.06400516
0000d0 eb a7 89 bd 98 34 3a 3d 77 45 14 3d 5b 99 6d 3d
       -0.06721481 0.045460314 0.03619906 0.05800758
0000e0 bf ff c1 3d e7 98 08 be b1 74 4c 3d bf 99 22 bd
       0.09472608 -0.13339578 0.049915973 -0.039697405
0000f0 06 bf 7c 3b 38 75 04 3c ff 7d 35 bd 59 91 5d bb
       0.0038566007 0.008084588 -0.044309612 -0.0033808558
000100 d1 c9 d2 3d 3d 76 7a 3c d6 34 ae bd ee f0 c7 3d
       0.102924 0.015286979 -0.085061714 0.097627506
000110 1a 12 14 be 1a a1 5c bd 31 c0 8b bd 0d 3e a7 3d
       -0.1446003 -0.053864576 -0.06823767 0.08166132
000120 38 cc f1 3d de 6c 55 3c 3c 26 51 bd 6b bb 80 3d
       0.1180653 0.013026444 -0.051061854 0.06285747
000130 bb cd ac bb 4e 4d 4e 3b a3 1e a2 bd ae 12 e7 bd
       -0.0052735484 0.0031479183 -0.07916 -0.1128286
000140 28 4c cc bd 2a 24 48 3d 97 a1 bb bd 28 e9 07 bd
       -0.09975463 0.048862614 -0.0916168 -0.03318134
000150 e6 7e 6b bd 10 db bb bd 96 21 b9 3d d6 02 3d bd
       -0.057494067 -0.09172642 0.09039609 -0.046145283
000160 6c 49 07 3d 73 e4 c0 3d 8d 5b 1d 3e 56 53 29 bd
       0.033029005 0.09418573 0.15366955 -0.04133924
000170 39 dd f3 3b ae 07 8a bd 98 2f ae 3d 5b e8 4b bc
       0.0074421433 -0.06739746 0.085051715 -0.012445535
000180 db 93 1d bc 94 a2 08 be 43 99 81 bc 72 da ba bd
       -0.009617771 -0.13343269 -0.015820151 -0.091236964
000190 96 74 8d bd d0 f3 0c 3e 17 ad 30 3d 2e 60 25 bd
       -0.06907003 0.13764882 0.04313382 -0.040374927
0001a0 b1 95 05 3e 9b fd cc bc 49 9d 67 bd be c8 b9 3c
       0.13045384 -0.025023272 -0.056546483 0.02267873
0001b0 2c 61 da 3c ad 74 ad bd 53 f3 eb 3c f3 59 40 3d
       0.026657663 -0.0846952 0.02880255 0.046960782
0001c0 02 e4 b4 bd f3 63 b5 3d 9e d9 a1 3d 26 a8 22 3d
       -0.088325515 0.088569544 0.07902835 0.03971114
0001d0 1a 81 ee 3c e1 7a aa bd ba d4 01 3e f2 04 1a 3d
       0.029114295 -0.083242185 0.12678805 0.037602372
0001e0 fb e5 e4 3d 60 72 de bc 19 9d ef bc 13 1a e5 3d
       0.11176678 -0.027154148 -0.029249715 0.11186614
0001f0 41 df 31 bc d2 25 0c 3d 44 41 46 bd 8a 2f 4e 3d
       -0.010856451 0.034215756 -0.048402086 0.050338306
000200 d4 45 9d b9 16 1d 06 3e 9b 8a e2 3d ca 8a a0 3d
       -0.000299974 0.13097033 0.11061593 0.07838972
000210 dc 46 c2 3d 7a b4 8b 3c 1a a6 44 3c 92 62 af bd
       0.094861716 0.017053831 0.012002492 -0.08563723
000220 b9 eb 6b 3d e8 85 70 3d f5 c9 c1 bd 88 e7 22 bd
       0.05759785 0.058721453 -0.09462348 -0.039771587
000230 cb 80 7e 3c 5a fb aa 3d 31 25 57 bd 34 28 9f 3b
       0.015533636 0.08348723 -0.052525703 0.0048570875
000240 35 84 57 3d c3 46 a3 3d 66 4a b2 3c c1 ed 10 3e
       0.052616317 0.07972481 0.021763992 0.14153196
000250 2c 40 95 3c ce f3 f9 3d 52 6e 15 3e 73 d3 e6 3d
       0.018219076 0.12204705 0.14592865 0.112707995
000260 5c c5 c3 3d d5 89 a2 ba 54 41 8a 3d 38 93 bc 3c
       0.09559128 -0.0012400696 0.067507416 0.023019418
000270 d6 f6 98 bc 6c e4 d9 bc 03 e5 1e 3d 91 04 ec 3d
       -0.018672388 -0.026598178 0.03879262 0.115243085
000280 2e 73 40 3d ae ce 87 3d b3 20 e2 3d af ce 0d bd
       0.046984844 0.06631218 0.11041393 -0.034620937
000290 3f 14 71 bd 11 c4 dc 3b e9 ad 2d 3c 34 a6 e5 bc
       -0.0588572 0.00673724 0.010600545 -0.028033353
0002a0 5e b1 29 bc 0c 50 7f bd 18 29 81 bc a0 21 41 3d
       -0.010357229 -0.062332198 -0.015766665 0.047151208
0002b0 c3 40 b0 3d 79 19 23 3d ba cb b8 bc 8c 68 dd 3d
       0.08606102 0.039819214 -0.022558082 0.10810956
0002c0 34 c6 3c 3d 5e 39 b2 3d de 5c 15 3d 98 ca f5 3d
       0.04608746 0.08702348 0.03646552 0.12001532
0002d0 19 6e e4 3d 33 33 9b bd d1 9e a1 3d 45 0b 4f 3d
       0.11153812 -0.07578125 0.0789162 0.050547857
0002e0 93 30 4a bd e3 3d 08 3e fa 65 d8 3c e3 c2 07 3e
       -0.04936273 0.13304858 0.026415814 0.13257937
0002f0 0f b3 f0 bd 7f 24 2b 3d 88 45 a3 bc 0f e5 a2 3d
       -0.11752903 0.041782852 -0.019930616 0.07953846
000300 04 ca e5 bc bb 4d 98 3c ff 31 07 3e b6 38 fe 3d
       -0.02805043 0.018591752 0.13202666 0.124131605
000310 dd 27 65 3b ae f2 ef 3d 82 7a 04 3e 58 bc 05 3e
       0.0034966387 0.11716209 0.12937358 0.13060129

lstm.bias_hh f4 [200]
000000 c9 d4 32 3c 31 a4 cf 3d f1 b9 02 3e 9a 68 db 3d
       0.01091499 0.10138739 0.12766244 0.107133105
000010 df 35 a0 3d 0c 67 0b 3e 03 10 ae 3c 32 68 f0 bc
       0.07822775 0.13613528 0.02124787 -0.02934656
000020 3e 8e b4 bc ad c1 80 3d f9 f0 d0 bb f9 1e 82 3d
       -0.022040483 0.06286941 -0.0063763824 0.06353564
000030 83 60 16 bd 95 25 57 3d 65 8f 13 3d d3 56 42 bd
       -0.036713134 0.052526075 0.036025424 -0.047446083
000040 8b d9 40 3d fb 37 b4 3d 6b 22 20 3e 50 9d 06 3e
       0.047082465 0.0879974 0.1563813 0.13145947
000050 51 8c 49 bd 27 0a 2f 3e 24 b8 a3 3d 19 2b 28 bd
       -0.04920608 0.17093717 0.079941064 -0.041056726
000060 d3 0c 29 3d 23 a4 9d 3c 04 56 f5 3d 04 91 0d 3e
       0.041271996 0.019243306 0.11979297 0.1382485
000070 a1 36 ee 3c 3a 2c 67 3c dd 4d d4 3c 9e 5c 2f 3d
       0.029078783 0.0141096655 0.025916034 0.042812936
000080 fe 3d a8 3a 04 1b 13 3e 0a cb 41 3d c0 2f 0b 3e
       0.0012835858 0.14365774 0.047312774 0.13592434
000090 34 78 b6 3b 1d 4a 0a 3e cd 36 b2 3c 0d 10 e6 3d
       0.0055685285 0.13504834 0.021754647 0.1123353
0000a0 61 11 ad 3d f4 7e ab bc 40 54 c3 3d e7 ec 28 3d
       0.084505804 -0.02093456 0.09537554 0.041241553
0000b0 d8 70 65 3d 87 56 af 3d ff 7b 31 bd d4 5c b8 3d
       0.05601582 0.08561426 -0.043331143 0.090020806
0000c0 d0 1e 23 3d 7e f3 e8 3d e8 15 50 bd 1c 3c 98 bd
       0.039824307 0.113745674 -0.05080214 -0.0743334
0000d0 c2 bd e5 bd 57 fa 32 3c 1d a9 34 3c cd 8f 31 bd
       -0.11217834 0.0109239435 0.011026648 -0.04335003
0000e0 90 6d 24 3d f2 14 8c bd 2f e0 0a bd ce 6e aa bd
       0.04014355 -0.068399325 -0.033905204 -0.083219156
0000f0 f8 d8 c2 bc cf d8 12 be cb 81 a6 3d 58 f6 50 bd
       -0.0237851 -0.14340518 0.08130225 -0.05101618
000100 73 a5 ae 3d fe 16 6d bd 62 c9 0e be 84 ba 0e 3d
       0.08527651 -0.057883255 -0.13944009 0.034845844
000110 42 f6 14 bc 00 81 d4 bd 84 e3 2a be 11 7d d2 3d
       -0.009091916 -0.10376167 -0.16688353 0.10277761
000120 0e 4e cc 3d 82 9c b6 bd 31 5b 32 3c a7 e4 cd bb
       0.09975825 -0.0891657 0.010886 -0.006283361
000130 fc 5c 1f 3d b6 c6 12 3e 80 d0 43 3d d5 9c 6e bd
       0.038907036 0.14333615 0.047806263 -0.058255035
000140 11 66 63 bd 47 4b a4 bb 68 03 84 3d 82 7a 34 bd
       -0.05551726 -0.0050138566 0.06445962 -0.044062145
000150 e7 96 ea bd 4e 92 17 be 06 e5 d2 bd ae 5b d7 bd
       -0.114545636 -0.14801905 -0.10297589 -0.105155334
000160 6e 03 8c bc 27 eb af bc fd 0a 01 3e f7 b5 09 bc
       -0.01709148 -0.021474434 0.12601848 -0.0084052
000170 9c 43 34 3e 75 20 7a bc b7 e8 01 3e 91 8d 1a 3e
       0.17603916 -0.015266527 0.1268643 0.15093066
000180 19 f8 ad 3d 85 8b bb bd ad 60 62 3d ec d1 a4 3c
       0.084945865 -0.091574706 0.05526798 0.02011963
000190 74 31 90 3d 81 b6 42 3d 14 0c b3 3d a8 8b db bc
       0.070406824 0.04753733 0.08742538 -0.026799992
0001a0 42 cb 85 3d 37 fb a8 bd 84 8e 1b 3a 8e a6 59 3c
       0.06532909 -0.082510404 0.0005934017 0.013284339
0001b0 f5 d0 c1 bd 97 7b 61 bd 9c 8e d6 bd e8 79 16 3e
       -0.094636835 -0.055049505 -0.10476419 0.14694941
0001c0 f7 8a 94 bc f7 fa 87 3d 6b a4 ce 3c f7 0f 0b ba
       -0.01813267 0.066396646 0.025224885 -0.0005304808
0001d0 23 16 85 bb e3 65 80 3d 3f 16 0d 3e 58 b9 f3 bc
       -0.004061477 0.06269433 0.13778017 -0.029751465
0001e0 fb 27 f1 3d 3a 63 34 bc 4d 6d 0c 3e fa 7d 89 3b
       0.11775204 -0.011009986 0.1371357 0.004195926
0001f0 54 f2 f8 bd 2d a1 c6 3d 42 c8 c5 bc 63 96 95 3d
       -0.121555954 0.096987106 -0.024143342 0.073040746
000200 ba 20 ad bd 01 01 29 bc 0e 07 f5 bb ca 5d 87 3d
       -0.08453508 -0.010315181 -0.0074776476 0.06609686
000210 7f 20 ee 3c 19 0a 3e bc 22 1c 79 bc 12 20 8f bb
       0.02906823 -0.011599087 -0.015204461 -0.0043678368
000220 38 3b 0a 3e 17 e8 c0 3d 93 65 36 3d 1b 3c b6 bd
       0.13499153 0.094192676 0.044530462 -0.08898183
000230 07 e2 c9 bc 4e e7 b9 3d f3 16 7e 3d ed 17 45 3d
       -0.024643911 0.09077321 0.062033605 0.04811852
000240 69 da 8c 3b 59 51 79 bc fa 36 a4 bd aa 56 d9 bc
       0.0042984975 -0.015217149 -0.080182984 -0.026530582
000250 fa 9d 97 bd 6d 4c a7 3c 3a 3f 45 3d ef 9a fd bc
       -0.074031785 0.020422185 0.048156 -0.030957667
000260 d8 97 00 3e 3b 61 19 3e e0 c0 c2 3d e0 13 1d bd
       0.12557924 0.14978497 0.09509444 -0.038349032
000270 0e a1 b1 3a bc a9 12 3e 89 17 e2 3d 49 d0 21 3e
       0.0013552026 0.14322561 0.11039645 0.1580211
000280 4d ea cb 3d 11 a9 d4 3d 83 3e e2 3d aa 3b b3 3d
       0.09956799 0.10383809 0.110470794 0.087516144
000290 58 38 1e bd 30 fe 62 bd b4 8f 9b bd 24 da 6f bd
       -0.038627952 -0.055418193 -0.075957686 -0.058557644
0002a0 62 3e a8 3d 86 1f 90 3c 3e 6e cb 3d d5 42 75 3d
       0.082150236 0.017593157 0.099331364 0.05987819
0002b0 ed b6 a7 3d 33 23 17 3e 42 83 55 3b 6c 25 27 3e
       0.08189187 0.14759521 0.0032579456 0.16322869
0002c0 00 42 f5 3d aa 1d cf 3d 2a 1c d1 3d 68 5a 20 3e
       0.11975479 0.1011308 0.1021045 0.15659487
0002d0 59 11 4d bd d6 5c 4e 3d 00 f1 4a 3d da ca 0f 3e
       -0.050065372 0.050381504 0.04954624 0.14042225
0002e0 f4 8f a0 3d 8f 32 cd 3d 8c 4e de 3d 36 d2 70 3d
       0.07839957 0.10019409 0.108548254 0.058794223
0002f0 82 6b fa bd c8 8d e9 3c 86 20 6c bd 97 9b ad 3d
       -0.12227537 0.02850999 -0.057648204 0.08476942
000300 9f b7 d3 3d d9 fd a8 3d 61 17 85 3d 2b 77 d2 3d
       0.10337757 0.082515426 0.064986 0.10276636
000310 b5 42 a7 3d 88 e6 44 3e 45 3b 0a 3e 09 21 fe 3d
       0.0816702 0.19228566 0.13499172 0.12408645
