models/mcts_models/synthetic_experiment-2021_12_20-16_26_7.model (torch, 399582 bytes, 43 tensors)

Mprog.weight f4 [1, 100]
000000 18 06 95 3f 19 2c c9 bf 77 5a ac 3e 29 6f 0a bf
       1.1642485 -1.5716583 0.3366277 -0.54075867
000010 12 c8 59 bf 26 16 f0 3e 70 73 da 3f 5b 8a b8 bd
       -0.8507091 0.46891898 1.7066479 -0.09010764
000020 ae f5 a0 bf 97 a4 8f be 88 4d d7 3f b2 44 f6 bf
       -1.2574975 -0.2805526 1.6820536 -1.9239714
000030 2b 10 cc bf 73 34 42 bf c6 6d ff 3e e4 9d d8 3e
       -1.5942434 -0.7586128 0.49888438 0.4230796
000040 e0 bd 2e 3f 06 e2 f6 bf e0 22 b3 3d 71 75 9d bf
       0.68258476 -1.9287727 0.08746886 -1.2301465
000050 96 7b 18 bf 8a 3a 0a 3f d6 5d bf be ad 49 44 3f
       -0.5956358 0.53995574 -0.3737628 0.7667492
000060 70 c8 38 3e 5f 7e a9 3f 89 47 19 bf 95 82 5c bf
       0.18045211 1.324169 -0.5987478 -0.8613675
000070 7f 22 9f bf d4 3c 45 3f 79 6e 8c be f9 e8 aa 3f
       -1.2432402 0.7704594 -0.27428034 1.3352348
000080 87 57 54 3f c5 c8 7b bf df 51 0a c0 3d f9 39 3f
       0.82946056 -0.98353225 -2.161247 0.7264593
000090 02 54 89 3d 4e 80 d5 be 31 a9 bf 3f 30 e4 a3 3f
       0.06705476 -0.4169945 1.4973508 1.2804012
0000a0 23 2f c0 bf 20 96 86 bf c7 6e 0c bf 23 ff fa bd
       -1.5014385 -1.0514565 -0.5485653 -0.12255695
0000b0 53 e7 84 3f c4 e9 b7 3e 96 7c 68 3e e4 11 45 bf
       1.0383095 0.35920537 0.22703776 -0.76980424
0000c0 5a c3 a4 be ed 29 be 3f 39 53 52 be e0 73 0c c0
       -0.3218029 1.4856545 -0.2053956 -2.1945724
0000d0 ee e1 c6 3d 0c 8b 44 3f e1 84 b2 3f 7f 55 58 bf
       0.097110614 0.7677467 1.3946801 -0.84505457
0000e0 ca 0c 60 3e 61 1b 75 3f f0 fc a3 be 2f f3 2a bf
       0.21879879 0.957449 -0.32028913 -0.6677732
0000f0 e9 5d 3d 3f 6c 73 06 be 00 46 39 3e 90 3b 60 bf
       0.7397142 -0.13129967 0.18093109 -0.87590885
000100 73 08 03 c0 b7 70 fa 3f 04 f3 03 be 26 4d e4 be
       -2.0473907 1.9565648 -0.12885672 -0.4459011
000110 10 98 5c bf 20 26 d0 3e fe de 8f bd a0 a3 e7 bf
       -0.8616953 0.40654087 -0.07024954 -1.8096809
000120 58 9d d1 3e 68 28 ac bf b1 36 0a 3f ac d1 58 bf
       0.40940356 -1.3449831 0.539897 -0.84694934
000130 73 7e 82 bf b0 46 05 bf 85 1e 98 3f 98 06 cd 3f
       -1.0194839 -0.52060986 1.1884314 1.6017637
000140 7a fb 76 3f e1 f7 1c bf 9e 13 d1 bf 54 dc 07 be
       0.9647747 -0.61315733 -1.6334112 -0.13267642
000150 29 01 cc 3e d2 0a 90 3d 14 a0 6f bf e9 90 0a bf
       0.39844635 0.07033314 -0.93603635 -0.54127365
000160 f0 d9 fa be 77 7b cb bf 61 39 66 bf 8c 62 80 bf
       -0.48994398 -1.5897053 -0.89931303 -1.0030074
000170 78 0e 55 bd 44 81 00 be 09 40 95 3f 03 48 5e 3d
       -0.05201575 -0.12549311 1.1660167 0.054267894
000180 0c b7 e2 3e 97 39 8c 3f 5d 75 14 3f e5 e8 9b bf
       0.4428028 1.0955075 0.5799158 -1.2180449

encoder.l1.weight f4 [50, 40]
000000 cc 62 aa 3b f9 3b 0e 3e 5b 00 1e 3d c8 7c 98 bc
       0.005199766 0.13890065 0.038574558 -0.018614188
000010 0f ed 97 bd 68 61 60 3c e2 0a 16 bd 78 28 25 bc
       -0.07418262 0.013695098 -0.036631472 -0.010080449
000020 ff 1a c5 3d 93 4c 12 3e 46 85 ad 3c b7 8b 79 be
       0.0962429 0.14287023 0.021181714 -0.24369703
000030 7e e2 b9 3d ee 4b 29 be 61 ca c1 bd 6e 19 02 3d
       0.09076403 -0.16532871 -0.09462429 0.031762533
000040 9d 98 98 bd c2 63 48 3e 66 b1 3e bd 27 71 f5 3e
       -0.07450984 0.19569305 -0.0465559 0.4793789
000050 ec fc 4f bc ec 4f 3f bd 37 ae 97 bd e6 58 ba 3e
       -0.012694579 -0.04670708 -0.07406276 0.3639595
000060 f9 7e fd bd b5 cf 77 3c 63 10 b9 3e 01 60 a0 3e
       -0.12377734 0.015125205 0.36145315 0.31323245
000070 25 ba fd bd d1 9b f9 bd 2d f7 74 3e a9 ad 23 bd
       -0.1238902 -0.12187923 0.23922415 -0.039960537
000080 84 c8 f9 bd 44 74 0e 3c d1 80 13 bd 88 b0 a7 bc
       -0.121964484 0.008694712 -0.03601152 -0.020469919
000090 99 ee bc 3d 71 08 c7 bd 1a b5 78 bc 01 e2 23 3d
       0.092251964 -0.09718407 -0.015179897 0.040010456
0000a0 d6 a3 1a 3d ee bf 47 bb 10 f7 4c 3b af 8a 98 3d
       0.037753902 -0.003047939 0.003127519 0.07448327
0000b0 05 d1 ac 3d 0f 5c 75 3d b3 b3 11 bc c3 1a 35 bd
       0.08438305 0.059902247 -0.008892941 -0.044214975
0000c0 af 9f b3 3d e9 81 5f be 68 55 85 be c0 51 d8 bd
       0.087706916 -0.218269 -0.26041722 -0.105624676
0000d0 dd 84 68 3e aa 9e 4a 3e a3 91 25 bc 92 80 58 3d
       0.22706933 0.19787088 -0.010105523 0.05285699
0000e0 5a b0 73 3d 01 f5 a2 3d f4 6f c1 bc 04 48 ff bd
       0.059494354 0.07956887 -0.023612954 -0.12464908
0000f0 da e7 5d 3d 95 0e b9 3d 57 30 8d bd 7d 9e ca be
       0.05417619 0.090359844 -0.06893986 -0.39574042
000100 43 e3 2e 3e 28 5d 83 bd aa 12 50 be e8 5c 9e be
       0.17078881 -0.064142525 -0.2031962 -0.30930257
000110 fb e6 9d 3d 70 7d e4 bd 9f 87 a4 3e 2b 1f a8 3d
       0.07710072 -0.11156738 0.3213472 0.0820907
000120 71 04 5f bd af 8d fc bc e7 43 ef bd 71 0b 0f 3e
       -0.054447595 -0.030829279 -0.11682873 0.13969208
000130 8a fc 37 3e 0f 5c ea 3d 3f 70 2a 3e 2b e5 66 3d
       0.1796743 0.1144334 0.16644381 0.056370895
000140 84 87 b0 3d 51 8c 81 bd 27 ce 99 3c 46 17 03 bd
       0.086195976 -0.06325591 0.018775059 -0.032004617
000150 23 33 05 bd 74 af d3 bd f7 33 08 bc 6f 52 74 3d
       -0.03251947 -0.103361994 -0.008313171 0.059648927
000160 b3 60 38 bd d1 6b 06 3e 08 c1 75 3d 32 0e c5 bc
       -0.045014095 0.13127066 0.059998542 -0.02405462
000170 ab cf dc 3d 0b 37 18 3e 51 d3 b5 3c 7a a7 1c bd
       0.10781797 0.14864747 0.02219549 -0.038245656
000180 9d ef 74 bd 74 25 c0 3e da ea 85 bd cd e0 db 3e
       -0.059798826 0.37528574 -0.06538935 0.42944947
000190 0e 77 56 bd 9e c7 45 be 10 d2 5b be 86 68 29 3f
       -0.052359633 -0.19314429 -0.21466851 0.66175115
0001a0 2a f3 99 bd 48 82 c0 3b fe b0 e4 3e b6 65 00 3f
       -0.07517083 0.0058749057 0.44666284 0.501552
0001b0 a0 aa a4 3d 95 f7 be 3c b3 92 7d 3d f8 fe 16 3d
       0.08040357 0.023311416 0.06190748 0.03686425
0001c0 0e 5b 58 3c 1a f0 a6 3d a2 88 83 ba da 97 cc bd
       0.013205303 0.081512645 -0.0010035227 -0.09989901
0001d0 10 34 14 3c b5 97 1d 3c 88 72 91 bd 2a 8d d7 3c
       0.009045616 0.009618689 -0.07101923 0.02631243
0001e0 4f c4 ee 3d e6 ba c9 3d c8 30 3c 3d f0 26 47 bc
       0.11658537 0.09850101 0.04594496 -0.0121552795
0001f0 e9 7a a3 bd 91 b1 45 3d 7b fa fe 3c f9 f8 13 3d
       -0.079824276 0.048265044 0.031125298 0.03612611
000200 e0 3d c4 bb 8c 22 38 3e bb e9 74 3d c3 65 4d 3e
       -0.0059888214 0.17981929 0.059793215 0.2005835
000210 0b 5b df bd 31 e7 37 bd 70 bb 04 be 8a 6f 5a 3d
       -0.10906037 -0.044898216 -0.12962127 0.05332903
000220 da fa 41 bd cd cf cb 3e d7 59 1b be 3c ac d0 3e
       -0.04735837 0.39806977 -0.1517099 0.40756404
000230 78 a9 4d be b7 19 a5 bd 49 da a8 be 5d 81 c7 3e
       -0.20084178 -0.08061545 -0.32979038 0.38965884
000240 aa ff e1 bd 46 bb c7 be aa 94 01 3f 5b ba 23 3f
       -0.11035092 -0.39010066 0.5061747 0.6395623
000250 d6 1f 87 bd 74 ce 04 be d3 3c 18 3e ad db 89 3d
       -0.06597869 -0.1296938 0.14866953 0.06731353
000260 f2 b0 ab 3d 62 f7 bb 3d df a2 9e 3d 98 20 f1 3d
       0.08383359 0.09178044 0.07745909 0.11773795
000270 f0 7a be 3d d5 47 d4 3c a4 8b 32 3d 9c 12 cc 3c
       0.09300792 0.025913158 0.043590203 0.024911217
000280 73 bb e6 3d a5 dd 3d 3c cc 23 aa 3c 10 80 0e 3c
       0.11266222 0.011588489 0.020769022 0.008697525
000290 3b df f0 bc 4a 8b c5 bd f4 e3 91 3d 1c 2c d3 3d
       -0.02940332 -0.09645708 0.07123557 0.103111476
0002a0 20 c2 7b bd a9 8e cf be 79 9e e4 3c 4b 6a 09 be
       -0.06146443 -0.4053853 0.027907597 -0.13419454
0002b0 43 97 5a 3e 8f b4 25 3e d0 09 29 3e 22 ef bb bd
       0.21346764 0.16182159 0.1650765 -0.0917647
0002c0 a7 cb 75 bd 96 26 d3 3d 09 0a 5f 3d 65 ed 37 3d
       -0.06000867 0.10310094 0.05445293 0.04490413
0002d0 ee 27 22 3d 15 33 a0 3d ea 09 99 be 1e f1 c3 be
       0.03958886 0.07822243 -0.29890376 -0.38269895
0002e0 cc f2 c7 3d fb 32 18 3e a0 1c 0e bd 7f 8f 62 be
       0.09763107 0.14863198 -0.034695268 -0.22125052
0002f0 e4 ab 5d 3e 28 49 cd be 1c b5 e4 3e a8 1b b5 3d
       0.21647602 -0.40094876 0.44669425 0.08843166
000300 de 8d ef bd b8 a8 0a be 55 f9 4c bd 54 de 8b 3d
       -0.11696981 -0.13540924 -0.05004247 0.06829515
000310 30 2a 6e 3e ed 5c 9d bc 84 2c fe 3d 85 15 6a 3d
       0.23258281 -0.01920935 0.124108344 0.05714943
000320 63 e6 93 bd 1b 04 a6 3d cf d9 1a 3e dd d4 c6 bd
       -0.07221677 0.08106252 0.1512215 -0.09708569
000330 d7 57 c8 3d 31 90 88 3d 69 a0 4f 3b 4c 26 f9 3d
       0.09782379 0.06668127 0.0031681305 0.12165508
000340 5d f9 b0 3d d1 66 99 be f9 26 58 be 3c 81 12 be
       0.08641312 -0.29961255 -0.21108617 -0.14307112
000350 a7 96 8f 3e b8 3b 29 3e 75 ba 0f 3e f9 27 95 3d
       0.28044626 0.16526687 0.14035971 0.07283015
000360 b7 2b a9 3d 96 28 c3 bd ea c2 5d bd 9c 66 c1 bd
       0.08260291 -0.095292255 -0.054140963 -0.09443399
000370 c3 00 f9 3d f2 c6 81 3d 8a 99 68 3d 89 5e 95 be
       0.121583484 0.06336774 0.05678705 -0.29173687
000380 38 6c 45 3e 3b 94 00 be ea 45 93 be 61 32 af be
       0.19279563 -0.12556545 -0.28764278 -0.34218124
000390 af b7 91 3c 63 44 ee bd 36 e0 7e 3e bb 25 c8 3d
       0.017787782 -0.116341375 0.24890217 0.097728215
0003a0 d7 e8 b5 3d 4f 11 08 3e 04 cb dc bd 86 a6 18 3e
       0.08882301 0.13287853 -0.1078091 0.14907274
0003b0 2c 9f 06 3d 2d 5d 71 3d cd ae 08 3e 3d 2a 12 bc
       0.032866642 0.05892675 0.13347931 -0.008921203
0003c0 6f f2 ac 3d 53 10 25 3d 30 70 a9 bd 16 5d a2 bd
       0.08444678 0.04029877 -0.08273351 -0.07927911
0003d0 fb 60 eb 3d 1e c8 37 3e 7a 57 cc 3d 32 49 37 bd
       0.11493107 0.17947432 0.09977622 -0.04474754
0003e0 40 da ab bd b1 ce 5c be c1 de 47 bd 5c 69 4d 3e
       -0.08391237 -0.21563222 -0.04879642 0.20059723
0003f0 20 38 16 be 8d dd 14 bc 9e 6e 91 3b a8 ae 9f bc
       -0.14669847 -0.009086025 0.0044382354 -0.019492462

encoder.l1.bias f4 [50]
000000 6e 7f a2 3d 03 1f 24 bd da f4 94 bd 51 84 bd 3d
       0.079344615 -0.040068638 -0.07273264 0.09253753
000010 fb 70 2e 3c 2e f3 b4 bc 75 62 f6 3d 97 90 4b bd
       0.010647054 -0.022088613 0.12030498 -0.04969844
000020 ab f9 52 bd 62 6e 83 bb 44 76 98 3d 64 f5 06 3d
       -0.051507633 -0.0040109614 0.074444324 0.032948866
000030 2a 5b 62 bc 35 44 bf 3d ac 64 0e bd f3 1d a7 3d
       -0.0138156805 0.09339181 -0.034763977 0.08160009
000040 13 b6 99 3d 1f e9 9c bd 34 de b4 bb 11 32 b3 3d
       0.07505431 -0.07661652 -0.0055196527 0.08749784
000050 6e a9 0a 3e 94 3a 83 bb 8c 2f bb 3d 77 9b 0e 3c
       0.13541195 -0.004004786 0.09139928 0.008704058
000060 f1 07 0b bd 73 08 d1 3c a3 3c 02 3e 89 df 71 3c
       -0.03394312 0.025516724 0.12718444 0.014762768
000070 d0 02 1d bd 8a 17 03 bd a1 52 f4 3d 94 95 cb 3a
       -0.03833276 -0.03200487 0.11929823 0.0015532249
000080 f7 ce 77 bc 10 b8 bd bd 72 d5 89 3d 74 15 bc bd
       -0.015125028 -0.09263623 0.067301646 -0.09183779
000090 2d 22 57 3c 7b e0 ae 3b 54 23 04 3e c5 d5 dd 3d
       0.013130707 0.0053368188 0.12904102 0.10831789
0000a0 e4 8f 82 3d dd a7 89 3d 7a d3 78 3d 6e f1 f1 3c
       0.06375101 0.067214705 0.060748555 0.029534068
0000b0 a9 35 62 3d 34 47 ac 3d 53 e5 9e bc 5c c9 4f 3c
       0.055226956 0.084120184 -0.01939646 0.012682285
0000c0 0e 17 e5 3d cf 05 ec 3d
       0.11186038 0.115245454

encoder.l2.weight f4 [50, 50]
000000 16 97 38 3e 49 e6 57 be 78 87 bf 3e 80 3c bb 3e
       0.18026385 -0.2108394 0.37408042 0.36569595
000010 72 1f 24 be d3 31 ed bd 94 25 db bd d6 a2 9a 3e
       -0.1602762 -0.11581769 -0.10700527 0.3020236
000020 6f a6 a7 3e fd bc cf bd 2c 9a ca be b7 fb 3b 3d
       0.32744166 -0.101434685 -0.3957075 0.04589435
000030 64 bb 09 3f 59 3a 7f 3e 22 e4 ba bd 6d 6d be 3b
       0.5380156 0.24924602 -0.09125544 0.0058113844
000040 0e 18 4a bd b5 ae 06 3d 01 11 17 3e 38 8d 9e 3e
       -0.049339347 0.032881457 0.1475258 0.30967116
000050 c4 44 9f 3d c6 24 57 bd f9 27 59 3e ea f4 4e 3d
       0.07776788 -0.052525304 0.21206655 0.050526537
000060 02 e7 7b 3e bb cb 31 3d fd c9 29 bd 8f e8 97 be
       0.24599841 0.043407183 -0.041452397 -0.29669616
000070 34 c9 80 bd bf 34 2b 3d 2e 73 1a 3f 5a f3 11 3e
       -0.062883765 0.04179835 0.60332 0.14252988
000080 17 1e 56 3c f7 89 79 bd 95 af 52 bd 98 2f f9 3d
       0.013068697 -0.06092259 -0.05143698 0.12167281
000090 42 c6 b2 3d df 52 97 3d 68 96 60 bd a1 00 83 bc
       0.08729221 0.07388853 -0.05483094 -0.01599151
0000a0 87 c7 4e 3e ad 57 41 3e e3 62 59 3c 60 c6 94 3d
       0.20193301 0.18881102 0.013268205 0.072643995
0000b0 86 66 f7 bd 60 24 d3 3e 5e a5 bc 3e 7b d2 0d 3e
       -0.12080102 0.4123869 0.36844915 0.13849823
0000c0 90 22 bc bd 74 07 b1 3e 48 b4 f2 bd a8 68 0f 3d
       -0.0918628 0.34576 -0.11850792 0.035011917
0000d0 19 52 10 be d4 86 7c be 8d 9b 1d be 7c 86 38 3d
       -0.14093818 -0.24660808 -0.15391369 0.04505013
0000e0 98 03 84 bd a7 27 43 be c9 c5 80 be 64 7d a3 3e
       -0.06445998 -0.19058095 -0.25150898 0.31931603
0000f0 e3 6e 55 bd 55 61 6c be 8b 2f 12 be 0c df af 3d
       -0.052107703 -0.23084004 -0.14275949 0.08587465
000100 43 a8 36 bd e0 16 3f bc d4 a3 22 be a9 40 cb bd
       -0.04459406 -0.011663169 -0.15882808 -0.09924442
000110 99 c6 90 be c1 39 22 3e 74 4f c4 3c ed 47 be be
       -0.28276518 0.15842344 0.023963667 -0.3716425
000120 a8 a6 42 be 79 c8 5c be 9b 1f f4 3d e8 a8 72 3c
       -0.19008887 -0.21560849 0.11920091 0.014810778
000130 fb ec f4 3c d9 9d 7f bd 92 f0 2b 3e 53 94 5b be
       0.029898157 -0.062406395 0.16790989 -0.214433
000140 58 24 5b be 0f 69 8e be cb 68 bd be 8c f7 1d bd
       -0.21400583 -0.27814528 -0.36994013 -0.038566157
000150 e4 67 43 be 7d 62 15 bd 28 1b 06 bf 44 bf 6b be
       -0.190826 -0.03647088 -0.5238519 -0.23022181
000160 46 0b 66 3d 74 58 16 3d 8e 1e a8 bd 7d d8 64 bd
       0.056163095 0.03670545 -0.08208953 -0.05587052
000170 12 27 92 3e db d0 24 bd ae 06 14 be 19 5a df bd
       0.28545433 -0.040238243 -0.14455673 -0.10905857
000180 17 9d 80 be fd 8e f3 be 87 40 d2 3d c0 36 05 bf
       -0.2511985 -0.4757003 0.10266214 -0.52036667
000190 bf d9 f7 3d a3 e1 04 be 8b d8 cc 3d b4 f1 97 3e
       0.12102079 -0.12976699 0.1000224 0.29676592
0001a0 15 b4 1b be b9 fa 14 be 2e a5 6e 3c cf 69 0f 3e
       -0.15205415 -0.14548768 0.014565749 0.14005207
0001b0 b1 25 d2 3e 39 1e 58 be a8 8f 60 be 68 12 5e 3e
       0.4104438 -0.21105279 -0.219298 0.21686709
0001c0 26 87 f3 3e b5 de 86 3d 80 96 a0 bb a2 9d f0 bd
       0.47564048 0.06585447 -0.0049007535 -0.11748816
0001d0 44 05 aa bc 4b b4 40 3e 56 3a a1 3d b5 9e d4 3b
       -0.020754464 0.18818776 0.07872455 0.006488646
0001e0 49 3b f1 bd 2f c4 b8 3d f2 f8 7a 3e bd 4b 2c 3e
       -0.11778886 0.09021794 0.24509028 0.16825767
0001f0 7d 6f e6 3d 51 73 30 3c 8b 35 23 be 46 87 f3 bd
       0.112517335 0.010769681 -0.15938394 -0.11891036
000200 5b 0e 9e bd d1 3d 23 be 0e ad f8 3e b8 69 85 3d
       -0.07717582 -0.1594155 0.4856953 0.06514305
000210 de aa 7f 3e 79 44 91 3d 55 6b 21 bc 17 6f 40 3e
       0.24967524 0.07093138 -0.00985225 0.18792377
000220 55 d1 63 3e ee fe b1 3c 63 85 65 bd 4b 4e 1b bd
       0.22247823 0.021728005 -0.05603541 -0.037916463
000230 c7 21 01 3e f4 cf eb 3d b7 08 40 be 46 6c e0 3d
       0.12610541 0.11514273 -0.18753324 0.109581515
000240 50 48 65 bd 7e f4 77 3e c9 5f b8 3e 1f e4 95 3e
       -0.055977166 0.2421436 0.36010578 0.29275605
000250 94 3f 5e bc 28 5b d0 3e fc 8c b1 3d fa a7 10 be
       -0.013564963 0.40694547 0.08669469 -0.14126578
000260 cb 84 1a 3e 19 83 d3 3e 64 20 36 be 27 ef 78 be
       0.15089719 0.41310957 -0.17785794 -0.2430998
000270 b7 04 9b 3d 95 df a3 3e 2c 8d 8d 3e 8c 84 ba bd
       0.07569259 0.32006517 0.27646768 -0.091073126
000280 6d d5 2f be ba dd 77 bc 8a d5 88 3e be 99 48 3e
       -0.17171259 -0.015128547 0.26725417 0.19589898
000290 73 0f 75 bd 97 ac 87 3c be 17 05 3c 77 d5 a9 3c
       -0.059829187 0.01656179 0.008123336 0.02073167
0002a0 e7 8e f3 3d 7f 64 8d 3d a4 03 1b 3d 93 c4 67 3d
       0.11892491 0.06903934 0.03784527 0.056583952
0002b0 ed 48 40 3e ec 31 51 3e 30 37 02 3e 21 19 a5 3d
       0.18777819 0.204292 0.12716365 0.080614336
0002c0 b2 a8 fd bd e3 b1 3c bd ca 56 34 bd 37 08 54 39
       -0.12385692 -0.046068083 -0.04402808 0.00020220956
0002d0 2d 0e 14 3f 58 b5 3d 3e 1c 80 e4 3d 05 64 85 3d
       0.5783413 0.18526208 0.111572474 0.06513218
0002e0 c9 d4 41 3d fb 31 5f 3e d0 76 20 3e 3e 35 18 bd
       0.04732207 0.2179641 0.15670323 -0.03716015
0002f0 d9 74 6a bd e5 55 0c bd 01 4e da 3d 38 53 01 3c
       -0.05724034 -0.034261603 0.10659409 0.007893376
000300 65 f5 ec bb f2 79 dc bd 1d 7e 3a be 6d 35 6a 3e
       -0.0072314017 -0.10765447 -0.18212171 0.22871943
000310 d4 40 cf 3e 16 f4 81 3e 53 07 4f bc 6e b8 b4 3e
       0.40479147 0.25381535 -0.012636024 0.3529696
000320 0e e2 5a be ee 64 62 bd e9 c3 da 3b 4f 59 34 be
       -0.21375296 -0.055272035 0.0066761863 -0.17612194
000330 a1 a6 18 be 02 c1 1b bd 75 72 53 3d 71 82 8d bc
       -0.14907314 -0.038025863 0.051622827 -0.017274113
000340 21 8d 44 be 8b 84 95 3e 6b 1b 4b be 0c e6 be bd
       -0.19194461 0.29202685 -0.19834678 -0.09321222
000350 0d ee 75 3c 6e 65 3b 3e d1 6f 91 3d 47 27 9e bd
       0.015010369 0.18300411 0.071014054 -0.07722335
000360 1d c7 2f be 12 bb 51 bc 62 08 06 bd fe a4 5a 3e
       -0.171658 -0.012800949 -0.03272284 0.21352002
000370 24 44 b0 bd 03 f9 bd be 61 1b 84 bd 70 1e 60 be
       -0.08606747 -0.37104043 -0.064505346 -0.21886611
000380 d5 81 68 3e 0c 7b 48 3d 70 a8 28 bd 10 d1 07 be
       0.22705777 0.04894547 -0.04117626 -0.13263345
000390 fc 01 5c 3e 81 c8 89 be d4 a4 9d 3d ab 54 54 be
       0.21485132 -0.26910785 0.07697454 -0.20735423
0003a0 e2 36 b6 be 7b 8e 29 3d d8 8b 8d be e5 c6 75 3d
       -0.35588747 0.041395646 -0.27645755 0.060004134
0003b0 32 f2 1b bf 2f 0c 3b be 73 bb 37 3e 0b ce ad bd
       -0.60916436 -0.18266366 0.179426 -0.08486565
0003c0 6c cb 6f 3d ae a2 c0 bd a8 db 63 3e 21 77 5b 3c
       0.058543608 -0.09406029 0.22251761 0.013395102
0003d0 8b 6a 3b be 1f ab 86 3e b4 fa a5 bd 17 34 06 bf
       -0.18302362 0.2630243 -0.081044585 -0.5242323
0003e0 59 f9 23 3d 3a 82 df be c1 5b c8 bd e8 27 85 3e
       0.04003272 -0.43654042 -0.09783126 0.2600701
0003f0 b0 63 7a bd 8e 47 b2 bd f1 67 1c 3e f1 ef 48 3e
       -0.061130226 -0.08705054 0.15274025 0.1962278

encoder.l2.bias f4 [50]
000000 88 eb a4 bd 79 59 0d 3e 82 ed ef bd 69 a0 97 bd
       -0.080527365 0.13803662 -0.11715223 -0.07403643
000010 06 63 7a bd 2e e9 70 3e 8d 5a f5 bc 6e b8 06 bc
       -0.061129592 0.23526451 -0.029950405 -0.008222682
000020 de b7 c7 3c 20 41 08 bd c8 74 68 3d 16 ae 0f 3d
       0.024379667 -0.033265233 0.056751996 0.03507813
000030 ff f4 12 3e e8 16 a7 3d b9 ff 1a bd 58 21 b7 bb
       0.14351271 0.08158666 -0.037841532 -0.0055886917
000040 50 c6 ca bc 7a 3d 33 3c 43 11 60 bc 45 1c a6 bc
       -0.024752766 0.01093995 -0.0136759905 -0.020277152
000050 33 6f b4 3d e4 81 60 3d ba 06 35 bc 15 da d2 bd
       0.08810272 0.054811373 -0.011048967 -0.10295502
000060 24 2f 6e 3d 66 12 96 bc 00 91 17 3d df 11 3b bd
       0.058150426 -0.01831932 0.037003517 -0.04567134
000070 cb c1 6d bb ea 9a af bd 05 b4 1e 3d 87 7d 40 bc
       -0.003627884 -0.085744694 0.0387459 -0.011748678
000080 e0 b5 d2 bc 80 96 02 be eb 79 f0 3d 0a 1f ce 3c
       -0.02572149 -0.12752724 0.11742004 0.025161285
000090 e7 32 d0 3c 33 bb bb 3d 0e 58 3f be 82 41 ea 3c
       0.025414897 0.09166565 -0.18685934 0.02859569
0000a0 a5 4d 1b bd b7 c2 0e 3d d9 45 e5 bc 4f a6 63 3b
       -0.037915844 0.034853663 -0.027987408 0.0034736579
0000b0 fc 09 2c bd 41 80 bc 3c 98 7b a5 bd 3b c2 b4 bd
       -0.04200171 0.023010375 -0.08080214 -0.08826109
0000c0 e5 46 1b bd 1b d6 85 bd
       -0.037909407 -0.06534978

lstm.weight_ih f4 [200, 150]
000000 9b 8f 01 be 9a 4f 48 3e a6 9d 6b be b3 32 df bc
       -0.12652437 0.19561616 -0.23009357 -0.027245855
000010 05 a8 ae bc 41 f2 5e 3f c4 22 b4 3c 00 4e bb 3b
       -0.021320352 0.870884 0.021989234 0.0057160854
000020 c2 6c c0 3b 72 d8 92 bd 9d 5d a9 bb 62 f0 1e 3d
       0.00587234 -0.0717019 -0.0051686303 0.038803466
000030 5f 28 c2 3e f4 ac 1a bd 50 c9 97 3e 49 4c d5 bd
       0.37921426 -0.037762597 0.29645777 -0.10414941
000040 8b 68 94 bc 4d b4 81 bd 8e 5b 19 bd 05 8d ae 3d
       -0.018116256 -0.06333218 -0.03744083 0.08522991
000050 69 99 85 3f 44 d4 dd 3d db a0 49 3c 07 a2 9c 3a
       1.0437442 0.10831502 0.012306417 0.0011950143
000060 57 93 0f 3d 94 ce d2 3c 20 b3 1d 3c 82 56 87 bd
       0.035052624 0.02573327 0.009625226 -0.06608297
000070 cf ff 8e bd 3d 68 b9 bd d9 b1 0a be f7 04 d5 3d
       -0.06982385 -0.09053085 -0.13544406 0.104013376
000080 4a 0b cd be 93 cf 67 be 5d 3c 64 3e d7 65 86 3d
       -0.40047675 -0.22637777 0.22288652 0.06562393
000090 d3 6c 15 3c fe 77 9b 3d a7 98 59 bf 91 e1 99 bb
       0.009120184 0.07591246 -0.84998554 -0.004696079
0000a0 5f 79 16 3d f2 ca bc 3c e6 b7 02 be ce b8 52 3d
       0.036736842 0.02304599 -0.12765464 0.051445775
0000b0 7b 4a a7 bd 53 a7 04 3e 83 3e 1c 3d 48 7f 05 be
       -0.08168503 0.12954454 0.038145553 -0.13036835
0000c0 53 ca c1 bd 02 67 64 bc 11 56 ea 3b 17 86 9d bd
       -0.094624184 -0.013940575 0.007151373 -0.07691591
0000d0 87 6e ce bc 89 f5 f9 3c d5 d0 01 be 0f 36 5c 3d
       -0.025199188 0.030512588 -0.1267732 0.05376249
0000e0 44 ae 79 3d 9d c4 0d 3d 54 28 bd 3b b4 5a a5 bd
       0.06095721 0.034611333 0.0057726298 -0.08073941
0000f0 1f 6f f8 3d ed 80 8e bd 6d 99 fb 3c 25 c5 06 be
       0.1213057 -0.069581844 0.030712808 -0.13161142
000100 cc bc eb bc 3e 9d 1e bd d4 a7 45 bd 50 b5 70 3d
       -0.028776549 -0.038724177 -0.048255756 0.058766663
000110 d4 86 46 3d 38 cb d9 bd 26 ca bd bd 00 e8 9e 39
       0.048468426 -0.10634464 -0.092670724 0.00030308962
000120 95 b7 ee bd 96 34 73 3d 87 c2 9e 3d 9b d1 b9 3d
       -0.11656109 0.05937632 0.07751947 0.09073182
000130 d6 e3 f4 3c 2d dd 7a 3d 49 8a 9b bc 0d df 3f 3d
       0.029893797 0.061246086 -0.018986838 0.046843577
000140 e3 be 0e bd 2a a9 84 bd bd b9 a2 bc 2b 94 83 bc
       -0.034850013 -0.06477578 -0.019863958 -0.016061863
000150 10 ca 9a bd e6 1c f5 3c 3a 6d c3 3d 95 c6 e2 bd
       -0.075580716 0.029921006 0.09542318 -0.11073033
000160 06 b0 e9 bc 53 3d a4 3d 62 51 19 bd 9a 34 8c bd
       -0.028526317 0.08019509 -0.03743113 -0.068459705
000170 8c 0d cf bd 26 de 05 be d8 2b 82 3d 41 03 02 3e
       -0.10110006 -0.13073024 0.06356019 0.12696554
000180 6e f2 b3 3d ba 86 02 be 47 bc cb bd b6 13 bf 3d
       0.08786474 -0.12746707 -0.099480204 0.093299314
000190 74 32 0e 3d 4a 5c 55 3d 27 98 4e bd 0f ca d5 3d
       0.034716085 0.052089967 -0.050438073 0.1043893
0001a0 b6 3a 6c bd 5e b9 ab bd 39 b6 06 3e 23 a9 90 3d
       -0.05767318 -0.08384965 0.1315545 0.0706351
0001b0 32 4c 67 bd 0d e1 0c 3d 82 d1 dd bc db 10 fb bc
       -0.05646915 0.034394313 -0.02707744 -0.030647686
0001c0 aa 14 7d 3d 31 90 d4 bc 7e 11 b4 3c 85 b9 56 3c
       0.061787285 -0.025947662 0.021980997 0.013105755
0001d0 55 59 99 bd 55 13 17 3c dd 40 bb bd b2 04 00 bd
       -0.07487742 0.009220918 -0.09143231 -0.031254478
0001e0 46 1b 96 bd 3c 8d 8e bd a2 df 3e bd c1 88 38 3d
       -0.07329421 -0.06960532 -0.04659999 0.045052294
0001f0 a4 70 d6 3d cb 6e ef 3c 10 0c b4 3c 9c b0 de bd
       0.10470703 0.029227635 0.021978408 -0.10873529
000200 f3 7a ab bb 3a 5c 85 3c 8a 54 03 3e db fc c2 bd
       -0.0052331625 0.016279329 0.12825218 -0.095208846
000210 c9 a2 e0 3c 79 9b 6e 3d 8f d1 83 3d 70 ab 85 3d
       0.027421372 0.05825374 0.064364545 0.0652684
000220 8e 4d 74 3d c8 af ed bd 08 7a 54 3d b2 3e e6 bc
       0.059644274 -0.11605793 0.05187419 -0.028106067
000230 f7 74 0e 3c 9e fe 80 bd 0f 37 01 be b9 5c fa 3b
       0.008694879 -0.062985644 -0.1261866 0.007640448
000240 71 21 84 3d 44 62 71 bd e1 ec 8d bc 64 84 f5 3d
       0.06451691 -0.058931604 -0.017324867 0.11988142
000250 ac 0e 2b bd 05 25 4b 3d 73 c4 5d 3e 3d b4 cd 39
       -0.04176204 0.04959585 0.2165697 0.00039234935
000260 9d 80 1c 3c c6 dd bd 3d a8 27 0b be 62 bd b2 3d
       0.009552148 0.092708156 -0.13589346 0.08727528
000270 b8 ab e8 bd 7d 51 8b 3e 77 d7 c7 bd bf a8 e2 bd
       -0.11360878 0.27210608 -0.097578935 -0.11067342
000280 03 87 53 be 10 14 2a 3e bc 5d 82 3d a9 52 a1 bd
       -0.20656972 0.16609216 0.06365535 -0.07877094
000290 ff 60 b8 bd bd 77 07 be d3 65 d8 3d e0 d5 64 be
       -0.090028755 -0.1322927 0.105662964 -0.22347212
0002a0 ac 88 42 be 01 8a b7 bd 73 dd d2 3d 79 5d 50 be
       -0.18997449 -0.08961869 0.10296144 -0.20348157
0002b0 0f 66 6c be cd 2d 98 bd 6c 57 1a 3e 83 8e fd bd
       -0.23085807 -0.07430611 0.15072411 -0.123806976
0002c0 fe cf 1e 3e a1 77 89 bc 9c aa 40 bd 3f cd 25 3e
       0.1550903 -0.016780676 -0.047037706 0.16191576
0002d0 21 53 eb 3d d2 26 33 3c b7 5a 9c 3c 9b 63 79 3d
       0.11490465 0.010934548 0.019086225 0.060886007
0002e0 2e 45 4a 3e 05 6d 21 be 08 73 9f 3a 19 27 90 3e
       0.19752952 -0.15764244 0.0012165019 0.2815483
0002f0 4d 42 62 3d 93 c3 4a be 6b de 70 3d 93 56 e7 bd
       0.05523901 -0.19801168 0.058805864 -0.112958096
000300 55 ad d9 3d fa e9 87 be 8e 57 65 3e a5 73 59 bd
       0.106287636 -0.26545697 0.2239668 -0.053088803
000310 cb cd 95 bd cc 66 25 3e c2 65 33 3e 57 f8 f2 3d
       -0.073146425 0.16152495 0.17519286 0.11863773
000320 2c de 0b 3c 20 aa f0 bc 20 a7 bf 3d 35 c5 dd bc
       0.008536857 -0.029377997 0.093580484 -0.027071575
000330 06 af 01 be e1 8b 98 bc 6d 89 e6 3d d4 c1 4f bd
       -0.12664422 -0.018621387 0.11256681 -0.05072196
000340 b5 69 03 be 05 8b 36 3d d7 6d 04 3e 76 d7 66 3d
       -0.12833293 0.044566173 0.12932526 0.056357823
000350 df 9a 5d bd 02 12 04 bd 07 41 c9 3d 3d 32 71 bd
       -0.054102775 -0.032243736 0.09826856 -0.0588858
000360 3d 7c 87 3d d2 ce e2 bd 40 a3 04 3e 92 40 df 3c
       0.066154934 -0.11074604 0.129529 0.02725247
000370 51 ec 80 3c ec bc 0a 3e b5 7b a5 bd a0 cc c3 3d
       0.015737684 0.1354863 -0.08080236 0.095605135
000380 f3 7b 0b 3e 9d 92 b4 3d 6b 8b 42 3c 45 06 09 be
       0.13621502 0.08817027 0.01187406 -0.13381298
000390 6c 2c 59 bb ab 1c 86 3d 8c b2 be bd a3 9e 80 3d
       -0.003313805 0.06548437 -0.09311399 0.062802576
0003a0 d5 7d 09 3e 7c 7d 64 3d f0 b8 ff bd 46 d5 cc bc
       0.13426907 0.055783734 -0.12486446 -0.02500404
0003b0 b8 85 7b 3d 40 d7 62 ba fb 39 c7 3d 06 84 01 3d
       0.06140682 -0.00086532906 0.09727856 0.031620048
0003c0 5b c1 4c bd 1f 87 67 bd e4 08 c9 39 a9 b2 2e 3d
       -0.049989086 -0.056525346 0.00038344332 0.042650852
0003d0 4d 67 c0 3d 45 e5 d4 bc a8 88 6d 3c 79 7d 97 bd
       0.09394703 -0.02598823 0.014497913 -0.07396979
0003e0 dc 13 65 bd 16 f4 dc 3d 2c 8a ec bb 86 43 b5 bc
       -0.055927143 0.10788743 -0.00721862 -0.022126924
0003f0 8f 28 c1 3e 57 3f a9 3d f8 71 95 3d f1 0c 65 bc
       0.37726256 0.08264034 0.072971284 -0.013980136

lstm.weight_hh f4 [200, 50]
000000 7d b5 62 3d 8f 0c 03 bd 55 2e 75 be eb 00 19 3e
       0.055348862 -0.0319944 -0.23943456 0.14941756
000010 e2 24 43 be 23 42 9d 3c 34 0a 94 3e 1c 65 95 3d
       -0.19057038 0.019196576 0.28914034 0.07294676
000020 89 f5 1d bd ed ff ec 3d 2c 00 ac bd 6c 17 21 bf
       -0.03856424 0.115722515 -0.0839847 -0.62926364
000030 85 89 74 ba 98 f4 7c be 9e 41 0e 3e b7 87 d4 3c
       -0.00093283533 -0.2470268 0.13892218 0.02594362
000040 b9 a1 6e 3c 45 a4 80 bd 17 90 78 be da d2 47 3e
       0.014564925 -0.06281332 -0.24273716 0.19514027
000050 a8 f7 ae 3d f1 41 7a 3d 7f 06 18 3e 2a 83 9f 3e
       0.085433304 0.061098043 0.14846228 0.31154758
000060 07 8b 45 3c 7b 96 8b be db 98 4f 3d 97 cb d6 3c
       0.0120570725 -0.27263245 0.050682884 0.026220126
000070 8f c1 03 3e 2b e8 20 3f 00 c7 1d be e6 71 ad 3d
       0.12866805 0.6285426 -0.15407944 0.0846899
000080 0b 20 51 be 67 be cc 3d 35 a8 14 3c 03 bd d8 3d
       -0.2042238 0.09997254 0.009073307 0.10582926
000090 b9 55 0c bd f6 5f 1b 3e 41 8e 39 be 4e a6 e4 bc
       -0.03426144 0.15173325 -0.18120672 -0.027911332
0000a0 a5 58 ee bc ed 99 c4 3c a4 09 d8 bd 0d e5 1d be
       -0.029095003 0.023999179 -0.10548714 -0.15419407
0000b0 4f c9 6c bd 3b 0e 55 be 4d 07 90 bd f5 64 ce bd
       -0.05780917 -0.2080621 -0.070326425 -0.1007785
0000c0 3d 31 7d be 20 aa 97 bd 0d 32 53 3e 3d f5 06 bd
       -0.24725814 -0.07405496 0.20624562 -0.03294872
0000d0 1b 14 79 be c2 69 b3 bd 9f f9 a5 bd d4 24 88 bc
       -0.24324076 -0.08760406 -0.08104252 -0.016619124
0000e0 d4 6c 67 3d 13 58 00 3e 23 6c 00 be 2a 3c 82 bd
       0.05650027 0.12533598 -0.12541251 -0.06359132
0000f0 e4 35 12 be b9 4d 10 be c1 6a 9e 3e 22 80 d5 bc
       -0.1427837 -0.14092149 0.30940822 -0.026062075
000100 8d 72 82 3e e9 fe d6 bd 7c 60 72 be c1 d5 1d be
       0.2547802 -0.10497839 -0.23669618 -0.15413572
000110 f7 8e fd bd 71 a2 b5 3d a7 47 50 3e 7e aa 29 3d
       -0.12380784 0.08868874 0.20339833 0.04142236
000120 b9 08 22 3e 92 74 c4 3d 31 4c 1f be e9 1d 24 3c
       0.1582364 0.095925465 -0.15556408 0.010016897
000130 cb 62 f7 bd fd 31 a6 3c 7e 46 e5 3c 38 64 af 3d
       -0.1207939 0.020287508 0.027987715 0.08564037
000140 e5 d4 8a bd 6a 0b f7 3d ba 53 3a be 86 ff 08 3b
       -0.06778888 0.12062724 -0.18196002 0.0020904257
000150 a6 1c 7a bd 68 d6 01 3e 9f 87 8c be 28 71 fa 3c
       -0.061062478 0.12679446 -0.2744722 0.030571535
000160 05 0b 32 bd 10 17 23 3d c7 e2 83 bd d0 64 05 3e
       -0.04346754 0.039816916 -0.06439739 0.13026738
000170 56 5d 4d bb 8a ef d0 bd fc 85 ec bd 1c 08 0b be
       -0.003133615 -0.102019385 -0.11548993 -0.13577312
000180 64 74 16 bd 26 37 2f bd d9 36 4c be 1a 85 39 3d
       -0.036732092 -0.042777203 -0.19942798 0.04529295
000190 1d 4b 29 be bd 6d ec 3d 36 29 13 3d 76 6a 67 bd
       -0.1653256 0.115443684 0.035927974 -0.056498013
0001a0 9e 69 1b 3e 4c 57 57 bc df b5 7e be f5 8a 96 3c
       0.15177009 -0.013143372 -0.24874066 0.018376807
0001b0 54 ba 86 3d 4f 24 81 bd 50 24 f4 bc d0 94 cf 3d
       0.06578508 -0.063057534 -0.029802471 0.101358056
0001c0 81 57 f8 bd 8e bf 15 3e 72 28 19 be 54 0b 39 bd
       -0.12126065 0.14623854 -0.14956835 -0.04517682
0001d0 c2 4c 2b 3e 2e 22 5c 3d 70 0c 0a 3e 41 a0 24 3d
       0.167285 0.053743534 0.13481307 0.040191893
0001e0 8c 33 79 bd b6 65 ad ba 35 ea 82 bd 1a 38 82 be
       -0.060840175 -0.0013229165 -0.06392328 -0.25433427
0001f0 8a bf 8c bd 12 64 32 3e 2a 83 a0 3d 17 aa 31 bd
       -0.06872471 0.17420986 0.078375176 -0.0433751
000200 bb 6c f7 bd 58 ff f3 bd 3d 9f b1 3d 45 95 14 3d
       -0.120812856 -0.11913937 0.086729504 0.036275167
000210 8d 60 48 3d a3 93 47 bc 8b 29 b3 bc 66 27 66 be
       0.048920203 -0.012181195 -0.021870395 -0.22475967
000220 89 7b 41 3e d9 87 41 be 39 0a e1 3d f4 e8 8f 3d
       0.18894781 -0.18899478 0.10988278 0.07026854
000230 3c 8b fa 3c e1 a0 10 bd b8 b4 92 bc 3e 41 d9 3c
       0.03058397 -0.035309676 -0.017908439 0.026520368
000240 d6 c0 36 bc c4 dc bb bc fa 88 19 3e 1e a9 60 3e
       -0.011154374 -0.022932418 0.14993659 0.21939513
000250 d2 53 07 3e ae 0f 1b 3d 5a 74 3c 3e 16 6c ac bd
       0.13215569 0.03785675 0.1840376 -0.08419053
000260 9e bf 6e be ab 3e 65 bd 71 60 3b be af 13 4c be
       -0.23315284 -0.055967968 -0.18298508 -0.19929384
000270 08 e3 92 3e 1e 2a 6c 3e d5 e7 81 be 2b 12 30 3e
       0.28688836 0.23062941 -0.25372186 0.1719443
000280 96 e8 2a be 28 8d 84 be 6e c4 91 3e 79 f9 1a be
       -0.16690287 -0.25888944 0.28470176 -0.15134229
000290 c4 5f 8b 3e dc 4c 62 be 44 c4 97 be 91 e1 cf bd
       0.272215 -0.22099632 -0.29641926 -0.10150445
0002a0 92 ed 79 be ff 71 18 3d af 09 13 3e c0 1d 81 3e
       -0.24407032 0.03721809 0.14359163 0.2521801
0002b0 94 b4 89 3e ae a3 62 3e 59 d7 cd bd 85 9f 8a be
       0.26895583 0.22132751 -0.1005084 -0.2707483
0002c0 18 f1 b2 bd 13 60 6b 3e 9b 94 03 3e 2f 8f 86 3e
       -0.08737391 0.22985868 0.12849657 0.26281115
0002d0 e5 22 8b be cf 3c 7b 3d 9d 7e 54 be 31 8d be 3d
       -0.2717506 0.06133729 -0.20751424 0.09304274
0002e0 ac fb 9d bd a2 8c 4e 3e 56 a5 15 be 11 8c 50 3d
       -0.07714018 0.20170835 -0.14613852 0.050914828
0002f0 d9 8d c0 bd 2f 8f a5 bc fe 6e ec bd 7d 3e 16 3d
       -0.09402055 -0.020209877 -0.115446076 0.036680687
000300 fe 65 4e bd fd 90 b6 bd bc 88 5e be 53 09 2a be
       -0.050390236 -0.08914373 -0.21731848 -0.1660512
000310 56 ef 58 be 24 55 4e be b4 94 8e be be 24 c6 bd
       -0.2118505 -0.20149666 -0.27847826 -0.09674977
000320 73 8a 19 3e 84 01 49 bd da 26 67 be 1d 77 b4 bb
       0.1499422 -0.04907371 -0.22573414 -0.0055073635
000330 a1 d6 31 bc 33 a7 50 bd 5f 6d 04 3e ed e9 e9 3d
       -0.010854394 -0.050940704 0.12932347 0.11421571
000340 11 a9 83 bd 36 b4 ef 3c d2 fa 2e be 78 00 ea bd
       -0.06428731 0.029260736 -0.17087868 -0.11425871
000350 83 0a 81 3e 66 09 83 bd 38 37 52 3e 8c df 4f be
       0.25203332 -0.06398277 0.20528877 -0.2030012
000360 4d 8f 1b be b1 35 53 be 7f 73 0d be 4c e0 ec 3c
       -0.15191384 -0.2062595 -0.1381359 0.028915547
000370 6d f2 78 3e 96 27 2b 3d 8e 84 7d 3d 47 ea 93 3e
       0.24311228 0.0417858 0.061893992 0.28889677
000380 42 26 1b bd 49 3e b2 bd 1c c1 ee bd 29 3c 37 3e
       -0.037878282 -0.08703286 -0.116579264 0.17894043
000390 9d 6c 23 3e 5a dd 39 3d a2 fd d6 bd 8a 8f 62 3d
       0.15959401 0.045377113 -0.10497595 0.05531267
0003a0 bf 11 61 be aa 6b 29 3e 9f e7 f8 3c 45 26 c9 3d
       -0.21979426 0.16544977 0.030383883 0.098217525
0003b0 51 5a 7b be dd 04 b6 3d fd 45 c5 bb 94 33 15 be
       -0.24546172 0.08887646 -0.006020306 -0.14570457
0003c0 53 65 a8 bd e5 0d 3f 3e 5e e5 ce bc ec ae 20 be
       -0.08222451 0.18657644 -0.025255855 -0.15691727
0003d0 b5 3e f8 bd 1e a1 75 be c2 6b e3 bd 85 4e b8 bd
       -0.121213354 -0.23987243 -0.111045375 -0.089993514
0003e0 e5 50 81 be 04 c3 13 be 3f 7f fe 3d de 70 84 bd
       -0.2525703 -0.14429861 0.12426614 -0.0646684
0003f0 c2 2c 06 be 7a 5f 14 bd 53 47 9c 3c b1 97 3d bf
       -0.13103011 -0.036223866 0.019076979 -0.7405959

lstm.bias_ih f4 [200]
000000 fb 7e 87 3d e3 af 00 bd e2 a9 7a bd 1a 2d c4 3d
       0.066160165 -0.03141774 -0.06119717 0.09578915
000010 1a f6 b2 3d 93 af 7f 3d b4 39 6f 3d d8 fe 70 3d
       0.087383464 0.0624233 0.05840464 0.058836788
000020 26 3a 38 3d 22 a1 9b 3d 17 ab 00 3e 95 e9 7e bc
       0.04497733 0.07599093 0.12565266 -0.01555862
000030 ec 73 04 3e d6 a5 ce 3b 36 64 f8 bc b6 3d 8d 3d
       0.12934846 0.0063063903 -0.030321222 0.06896536
000040 28 a9 62 3d 84 bc b4 3d fc 44 90 3d f3 61 7d 3d
       0.0553371 0.08825019 0.07044408 0.06186099
000050 96 9b 5f 3c d6 58 89 3d cc 0e 03 3d 87 fc 21 3e
       0.013647934 0.06706397 0.031996533 0.15818988
000060 03 b0 40 bd 82 87 c5 bc 8a 44 9c bc 1e 0e 0c bd
       -0.047042858 -0.024112467 -0.01907565 -0.03419315
000070 af dd dc 3d fc 91 f8 3d e1 b9 e6 bd 91 9a 38 3b
       0.1078447 0.12137219 -0.11265922 0.00281683
000080 ef f7 b3 3c 6d f4 ce 3d 9a eb 87 3d 85 31 9e 3d
       0.02196881 0.10105214 0.06636734 0.07724289
000090 53 00 bd 3d 04 9d ed 3d 23 12 61 bd 37 c1 80 3d
       0.092285775 0.11602214 -0.054948937 0.06286853
0000a0 a0 ae 5d 3d fb 76 a6 3d ca 44 93 bc d6 a8 90 3d
       0.054121614 0.081281625 -0.017977137 0.07063453
0000b0 bd b2 53 bd 1e 29 ac 3d b8 59 87 3d a6 83 7c 3d
       -0.05168413 0.0840628 0.06608909 0.061648987
0000c0 b1 bb 7d bc b8 04 48 3d db 55 8c bd 8c ce 49 3c
       -0.015486644 0.048832625 -0.06852313 0.012317311
0000d0 a9 de ec 3d 8c 13 be bd c2 bf ad 3c 96 0b 81 3c
       0.115659066 -0.09281072 0.021209601 0.015752595
0000e0 30 ca 8d 3c fb 12 c4 3d 39 47 6d bd e0 05 9d 3c
       0.017308325 0.09573933 -0.05792925 0.01916784
0000f0 3b 7e e0 bc 0a 33 b6 bd 16 df 70 3d f4 0e 45 bd
       -0.027403941 -0.08896454 0.0588065 -0.048109964
000100 02 74 a9 3d b7 56 f6 3c a1 2a c2 bd 6d 3f 7f ba
       0.0827408 0.030070646 -0.09480787 -0.0009736929
000110 b6 ab 1d be dc ef 1a bc b2 87 12 bd 4a 78 98 bc
       -0.15397534 -0.009456601 -0.03577394 -0.018612046
000120 68 81 fb 3b 0a 30 01 3d a4 b8 41 3d 75 09 09 be
       0.0076753385 0.031539954 0.047295228 -0.13382514
000130 d9 23 40 3d 6c ea 93 3c b4 ce 99 bc 88 9f 93 bd
       0.046909187 0.018056117 -0.018775322 -0.072081625
000140 53 ed ac bd ba ce 2e bd 95 d2 f1 3d 33 f9 52 bd
       -0.084437035 -0.04267762 0.118077435 -0.051507186
000150 5a 88 80 3d 87 20 05 3d 09 12 80 bd ad eb da 3a
       0.06276007 0.032501724 -0.0625344 0.0016702317
000160 97 6c 15 bd fe f3 b5 bb 07 83 c7 bd 97 df ff 3b
       -0.036480512 -0.005552768 -0.09741788 0.0078086364
000170 11 68 18 3d d8 51 1f 3d f5 e1 74 bd 93 d0 c7 3d
       0.03720862 0.03889641 -0.059785802 0.09756579
000180 26 20 49 bd 09 80 85 bd a2 c8 01 3e 59 f7 20 bd
       -0.049102925 -0.065185614 0.12674192 -0.03929839
000190 35 c3 83 bc 60 98 c6 3d 11 cb 82 3d 0b d9 09 be
       -0.016084293 0.09697032 0.06386388 -0.13461702
0001a0 ca 55 8a 3d a1 80 49 bd 09 92 9a 3d cd bc ec 3d
       0.06754644 -0.049194936 0.07547385 0.115594484
0001b0 1d 98 a7 bd 9e 1b d8 3c 8d 5b c4 bd df 90 2e be
       -0.0818331 0.026380356 -0.095877744 -0.17047451
0001c0 87 90 34 bc 14 2c 9e 3c 2d 74 bb bc 10 f7 e5 bc
       -0.011020786 0.019308127 -0.022882545 -0.02807191
0001d0 68 b8 19 3b 73 db 6e bd a4 b7 b8 bd d8 08 12 bb
       0.0023455862 -0.05831475 -0.09019402 -0.0022283103
0001e0 04 9f f7 3c 87 6f 90 3c a4 c3 0d bd 6b d0 09 3d
       0.030227192 0.017631305 -0.034610406 0.03364603
0001f0 7a 2d c1 bd 2b de 42 bd 32 fa a5 bd 25 30 49 3b
       -0.09432502 -0.047575157 -0.081043616 0.0030698862
000200 a1 ca 62 3d 39 d5 61 bd 0f d7 ff 3c d0 34 d9 3d
       0.055369023 -0.055134986 0.031230478 0.10605776
000210 aa 91 67 b9 80 92 0a bd 7a f4 a6 3c f9 95 f4 3d
       -0.00022084141 -0.03383112 0.020380247 0.119426675
000220 77 fa 26 3c 4c 71 1e 3a f1 0c ab 3c 22 03 60 3d
       0.010191551 0.0006044104 0.020880194 0.054690488
000230 4c 6c a6 3d a6 c0 77 3d c4 da 32 3d ed cf e5 bd
       0.08126125 0.06048646 0.043665662 -0.11221299
000240 ac 18 cf bd de 33 9d bd ea 15 55 bd 04 4f 8b 3d
       -0.10112128 -0.076759085 -0.052022852 0.068021804
000250 90 d4 e2 3a 49 62 d3 bd e2 f3 89 3d 0e 66 b0 3d
       0.001730578 -0.10321481 0.0673597 0.086132154
000260 f9 cf b5 3d ae d3 a4 3d cd 32 54 bd d2 44 77 bd
       0.08877558 0.08048187 -0.05180626 -0.060368367
000270 1a 20 7d 3d e8 d4 3e 3d b6 2b cf 3d 1c 34 d7 3c
       0.061798193 0.046589762 0.10115759 0.026269965
000280 bb 83 0a 3e b9 c7 88 3d 1d 98 aa 3c 57 ec 77 bd
       0.13526814 0.06678719 0.020824486 -0.060528126
000290 5d 03 15 3d ca 58 ff bc 0d ab cd 3c 6b cc ff 3d
       0.03638016 -0.031170268 0.025105977 0.124901615
0002a0 05 7b 10 3e 13 60 7f 3c 3e bf 99 3d 03 a6 08 3e
       0.14109428 0.015586871 0.0750718 0.13344578
0002b0 ac 7c 0d bd b1 0d 14 bd db 84 18 bd 22 ee 7b 3d
       -0.034542724 -0.03614587 -0.037236076 0.061506398
0002c0 4f 29 b3 3d 84 45 8c 3b 48 89 83 3d 85 c9 9b 3d
       0.08748113 0.004280748 0.06422669 0.07606796
0002d0 92 76 4d 3d 46 3f 98 3d d7 e0 2f bd 91 fa 77 3d
       0.050161906 0.074339435 -0.042939033 0.060541693
0002e0 05 d2 53 3d 55 bb 8f 3d 5c 86 cb 3d 5a fa 96 3d
       0.051713962 0.070181526 0.099377364 0.073719695
0002f0 71 8b 6e 3d 64 2b ec 3d 67 5d 8b bd 05 5a a6 bc
       0.05823845 0.115317136 -0.068049245 -0.020306597
000300 5c 46 e0 3d 95 44 75 bd 87 c9 00 3e 1a 27 24 bd
       0.1095092 -0.059879858 0.12576877 -0.040076353
000310 a1 43 66 bd 49 cc b8 3b 23 7d dd bc e3 e5 0a 3e
       -0.05621684 0.005639587 -0.027037209 0.13564257

lstm.bias_hh f4 [200]
000000 19 7f 48 bd 78 ae 10 3d 9b 4c 22 bd 11 90 28 3e
       -0.048949335 0.035322636 -0.039623838 0.16461207
000010 9e 0e b2 bc b2 7c 96 3d 82 91 b4 bc c1 87 e8 3d
       -0.021735486 0.073480025 -0.02204204 0.11354018
000020 f2 b8 71 3d 0f 51 d5 3c c1 bb 8e 3c 50 a2 a9 bd
       0.05901427 0.026039628 0.017423512 -0.08282912
000030 85 e5 85 bd cf 49 c6 3d f1 86 0d 3e e2 8e 27 bd
       -0.06537918 0.096820466 0.13821007 -0.040907748
000040 53 7f 69 3d 6c 8c cc 3d 1c 3c 7b 3d 02 85 66 3d
       0.05700619 0.09987721 0.06133662 0.05627919
000050 ae ad 1b bb 4d f8 de 3d 1c 02 06 3e 5b df 1d 3e
       -0.0023754644 0.10887203 0.13086742 0.15417235
000060 1b 8b 66 3d 42 c0 c7 b8 c8 0f 04 3e 65 bd 84 bd
       0.056285005 -9.52487e-05 0.12896645 -0.06481437
000070 31 46 09 bd 74 42 b1 3d e7 bf 88 bd 8a 5c 30 bc
       -0.033514205 0.08655253 -0.066772275 -0.0107642505
000080 8d ea 00 bc 58 b0 17 bd 73 dd 00 3e 75 b5 0d 3c
       -0.007868421 -0.03703341 0.12584476 0.00864922
000090 be 79 99 3c a2 ad b2 3c 86 31 67 3d 81 cc 3f 3b
       0.018734809 0.02181131 0.056443714 0.002926618
0000a0 c7 7e bc 3d 8d 16 1d ba b5 11 ba 3d 44 ab 93 3d
       0.09203868 -0.0005992435 0.090854086 0.07210401
0000b0 10 c4 25 3c d6 1e b3 3d 7b f2 d2 3d f6 1a 28 3e
       0.010117546 0.08746116 0.10300156 0.16416535
0000c0 a2 45 63 bb 62 b6 ac 3d 13 9c a0 3d 68 fb bf bd
       -0.0034678956 0.08433224 0.07842269 -0.09374124
0000d0 f4 24 49 3c aa ce 06 3d 89 e0 2b 3c 02 e6 f7 bd
       0.012276877 0.032911934 0.010490545 -0.121044174
0000e0 e3 cc bc bd 54 2b b0 3d b3 a0 e5 3d c6 40 d9 bd
       -0.092187665 0.08602014 0.112122916 -0.10608058
0000f0 4d ab a7 bd 0b 5e 6a bd 1c dd 07 3e f8 70 8b bd
       -0.0818697 -0.057218593 0.1326794 -0.068086565
000100 0e 70 04 3e 0a 23 1b bd 0f d0 b6 bd 1a 97 a9 3b
       0.1293337 -0.037875213 -0.08926403 0.0051754834
000110 6b eb b4 bd c4 00 99 3c 5c e6 73 bd 6d 4c b9 3d
       -0.08833965 0.018677123 -0.05954586 0.0904778
000120 f8 9f 00 3d c1 95 cd bd 72 a5 3b 3d f8 2d 0a be
       0.031402558 -0.10038329 0.045812078 -0.13494098
000130 dd 36 2c bd 10 41 bc 3d fa 49 d4 3d 63 e8 be ba
       -0.04204451 0.09192097 0.103656724 -0.0014565106
000140 44 cb 61 3c cb 4f 23 bd da e3 fb bc 70 3b 45 3b
       0.013781372 -0.03987102 -0.030748297 0.0030095242
000150 dc af ac 3d 11 66 f6 ba 21 f2 0c 3d 19 65 de 3b
       0.0843198 -0.0018798729 0.0344106 0.006786954
000160 93 a9 a0 bc 83 b3 f2 3d 82 b4 46 bd bc be 31 bb
       -0.01961211 0.118506454 -0.04851199 -0.0027121743
000170 1e 4e 68 3b d2 9d e4 3d 2c 25 90 bd 61 7c 35 bc
       0.0035446952 0.11162914 -0.0703834 -0.0110770175
000180 d3 79 5b bc 94 38 4e bc a2 c9 08 3e 6f 67 b0 3d
       -0.013395744 -0.012586731 0.13358167 0.086134784
000190 bc 5d d1 3d d8 13 a9 3d 1d 36 e9 bd 74 3c 03 be
       0.102229565 0.08255738 -0.113872744 -0.1281603
0001a0 83 be 4e 3d 81 88 1e 3c 78 ac a8 3d c9 22 3c 3c
       0.050474655 0.0096761 0.08236021 0.011482903
0001b0 ad a7 03 3c fb ad 9d bd 90 9c 50 3d 8e eb e2 bd
       0.0080355825 -0.076992 0.05093056 -0.11080085
0001c0 93 75 fa 3d e2 0b 74 bb e2 78 3f 3c 3d 63 99 3d
       0.12229457 -0.0037238528 0.011686536 0.07489631
0001d0 94 92 d9 bd 2b 64 d4 3c 9b e4 82 bd d8 e2 37 bd
       -0.10623661 0.02592667 -0.06391259 -0.04489407
0001e0 81 31 37 3d 0c 48 11 bd 53 89 c9 3d 37 bc ad 3b
       0.044724945 -0.0354691 0.09840646 0.005301978
0001f0 b3 9e 81 38 b1 04 8f 3d e5 20 f8 bd 67 e7 d1 3d
       6.1807594e-05 0.06983317 -0.12115649 0.102492146
000200 ae 1b ab bc 5a df a5 bd 6d 2c 64 3d cb bf 65 3d
       -0.020887222 -0.080992416 0.05570643 0.05609111
000210 ce 1d 51 3d f8 81 d4 3d 08 3e 90 3b 7a af 93 ba
       0.051053815 0.10376352 0.004401926 -0.0011267506
000220 be 9d 76 bc 64 c8 08 3d da f5 6d 3d 4b ae 0e bd
       -0.015052257 0.033394232 0.05809579 -0.034834187
000230 46 79 89 bd 11 0d cd 3d a3 c1 1f bd f5 8b 9c 3d
       -0.06712584 0.10012258 -0.039003026 0.07643882
000240 35 48 a7 bd 28 af 5c bd 3c 5a 3e 3d 11 73 c3 bc
       -0.08168069 -0.05387798 0.046472773 -0.023858579
000250 8c 3a 3d 3b 85 eb b7 bb ba 75 9b 3d 50 d4 01 3e
       0.0028874008 -0.005612793 0.07590814 0.12678647
000260 fd e6 e5 bc 43 67 0a 3e 86 d7 cd 3d cd 98 9a bd
       -0.028064245 0.13515954 0.100508735 -0.07548676
000270 ef 4a d7 3d d6 c5 cc 3d d5 7c 1b 3c 56 d3 12 bd
       0.10512339 0.09998672 0.0094902115 -0.035846077
000280 e7 23 42 bc 88 74 18 bd 5b 8c 09 3e 28 2a 58 3d
       -0.01184938 -0.037220508 0.13432448 0.05277458
000290 fd 76 69 3b 9b 65 39 3b 3f 1e 9d 3d d9 ae eb 3c
       0.00356239 0.0028289321 0.076717846 0.028769897
0002a0 e7 f4 9f 3d 5b 21 f3 bc 06 3f bf 3d b6 d1 2b bc
       0.07810383 -0.029678991 0.09338193 -0.010487011
0002b0 f5 4d f1 3d 52 cf 7d bb 04 5d 57 bd cb ad 7a 3b
       0.11782447 -0.003872831 -0.05257894 0.0038250561
0002c0 09 3e ce 3c 78 ec 28 3d f2 23 5a 3d 8b 57 c1 3d
       0.025176065 0.04124114 0.053256936 0.094405256
0002d0 10 9e 3e 3d c7 01 ce 3c 6f 2c f6 3d 33 ac eb 3d
       0.04653746 0.025147332 0.12020194 0.11507454
0002e0 4d d8 fa bc 03 93 c6 3d a5 91 09 3e e5 ac 12 3e
       -0.030620718 0.09696009 0.13434465 0.14323767
0002f0 e8 12 bb bc e1 60 3b 3d fe 98 0c 3c 42 95 81 3d
       -0.022836164 0.045746688 0.008581398 0.06327297
000300 60 a9 a5 3d 6a 9e c6 3d e2 e8 73 bd fe 56 8b 3d
       0.08088946 0.09698184 -0.059548266 0.06803702
000310 8d b8 4d bc 91 79 c0 3d b5 a9 94 3d a2 57 29 3d
       -0.012556207 0.09398187 0.072589315 0.04134334
