models/adult_classifier_09122021-153755.pth (torch, 40967 bytes, 9 tensors)

linears.0.weight f4 [54, 108]
000000 7e de 5c be 09 4d 30 bd 77 1c 05 3d 4b c9 3d bf
       -0.21569249 -0.043042216 0.03249785 -0.74135274
000010 56 ad 85 3b 05 c5 3b be 4d c1 86 bd a0 11 e6 3d
       0.004079501 -0.18336876 -0.06579838 0.112338305
000020 21 38 0b bd 94 4a 18 3d 07 84 9f 3d 82 a5 ad bd
       -0.033989076 0.0371805 0.07788854 -0.08478834
000030 57 8b c6 3c 8b fe 14 bc ea ad 10 3e af 6c a1 bc
       0.024236364 -0.009093891 0.14128843 -0.019705145
000040 07 d8 37 3d 14 d3 d5 bc f4 a0 08 3e 7a e1 10 3e
       0.044883754 -0.026101626 0.13342649 0.14148512
000050 09 7b 0e 3e f5 e5 df 3d 40 00 c3 3d d2 79 8c 3d
       0.13914122 0.10932533 0.09521532 0.06859173
000060 ef e0 a1 bd 4b 33 2a be e0 0c a3 3d d3 36 d4 bd
       -0.07904231 -0.16621129 0.0796144 -0.103620194
000070 6b 68 ac 3d 33 91 67 bd 8d dc 35 3d f8 8b 99 3c
       0.08418354 -0.056534957 0.044399787 0.0187435
000080 33 7d 9a bc fc 27 c2 bc 9a ef 4a 3d bd 39 d9 3d
       -0.018858528 -0.023700707 0.049544908 0.10606716
000090 e3 4c 9b bd e3 0e 2c 3c 12 fb 86 bd 49 4b 45 bd
       -0.07583024 0.010501596 -0.065908566 -0.0481675
0000a0 37 94 97 3d c9 e1 8b 3d 5e d8 ea bc 3b b8 51 bd
       0.074013166 0.068301745 -0.028667625 -0.051201086
0000b0 e5 36 ba 3d 08 5b 91 3d 9c d6 25 3e 89 c0 bf 3c
       0.090925016 0.07097441 0.16195148 0.023407238
0000c0 56 e0 5e bd 75 6f b2 3d c8 c5 e8 3d 31 19 8e 3c
       -0.054413162 0.08712665 0.11365849 0.017345997
0000d0 21 32 bd 3c cd ee 83 3b 3f 9f 94 3c bf 43 9d bc
       0.023095192 0.00402627 0.01814234 -0.019197343
0000e0 2b 1a bd bc cf 3a 44 bd b2 47 56 3c b4 ad 09 b9
       -0.023083767 -0.047907647 0.013078617 -0.00013130048
0000f0 b7 1a e6 bd 9f be a7 3d 51 6b 7f 3d d3 45 73 3d
       -0.11235564 0.08190655 0.062358204 0.05939276
000100 7d b2 04 3e 16 0b c3 bd e0 a1 30 bd 10 23 93 3d
       0.12958713 -0.09523599 -0.043123126 0.07184422
000110 79 71 e3 bd b1 f9 17 be 05 21 29 3d 57 29 de bc
       -0.111056276 -0.14841343 0.041291256 -0.027119322
000120 02 f2 78 bb 3d bd b2 bb 48 0b a3 bc c0 69 d6 bd
       -0.0037986045 -0.005454688 -0.01990284 -0.10469389
000130 40 cd 2b 3c 95 61 e2 bc 1c 42 26 3d 21 fd c3 3d
       0.010485947 -0.027634421 0.04059039 0.09569765
000140 c1 fe 6c 3d 50 17 69 3c b0 36 59 3d e2 9b 9f 3d
       0.05786014 0.01422675 0.05303067 0.07793404
000150 76 5e be 3c 79 7a 09 be 72 ae c0 3c 5e 9e c8 bd
       0.023238402 -0.13425626 0.023520682 -0.09795831
000160 fe 0b 33 bd b5 88 4f 3d 52 4f c2 bd a5 6d 20 bd
       -0.04371261 0.050667483 -0.094877854 -0.039167065
000170 10 6f 44 bd 3d 9d 98 bd e2 9e ae 3d 14 bb 7a 3d
       -0.04795748 -0.07451866 0.08526398 0.061213568
000180 3a 73 d8 b8 fc 0e 01 3d 93 39 00 bc d6 31 3b 3d
       -0.00010321145 0.03150843 -0.007826227 0.045701824
000190 dc e9 be 3d c8 f3 e4 bc 91 24 d1 bd 47 a8 ac 3c
       0.09321949 -0.027948275 -0.102120526 0.021076335
0001a0 9a f6 39 bd c4 d2 38 bc 7c 2e 97 bd 67 bf 5f ba
       -0.045401193 -0.011280719 -0.07381913 -0.0008535296
0001b0 7d 39 0b 3d 0e 54 8d 3c 72 b5 53 3d 7d 59 4d bf
       0.033990372 0.017251994 0.05168671 -0.80214673
0001c0 aa 83 7f bd 6d 07 0d be be 1a fc 3c ca 22 e7 bd
       -0.062381424 -0.13772364 0.03077447 -0.11285932
0001d0 9c d8 66 3d c9 4b 0b 3d fb 3d a6 bc df 61 aa 3d
       0.05635892 0.03400782 -0.020293226 0.08319449
0001e0 bb 0d de bb 8f a6 a8 bc c9 c7 4a 3d b2 b5 c1 3d
       -0.006776539 -0.020587234 0.049506936 0.09458484
0001f0 eb e4 90 bb f5 18 01 3e ec 08 cd 3d 94 f6 17 3e
       -0.0044218204 0.12607177 0.10011467 0.14840156
000200 1e ab 35 3c dd e2 1b 3d 6e fc a7 bc 31 15 a1 3d
       0.011088161 0.03805815 -0.02050611 0.0786537
000210 61 0e 2d bd 8e df e7 bd b5 ba f1 3d 8f d3 bc 3c
       -0.04225004 -0.113219365 0.1180319 0.023050098
000220 98 d2 3a 3e 36 cd 20 3d dd 71 14 3d cf be 11 bd
       0.18244398 0.039258204 0.0362414 -0.03558236
000230 9c 34 18 be 19 71 9b bd 99 b5 a2 bb 63 d5 e7 bc
       -0.14863819 -0.07589931 -0.004965496 -0.028299993
000240 da a7 ec 3d 10 50 a7 3d 54 ce e2 bc 10 93 40 3d
       0.11555453 0.081695676 -0.027686276 0.04701525
000250 23 1b 96 3d 2c 1b 88 3d eb 70 fd bc 0f 5c fc 3c
       0.07329395 0.066458076 -0.030937633 0.030805616
000260 cf ba d4 3d 8c 27 7a b9 e0 a8 68 3b fb d8 95 3d
       0.103871934 -0.0002385659 0.0035501048 0.07316776
000270 da fb b8 3c dd 0a b6 bc d3 a2 12 bd ea 0e 30 bd
       0.02258103 -0.022221977 -0.035799813 -0.042982973
000280 d2 1f a1 bc 40 a9 8f bd 86 be 56 3c 71 09 ae 3d
       -0.019668493 -0.07014704 0.013106948 0.084978946
000290 05 4e f6 3d a3 7a 4e 3d 0f 56 63 3c ef 96 9a 3d
       0.120266 0.050409924 0.013875498 0.075483195
0002a0 3e c0 97 bc b6 eb 9c bc e4 4a 85 bc 04 7b d1 3d
       -0.018524285 -0.019155364 -0.016271062 0.102285415
0002b0 c9 fa 64 3d ce 74 03 3d 5a cb 80 3a 67 f8 53 bd
       0.05590323 0.032093816 0.0009826228 -0.051750567
0002c0 9a cb 3c bc a2 94 09 3e 0f 41 f2 3c d2 30 85 3c
       -0.011523152 0.13435605 0.029572038 0.01625863
0002d0 30 a4 0f 3e cd 42 70 3d 57 8a d1 3c e3 23 07 bc
       0.14027476 0.058657456 0.02557866 -0.008248302
0002e0 ac 85 b8 3c f9 0c 0f bd 1f af e5 3c 68 90 e3 bb
       0.022524677 -0.03492448 0.028037606 -0.006944705
0002f0 e8 c4 03 3e 1d 8d 08 3c 6f 58 ee 3c a4 73 5b 3d
       0.12868083 0.008334425 0.029094903 0.05357708
000300 9f 43 17 bd 58 9d 75 3d 86 77 6e 3d f6 a3 f9 3b
       -0.036929723 0.059964508 0.058219455 0.0076184226
000310 93 8c e9 bc bb 3d 60 bd 06 ea 14 3d 6f 66 2d bd
       -0.028509414 -0.05474637 0.036355995 -0.042334016
000320 ae 8a 5f 3d 93 91 95 bc 6f 05 bf 3d 6f cd d4 3b
       0.054575615 -0.018257892 0.09327208 0.006494216
000330 db b8 5b 3d 4e 27 03 bd 3f e0 7b bd 45 1a 10 3d
       0.05364309 -0.032019906 -0.061493155 0.035181303
000340 fd f0 ab 3c 2b 01 b8 bd 0f 66 95 3d 67 2f 41 3d
       0.020988936 -0.08984598 0.07294857 0.047164347
000350 24 77 9b bd b0 3d 06 bb c0 cb e5 36 9b 01 91 bd
       -0.07591084 -0.0020483546 6.8484514e-06 -0.07080384
000360 04 03 11 3e 40 a2 4b 3e 23 32 16 3e b2 fd 35 3f
       0.14161307 0.19886112 0.14667563 0.71090233
000370 3f de 41 3e b2 e3 09 3e 64 2d 72 bc 0b 38 f1 3d
       0.18932436 0.13465765 -0.01478133 0.117782675
000380 bf e9 2d bc 20 90 16 bd 08 65 b4 3d ae 7b f5 3c
       -0.010614811 -0.036758542 0.08808333 0.029966202
000390 be 50 01 3d 43 cf 5f ba 92 30 12 bd 28 b2 9c 3c
       0.031571142 -0.00085376593 -0.03569085 0.01912792
0003a0 99 9d d6 bc f1 87 22 bd b2 b9 03 bd dd f8 ad bd
       -0.026198195 -0.039680425 -0.032159515 -0.084947325
0003b0 4a f9 0f bc 91 63 50 bc 96 83 a4 3d c3 6f cd bc
       -0.0087874625 -0.012719051 0.080329105 -0.025077706
0003c0 59 a3 c7 ba f4 4c 07 3e 44 a1 52 3d 10 15 00 3e
       -0.0015231177 0.13212949 0.051423326 0.12508035
0003d0 a2 51 c5 bd 20 9b 11 3e 51 b1 5c bc 6c 84 cc bd
       -0.09634711 0.14219332 -0.01347001 -0.09986195
0003e0 09 b2 a9 3d 37 a4 c4 3d 29 2e 96 bd 7f 6e bf bd
       0.08285911 0.09601634 -0.07333023 -0.09347247
0003f0 26 72 f4 bd 71 0c 36 3b 32 cf db 38 b7 5b 4e bd
       -0.119358346 0.0027778412 0.00010481327 -0.050380435

linears.0.bias f4 [54]
000000 a8 35 a2 3d 94 d9 cd 3d 77 30 fb 3d 9b 1d 4b bd
       0.0792039 0.10051265 0.12265103 -0.04958878
000010 45 a6 12 3d e5 d2 9a bb 1b e6 0f 3c f2 8f 9f bd
       0.0358031 -0.0047248476 0.008782889 -0.07791127
000020 55 8b 84 bc 30 e6 ee 3c da 88 09 bd 58 72 b3 3c
       -0.01617972 0.029162496 -0.033577777 0.02190511
000030 4a ab 65 3d 17 13 5b bd 23 32 92 3d 40 6b 8e bc
       0.056071557 -0.053485002 0.07138469 -0.017385125
000040 04 8c 82 bd 24 e1 d5 bc bc 73 7e bc 11 5e 09 3d
       -0.06374362 -0.026108332 -0.015530523 0.033536974
000050 c7 ef b3 3d fb a6 df 3d ea 70 de 3d 25 5c d0 3d
       0.08785968 0.10920521 0.108613804 0.10173825
000060 da 17 ee 3d 38 a2 45 3d 41 5f 8d 3d 02 3c 09 3d
       0.11625643 0.048250407 0.06902934 0.033504494
000070 9c e1 e1 ba a3 88 85 3b 45 a5 76 3d 2a 62 92 bd
       -0.0017233375 0.0040751263 0.060216207 -0.071476296
000080 c4 9a 48 3d 3b 12 10 3e d0 24 a8 3d de 1c 6d 3d
       0.04897572 0.14069454 0.082101464 0.057888858
000090 37 f4 da 3c ca 61 4a bd 19 e6 e9 3d ed 12 2d bd
       0.026727779 -0.049409665 0.11420841 -0.042254377
0000a0 f9 b0 62 bc 66 2a 26 bb de 9d 22 bd e1 8b a9 bc
       -0.013836139 -0.0025354861 -0.039701335 -0.020696582
0000b0 34 f9 8c b9 6f ff a1 3d 16 21 45 3c 64 91 9e 3d
       -0.00026888552 0.07910048 0.012031814 0.07742575
0000c0 1d ac a4 bc f6 75 ef 3d 38 b1 4b 3d ad 3e ab 3d
       -0.020101601 0.11692421 0.049729556 0.08361564
0000d0 83 0e f8 3d 3d b9 7b 3d
       0.12112143 0.061455954

linears.1.weight f4 [36, 54]
000000 80 9a 3c be 34 bb a8 bd a6 14 ca 3d 10 0d f1 bd
       -0.18418312 -0.08238831 0.098672196 -0.117700696
000010 2e 8d 9a 3d ff 36 58 ae 06 67 2e bd b8 f1 fb bd
       0.07546459 -4.916156e-11 -0.04257872 -0.123019636
000020 f3 ec 39 3e 6b 87 2a bd 2e cb f8 bc 64 13 91 bc
       0.18156795 -0.04163305 -0.030370321 -0.017709441
000030 3a fd 33 3c 61 77 d1 b8 3d 15 ed 3c e1 52 10 bb
       0.010985667 -9.988133e-05 0.028940791 -0.0022022056
000040 75 b1 1a 3e 3b 25 2a be 03 22 4b bd 71 fa 82 bd
       0.15106757 -0.16615765 -0.049592983 -0.06395424
000050 4f f7 22 3d 9d 88 d1 bc 6a 8f e0 3d 64 d5 24 3e
       0.039786633 -0.025577838 0.10964854 0.16097027
000060 05 3f 7b bd 0b 3c f1 3d 0d 24 47 bd 73 77 70 bd
       -0.061339397 0.117790304 -0.048618365 -0.058707666
000070 9d ba a6 39 f1 4b 21 3e 60 ab 0b 3e 7b 6a 19 be
       0.00031801025 0.15751626 0.13639593 -0.14982025
000080 7d d4 a9 bd 72 c5 d1 3c 07 64 ce bd be 59 5e bd
       -0.08292482 0.025606845 -0.100776725 -0.054284804
000090 b7 a5 20 bd 45 66 40 bc 0a ed 41 3e 21 2d b7 bd
       -0.039220538 -0.011743133 0.1893808 -0.089441545
0000a0 cd a6 91 bc 00 d2 6b 3c 7b 9b b8 bc 90 84 dc 3c
       -0.017779732 0.01439333 -0.022535076 0.02691868
0000b0 7b ba 8e 3d 31 9a 0d 3e 8c 55 b5 3a c2 81 15 3e
       0.06969162 0.1382835 0.0013834699 0.1460028
0000c0 c4 d0 9c 38 46 ee 54 bc 74 2f 8e 3d aa e7 b0 bd
       7.477545e-05 -0.012996262 0.06942645 -0.086379364
0000d0 f6 35 b2 bc f5 3c 12 be e6 7a a9 bb 8e 05 22 3b
       -0.021754246 -0.14281066 -0.0051721213 0.002472255
0000e0 2f db 9d 3d 6c e2 4e 3d 89 9d f0 3d f6 4c 67 94
       0.077078216 0.0505089 0.117487974 -1.16776975e-26
0000f0 6e 6f b3 3d fe 34 0c be 6c 3e 49 3c d4 d0 9d 3d
       0.08761488 -0.1369209 0.012282949 0.077058464
000100 60 df d2 3d 48 cc 61 bd 92 cc ab bd 18 3a 3d 34
       0.10296512 -0.05512646 -0.08388628 1.7623131e-07
000110 03 3f 80 3d 46 1f 8e bd 0a b2 19 3e 29 dc aa bc
       0.062620185 -0.06939559 0.15009323 -0.020856934
000120 c7 73 8a bd 48 69 7d 3d ce a8 07 bd d2 c8 92 3d
       -0.06760364 0.061867982 -0.03311997 0.0716721
000130 be 12 96 3d de 98 1c bd de 0d aa 3d d0 0b 90 3c
       0.073277935 -0.038231723 0.08303426 0.017583758
000140 8a 8f 96 3d ab 72 12 3d 24 54 83 3d 98 0c cb 3c
       0.07351597 0.035753887 0.06412533 0.024786279
000150 9e 70 63 3d 36 22 97 bd 39 be ab bd f5 51 51 bd
       0.055527322 -0.07379572 -0.083858915 -0.05110355
000160 7d ff f7 bd 38 09 06 bd 42 c4 03 3d b4 6e 63 bd
       -0.121092774 -0.032723635 0.032169588 -0.055525497
000170 8b 39 a2 bd 58 5a 33 bd c9 31 8e bd 19 b3 c8 3d
       -0.07921132 -0.04378733 -0.069430895 0.09799785
000180 17 0e cf bd 1e d5 a8 3c ec 45 39 3c 60 5d 4d bd
       -0.10110109 0.020609435 0.011308175 -0.050137877
000190 76 d8 09 3d ed 82 cb 3d 02 ab 4f 31 32 df ae 3b
       0.0336537 0.099370815 3.0219671e-09 0.0053366655
0001a0 4e 77 68 3d 9e c3 c0 bc ac 00 da bd 0e 1f 3b bd
       0.056754403 -0.023530778 -0.106446594 -0.045683913
0001b0 81 b0 f3 bd 5a 43 05 3d e8 ef 37 3e a0 66 51 bd
       -0.118989 0.032534935 0.1796261 -0.05112326
0001c0 bd c2 4d 3c e3 df 21 af c9 b2 09 3e 64 69 3f be
       0.012558636 -1.4722405e-10 0.13447107 -0.18692547
0001d0 6b d1 25 3d 99 6f 6b 3d 45 29 00 be 0b 0e 85 3c
       0.04048292 0.057479475 -0.12515743 0.016242048
0001e0 66 33 3b be 60 26 e4 b8 d9 7e 12 3e 63 d6 8f bd
       -0.18281326 -0.00010879035 0.14306201 -0.07023313
0001f0 92 a5 05 3e 6a bd 3f 3c 05 2e c7 bd 6d 81 4c bd
       0.13051441 0.011702875 -0.097255744 -0.049928118
000200 22 da 96 3a f3 89 84 bd f7 6a 8a bd c1 e3 3e 3c
       0.00115091 -0.06471624 -0.06758683 0.01165098
000210 41 5c cf bd 98 03 0f 3d 31 d1 1b 3d c5 88 00 be
       -0.10125018 0.034915537 0.038041297 -0.12552173
000220 95 11 3a 3e f7 e0 82 bc 45 1c 20 3e b2 4b 18 be
       0.1817077 -0.015976412 0.15635784 -0.14872625
000230 14 e4 45 be b6 f9 ea bd 97 e3 ea bd f8 8b 8e bd
       -0.19325286 -0.1147341 -0.114691906 -0.06960291
000240 ba 6f 01 3d e4 66 98 bd da af 93 3d a4 ad 29 be
       0.03160069 -0.074415 0.072112754 -0.16570145
000250 31 f5 b0 3c 79 ca 61 bd d5 cc a2 3d d9 a8 38 3e
       0.021601291 -0.055124734 0.07949225 0.1803316
000260 e8 d3 c1 bd e1 a2 c1 3d f7 64 e3 bc 45 6a 0c bd
       -0.09464246 0.09454895 -0.027758105 -0.034281034
000270 74 d3 8f 3a 70 c2 b8 3d 1e 62 94 bd 3b 4d e3 3d
       0.0010973052 0.09021461 -0.07245277 0.11098715
000280 ac fc 06 bd 92 9b 45 bc 25 c4 71 bd 8b 5b d6 bd
       -0.03295581 -0.012061017 -0.05902495 -0.10466679
000290 ce ef a6 3d 90 54 2b be 8f 76 f8 3c 76 5f 51 9a
       0.08151208 -0.16731477 0.03032997 -4.32973e-23
0002a0 8f 66 00 3e 35 ed 9a bd d4 0f 09 bb 35 96 e9 3c
       0.12539123 -0.07564775 -0.0020913975 0.028514007
0002b0 2b e2 fc bc 17 ad 94 3c 49 12 de bd 6e 1b 73 37
       -0.030869564 0.018148942 -0.10843331 1.4490315e-05
0002c0 cb e9 87 3e 25 46 0b be 20 ea 6a 3e f3 65 13 3c
       0.26545557 -0.13600977 0.22940874 0.008996475
0002d0 71 b7 15 be 63 2a 15 3c b1 e3 33 bc 85 24 92 bc
       -0.14620759 0.009104344 -0.010979579 -0.01783968
0002e0 bf 97 e6 3d b1 3d 7d bd 9a 10 fd bc 49 ea 38 3d
       0.11259412 -0.06182641 -0.030891705 0.045145307
0002f0 6b d8 14 be 72 9c 92 3c 8b 48 34 3e 76 81 04 3e
       -0.14535682 0.017896865 0.17605798 0.1294001
000300 58 be 84 bd 72 3f 45 be a2 69 56 bc a7 d6 9f 3b
       -0.06481618 -0.19262484 -0.013086708 0.0048778835
000310 6d 77 02 be 15 91 41 bc 51 f7 13 3e 81 99 ad bd
       -0.1274087 -0.011814375 0.14449812 -0.08476544
000320 26 99 98 3d 8c 08 62 ba 7a 32 0d be e8 4d 76 3c
       0.07451086 -0.00086224894 -0.13788787 0.015033223
000330 86 b2 4e 3d 39 77 c2 3d 7f 29 bf bc 4f 28 45 bb
       0.050463222 0.09495396 -0.023335217 -0.003008384
000340 1b db 3d 3d 9c 46 3a 3e 55 d0 a0 34 ba b4 74 3d
       0.046351533 0.18190998 2.9953904e-07 0.059742667
000350 d2 65 3b bd e0 d9 63 bd 73 2d 4c 3c eb fb 04 be
       -0.0457514 -0.055627704 0.012462008 -0.12986724
000360 7b bd e5 3d e3 18 ed 3d 81 ab 53 3e f1 37 4d 3d
       0.11217781 0.115770124 0.20670892 0.050102178
000370 8d 28 77 3d c7 57 b2 92 3e fa 8c bc 8b c7 63 3d
       0.060341407 -1.1255018e-27 -0.017209169 0.05561022
000380 8c 02 b6 3d 47 0f c1 3d bb 54 d2 3d 27 55 0c 3e
       0.088872045 0.09426742 0.10270067 0.13704358
000390 6d ed 9b 3d 20 67 e8 37 6a 21 f8 bd 79 0e 47 3e
       0.07613645 2.7704576e-05 -0.12115748 0.19439115
0003a0 1c 77 87 bd 73 7f 87 3d 2c 20 1d 3e 1d 85 39 3e
       -0.06614515 0.06616106 0.15344304 0.18117185
0003b0 52 41 a2 bc b7 83 0f 3d f4 85 3e 3e 3d 90 3f 3e
       -0.019806538 0.035037722 0.18605787 0.18707366
0003c0 3b 79 a1 bd 5a 1a fe 3c 00 7b 6f bc ab 37 15 3e
       -0.07884451 0.031018425 -0.014616728 0.14572017
0003d0 b8 d0 52 3d f9 10 07 3e d4 9f 9c 3d 85 78 60 bc
       0.05146858 0.13190068 0.07647672 -0.013700609
0003e0 28 a4 54 bd ba bb 19 3e 68 d8 92 3d fe 60 19 3d
       -0.051914364 0.15013018 0.071701825 0.037446015
0003f0 13 4c 4d 3d 99 27 0a bb 92 d6 33 3e eb f7 cb bc
       0.05012138 -0.002108073 0.17562321 -0.02489849

linears.1.bias f4 [36]
000000 ef 40 ee 3d ea f0 da bd a4 a0 7f bc 2d df 04 3e
       0.11633479 -0.10690482 -0.015602265 0.1297576
000010 04 29 30 3e a2 5c 9e bc 56 ae 6b 3d b4 62 88 bd
       0.17203146 -0.01933128 0.057539307 -0.06659451
000020 28 0a ad 3d e4 ba 90 bc 88 47 91 bd a1 fd 94 ba
       0.08449203 -0.017667241 -0.07093722 -0.0011367091
000030 53 7c aa 3d 7d 3d 9a bb 73 b5 49 3d d4 57 fe 3d
       0.08324494 -0.004707037 0.04924531 0.12419096
000040 08 ee 20 3e d7 19 09 3e 00 6e e6 3d 0c 11 c4 3b
       0.15715802 0.13388763 0.112514496 0.0059834775
000050 2f ad 29 3e e8 6f bf bd 72 1a 0f 3e 6e 7e 81 b8
       0.1656997 -0.09347516 0.13974932 -6.174749e-05
000060 d8 b6 d3 3b f4 7c 0f 3e d5 26 99 bb f0 45 02 3d
       0.0064610057 0.1401251 -0.0046738186 0.03180498
000070 95 7e c3 3d f3 5c e1 3c d2 94 00 bc 58 ce e0 bd
       0.09545628 0.027510142 -0.0078479815 -0.10976857
000080 cc 93 de 3c 45 2b 81 bd 9c 41 b8 bd 04 2a 99 3d
       0.027170084 -0.06307081 -0.08996889 0.07478717

linears.2.weight f4 [27, 36]
000000 a1 23 7f 3a be 4c 06 be 02 d2 0a be 45 a6 d1 3d
       0.0009732787 -0.13115212 -0.13556674 0.102367915
000010 e1 ce c1 bd 4f 4c 2a 3d 1d e6 28 be cf 40 4a 3e
       -0.09463287 0.04157668 -0.16494031 0.19751285
000020 01 ad 17 3e ee 90 0c 3d 78 ce 67 3c 9e a0 52 94
       0.1481209 0.034317903 0.014148347 -1.0633967e-26
000030 8f 5b fa 3d 2d 3c 02 37 7b 64 cb 3d 8f 96 3f bc
       0.12224495 7.762615e-06 0.099312745 -0.011693611
000040 db 6f b0 bd 5d 1b e1 3c 58 63 99 bc b1 2f b9 bd
       -0.08615085 0.027478868 -0.018724129 -0.090422995
000050 28 13 02 be c3 c8 c7 3d 28 9e 28 3e e5 28 80 86
       -0.1270262 0.09755089 0.16466582 -4.820834e-35
000060 bc ef 14 be ad 8c ff bd 5a 97 84 a8 9f 81 35 3d
       -0.14544576 -0.12478004 -1.4720582e-14 0.04431307
000070 af e4 10 be 2a c3 f1 3b 05 5c 22 aa 4f 8f 21 3d
       -0.14149736 0.0073780017 -1.4420416e-13 0.03944331
000080 68 4a 0a bc 5f 10 6c 3e 80 1e a8 3d a9 04 4a 3e
       -0.008440591 0.2305312 0.082089424 0.1972834
000090 80 4c 27 bc dc 25 8c ba 11 04 2b bc 68 ae 4f bc
       -0.01021111 -0.0010692435 -0.010437981 -0.012675859
0000a0 fc 05 3b bc 78 85 48 1a 58 d3 4b bc 18 a7 bc bb
       -0.011415001 4.1466846e-23 -0.012440525 -0.005757224
0000b0 04 84 04 bc 8d 79 05 1c a1 09 e4 bb ca a8 18 05
       -0.008088116 4.416311e-22 -0.0069591557 7.178007e-36
0000c0 40 b4 fc bb b0 84 83 05 34 93 ee bb ed 69 24 bc
       -0.007711917 1.2367922e-35 -0.0072807316 -0.01003502
0000d0 00 aa 77 bc 6e ee 63 bc 36 c4 51 bc 8d a3 48 bc
       -0.015116215 -0.013911827 -0.012803128 -0.012246025
0000e0 78 91 41 bc a8 25 23 bc 3c 74 b1 bb 88 1e 1e 80
       -0.011814468 -0.009957708 -0.0054154675 -2.766017e-39
0000f0 31 b7 3f bc 0a 05 46 bc b8 5c 98 87 03 92 38 bc
       -0.011701391 -0.012086162 -2.2924913e-34 -0.011265281
000100 5a 8b 4d bc 08 d5 6c 82 b2 62 74 18 c4 d8 22 b5
       -0.012545431 -1.7399679e-37 3.158609e-24 -6.066514e-07
000110 b1 77 10 bc 42 4b 47 bb a4 a8 92 bb cb fe f0 bb
       -0.008817599 -0.0030409847 -0.00447567 -0.0073545924
000120 42 d7 00 bc d6 47 d1 3d b7 50 95 3d 1c cd 15 3e
       -0.007863821 0.1021878 0.07290786 0.14629024
000130 37 a1 0d 3e aa 68 ba bc c2 06 a4 3d 3d 7d 17 be
       0.1383103 -0.022754986 0.080091015 -0.14793868
000140 8a 8f 73 3d 0c e5 1c 3d bf 4a b0 bd 17 ee a4 91
       0.05946306 0.038304374 -0.08608007 -2.6021372e-28
000150 ff 2a 5d be 7f 73 05 ba f7 2b ce bd 17 1c 13 be
       -0.21598433 -0.00050907576 -0.100669794 -0.14366184
000160 da 5b 48 3e 7b 08 46 3e aa cc 12 3e 94 2f 84 3d
       0.19566289 0.19339173 0.14335886 0.06454387
000170 6e d1 a3 3d 23 42 f7 3a ff 2b 9c 3c ab 4c 97 85
       0.0799893 0.0018864315 0.019063948 -1.4228135e-35
000180 e5 f8 9a 3d a4 08 3f bd 69 9b cd 15 d9 5d 68 bd
       0.07567004 -0.0466391 8.3044035e-26 -0.056730125
000190 ff f6 4e 3e 5d 09 75 bc 31 fb 16 a6 64 7e 61 bc
       0.20211409 -0.014955846 -5.238213e-16 -0.013763044
0001a0 4c 17 f6 bd 7a 4c a7 bd de 4f f2 3d 8b c2 4b bd
       -0.12016162 -0.081688836 0.1183164 -0.049746078
0001b0 17 cc d0 b6 76 d6 a5 92 af dc 3d ae 42 b1 b7 38
       -6.2226422e-06 -1.0465833e-27 -4.316963e-11 8.759137e-05
0001c0 e1 fa c3 b9 63 2a 0a 82 7a ca 85 35 65 c4 dd 34
       -0.00037380218 -1.0150803e-37 9.968201e-07 4.1307354e-07
0001d0 b0 40 7d 36 e0 48 77 15 67 3e 8b b4 ed 43 d3 12
       3.773759e-06 4.993874e-26 -2.593617e-07 1.3332717e-27
0001e0 b4 43 43 b2 16 ca 7b 81 35 f7 f6 b0 af 7f 28 b5
       -1.1365888e-08 -4.624641e-38 -1.7969116e-09 -6.277068e-07
0001f0 ee ad d1 b8 84 a1 99 b4 84 cf ca b5 ef 3b 22 b6
       -9.9982935e-05 -2.861599e-07 -1.5110568e-06 -2.4174767e-06
000200 31 e4 80 b9 e8 d9 29 b7 f8 d0 40 b1 f3 01 3c 8d
       -0.00024584078 -1.012392e-05 -2.8058462e-09 -5.793432e-31
000210 1e 42 a4 b3 d1 03 7b 35 c5 7f 15 03 07 10 6d ad
       -7.648872e-08 9.351034e-07 4.3933837e-37 -1.3475449e-11
000220 ce d1 5a b2 a9 ae 4f 85 4a c2 28 80 bc 31 90 89
       -1.2736974e-08 -9.765173e-36 -3.743118e-39 -3.471351e-33
000230 2c e6 e2 b3 ea 5f db 04 74 19 93 2d d5 c6 36 b4
       -1.0565813e-07 5.1574736e-36 1.6723269e-11 -1.7022406e-07
000240 f6 97 68 3e 42 d2 8d 3d 60 3f a9 3d 68 5d cb 3d
       0.22714218 0.06924869 0.08264041 0.09929925
000250 1c 1d 0c 3e 44 dd ed 3a cb c7 6f 3e b3 77 80 3d
       0.1368298 0.0018147607 0.23416059 0.06272831
000260 69 a9 13 bd 6b d8 11 bd 58 21 1b 3e 44 40 94 14
       -0.036050234 -0.035606783 0.15149438 1.496953e-26
000270 e0 a3 d2 3c c0 dc af 9d 9b 78 8b 3d ff 3d 69 3d
       0.025712907 -4.6550364e-21 0.06810113 0.05694389
000280 2f cd d1 bc 79 b0 6b 3d 00 d4 40 3e 4e bf 52 3d
       -0.025610534 0.057541344 0.18830872 0.051451974
000290 c5 36 02 3e e0 3d 41 3d c5 61 84 3d 9f f6 18 96
       0.12716205 0.04717815 0.064639606 -1.2356282e-25
0002a0 f7 6f f0 3d 87 08 0e 3e d3 3e 00 15 92 7a 8d 3d
       0.117401056 0.1387044 2.5898954e-26 0.06908144
0002b0 4a ab 0a 3e ac 87 7a b9 db 26 cd 24 17 f7 69 3e
       0.13541904 -0.000238924 8.89704e-17 0.22848164
0002c0 f6 96 9a bd be ff 67 3e 59 68 d7 3c 3f ad 57 bd
       -0.07548325 0.22656152 0.026294874 -0.052655455
0002d0 bb 4c 2e 3e 83 84 b8 3d 3c d6 3f bd da c8 81 bd
       0.17021458 0.090096496 -0.04683517 -0.063371375
0002e0 3b 2e 1d bd 52 e5 86 3d 27 0a 07 3e 1e bc 2b be
       -0.038374167 0.06586708 0.13187467 -0.1677098
0002f0 98 22 25 3b 9d 6f 98 3d 07 b8 80 3d d5 01 d2 9d
       0.0025197621 0.074431635 0.062851004 -5.558843e-21
000300 fb 25 4a be 8f 6c 5a ba 03 27 09 3d c4 a9 9d bd
       -0.19741051 -0.00083322165 0.03348447 -0.07698396
000310 b8 13 7d 3e 99 2c 4f 3e 6b e9 6f 3e 36 4b 4d 3d
       0.24714553 0.20231856 0.23428886 0.050120555
000320 e6 6c 45 3e e7 b5 c2 bd 63 be 42 3d 1e e4 01 8f
       0.19279823 -0.09507351 0.04754485 -6.404125e-30
000330 5e 06 18 bd 65 88 3a 3e 30 01 a3 af 03 40 59 3e
       -0.037115447 0.18216093 -2.965037e-10 0.21215825
000340 12 fb 87 bd ad 16 13 bc 4c 5a f6 28 6e fd 95 3d
       -0.06639685 -0.008977574 2.7350646e-14 0.073237285
000350 b0 f0 4a be 12 b4 14 bd 62 8a c7 bd 02 1d a7 3d
       -0.19818377 -0.03630454 -0.09743191 0.0815983
000360 fd 62 c6 3d 63 4d 55 3c 14 1e 2f 3e 79 19 04 bd
       0.09686849 0.013018939 0.17101318 -0.032250855
000370 60 aa 9f bd 05 32 7a bc 0e 28 7e bd de e6 31 be
       -0.07796168 -0.015270715 -0.062049918 -0.17373225
000380 7a a8 ff 3c 2a 60 2c 3d ae 5b 04 3e c5 3a bd 90
       0.031208266 0.042083897 0.12925598 -7.4637904e-29
000390 79 38 ce bd c4 f1 f6 b7 a3 95 88 bd c8 f9 93 bc
       -0.10069365 -2.9438066e-05 -0.06669166 -0.01806344
0003a0 b4 a0 c0 bb b2 4d 6e 3d 9a 5c 54 3e c8 72 ba 3d
       -0.0058785323 0.058179565 0.2073845 0.09103924
0003b0 31 fc 1c bd 47 f2 b1 3c 4d 8f b8 3d ec c3 5a 03
       -0.038326446 0.021721972 0.090117075 6.428935e-37
0003c0 eb 96 ca 3d ba 13 35 3e 66 dc 2b 1d be c8 63 bc
       0.098920666 0.17683306 2.2745605e-21 -0.013902841
0003d0 dc 67 cc 3d 7a 0c 06 bc a4 4f a1 25 25 81 a3 3d
       0.09980747 -0.008181686 2.7983015e-16 0.07983617
0003e0 6c 31 0e bd 18 36 15 bd 9a e9 d8 3d 56 27 aa bd
       -0.0347151 -0.03642854 0.10591431 -0.08308284
0003f0 bc e2 e5 36 ef b3 63 8c 13 e8 9a 81 56 f0 09 3a
       6.851127e-06 -1.7541591e-31 -5.6903676e-38 0.0005261948

linears.2.bias f4 [27]
000000 68 9b 24 3e 7e cd 6f bc b8 05 5e 3d 01 26 1b b8
       0.16074908 -0.0146363955 0.054204673 -3.6990274e-05
000010 c7 c6 e1 3d e8 2c c7 3d 52 7a e0 3d c3 cd 3a bd
       0.11024242 0.09725362 0.10960831 -0.045606386
000020 ea 8a 5c bd 4a 48 dc bb 4e 10 69 3d 3e 9b 54 3e
       -0.053843416 -0.0067224847 0.056900315 0.20762345
000030 df 4d 38 3e 66 58 14 bd 51 b0 4d bc 70 a4 e0 bc
       0.17998455 -0.036217116 -0.012554244 -0.02742216
000040 87 42 c1 3d 2f 3e 31 bc 19 be 75 bd 34 fd 1f 3e
       0.09436517 -0.010818048 -0.059995744 0.15623933
000050 e0 68 8a 3d c6 91 f4 3d 2d a4 8e 3d f0 45 1f 3e
       0.067582846 0.119418666 0.06964908 0.15554023
000060 fa 22 38 bd 64 47 5c 3e 66 66 41 bd
       -0.04495523 0.21511608 -0.047216795

linears.3.weight f4 [21, 27]
000000 9f 2b 0b bd 97 00 25 bc a4 c3 51 be 1f c8 bb 82
       -0.033977147 -0.010070941 -0.20484787 -2.7592044e-37
000010 7b 77 5b 3c dc 5a 51 be cb e0 cd bd 17 5e 20 2d
       0.013395186 -0.20444816 -0.100526415 9.115839e-12
000020 53 1b 75 3d 6c ec 1c bb b4 87 f0 3d 18 5c bb 3c
       0.05984051 -0.002394463 0.11744633 0.022871062
000030 c4 7c 21 3d c2 55 b8 3d cc 9a 88 bb 54 23 f6 ba
       0.039425626 0.09000732 -0.004168844 -0.0018778839
000040 5a 88 6e 3e 58 ec da 3d f3 0b 8c 3e 10 07 81 be
       0.23294201 0.1068961 0.27352867 -0.252007
000050 d0 87 58 3e d1 15 88 bd db 58 5c be d8 13 0c 3e
       0.21145558 -0.06644786 -0.2151827 0.13679445
000060 8b 1f 49 b3 59 dc 78 3d 4f d9 89 bb 8c c7 c9 3d
       -4.6827648e-08 0.060757015 -0.0042068134 0.09852514
000070 d2 d4 a2 39 80 43 6b bd f5 6f 5d 82 31 48 a0 3d
       0.0003105761 -0.05743742 -1.6268646e-37 0.078262694
000080 39 69 5b bd 7c 79 f9 bd 2e cc fb 2a 01 9a f1 3d
       -0.053567145 -0.121813744 4.4728235e-13 0.11796952
000090 85 66 c3 b2 ce 25 b1 3d b9 d1 03 3d 02 0d 2d 3e
       -2.2747608e-08 0.08649789 0.03218243 0.16899493
0000a0 13 f7 30 3d 6c e0 13 b9 fd c6 bf ba 46 eb 0e 3e
       0.04320438 -0.00014102616 -0.0014631447 0.13956937
0000b0 c3 2c e0 3c 20 01 04 3d db f8 3d be 0e 67 11 3d
       0.027365094 0.032227635 -0.18551962 0.03549867
0000c0 b9 7e 0f be 02 23 d0 bc 91 cd fb bc 20 1c 8a 01
       -0.14013185 -0.025407318 -0.03073767 5.073355e-38
0000d0 97 4f d8 bd cd 0a 00 be 27 4f df bd ec 46 4a 3c
       -0.105620556 -0.1250412 -0.10903769 0.012346011
0000e0 06 a1 87 3e e0 a1 20 02 a6 6d ec bb d4 ed 01 bd
       0.2649004 1.1801399e-37 -0.0072152195 -0.03172095
0000f0 b3 3e 92 3c 60 d6 fe 91 93 53 1d 3c ed 58 07 3c
       0.017852163 -4.0206253e-28 0.009602445 0.008260948
000100 ff c3 36 3d c7 62 fc 3d a1 7d 8e 3d db 38 12 3a
       0.04462051 0.12323528 0.069575556 0.000557793
000110 06 aa 35 3c 46 62 a6 3b 25 f0 9c 3c c8 a3 20 be
       0.0110879 0.005077633 0.019157479 -0.15687478
000120 ca 59 19 be 9a 12 11 3e db 69 86 3c 02 55 04 3e
       -0.14975658 0.14167252 0.016407898 0.12923053
000130 9c ef 90 3e f0 e1 e9 bd 25 fb 84 b8 fb 1b 4c 3e
       0.28307807 -0.11420047 -6.34103e-05 0.19932549
000140 33 09 f2 3d 51 f0 66 3c 47 ca 46 bc a5 99 f1 bd
       0.11818161 0.014095382 -0.012133188 -0.117968835
000150 59 73 4e 83 df 2c c6 3d ee e3 97 bd ae 76 49 3c
       -6.067037e-37 0.09676527 -0.07416521 0.012296362
000160 7d 72 a1 2f 0a e7 30 3e a3 dc c7 bb e9 52 4e bd
       2.9367078e-10 0.17275634 -0.0060993 -0.050372038
000170 ac 54 1e 3e 8e 57 ba 3d fb 97 d4 3d c7 29 2b bc
       0.15461987 0.09098731 0.103805505 -0.010446972
000180 07 4b 8f bb a3 3d 88 3e f7 5d cc 3c 61 ea 71 3e
       -0.0043729576 0.26609525 0.02494715 0.23624565
000190 96 43 2c be d3 86 82 bd ce 1b 33 3d fb ae 34 bd
       -0.16822657 -0.06373372 0.04372769 -0.044112187
0001a0 4f 9c 40 3e d4 cc 62 3a da 99 79 3e 65 02 cd bd
       0.18809627 0.00086517376 0.24375096 -0.10010222
0001b0 f1 b3 b0 bb 21 16 f6 8b a4 92 58 39 e5 22 ed 1b
       -0.0053925444 -9.478905e-32 0.00020653993 3.923091e-22
0001c0 74 17 d2 ba af d4 71 39 68 38 64 ba 78 b5 61 81
       -0.0016028718 0.00023062782 -0.0008705915 -4.145617e-38
0001d0 23 b6 99 bb 40 c4 84 a8 1f 4d ce bb 4a 77 27 b9
       -0.004690902 -1.4740054e-14 -0.0062958146 -0.000159708
0001e0 38 af ff bb e1 11 11 bc bf 43 7a a9 78 73 c6 00
       -0.00780287 -0.00885436 -5.556991e-14 1.822485e-38
0001f0 99 af 00 bc 7b c5 e4 bb 01 31 14 bc c9 71 04 3a
       -0.007854366 -0.0069815493 -0.009044887 0.00050523557
000200 84 0f 0e bc 86 0c d2 39 bc 14 b5 39 9e fd e9 bb
       -0.008670691 0.00040063652 0.0003453846 -0.007140829
000210 56 68 64 31 f3 95 b7 bb de 82 78 3b 8f e8 5a 3e
       3.3237675e-09 -0.005602592 0.00379198 0.21377777
000220 eb 83 29 bc 92 fc aa bc 25 ef bb 02 b0 a7 2d 3c
       -0.010346393 -0.020872388 2.7614443e-37 0.010599062
000230 75 56 36 3d 7e 2b f6 3b 6f c9 1a ab 9e c3 a4 3d
       0.044516046 0.007512509 -5.4991336e-13 0.080451235
000240 42 8c c8 bb 44 a4 8f 3e c4 36 3e bd 9f 88 06 3d
       -0.0061202357 0.28055012 -0.046438947 0.032845136
000250 aa 87 8e 3d ae aa 10 bc 1b f0 a4 bb b0 6e 01 3d
       0.069594696 -0.008829756 -0.0050335056 0.0315997
000260 7e 06 1b 3e 6f 0b 50 bd 42 e6 c7 3d 3e ce 88 3e
       0.15139195 -0.050792154 0.09760715 0.2671985
000270 5b 07 06 be 72 f6 5b bd 1e 6b 11 3e 60 a2 81 39
       -0.13088743 -0.053701825 0.14201018 0.00024725776
000280 78 fe e8 bd ef d0 14 3d 58 f9 03 3d 0e 92 41 bc
       -0.11376661 0.036332067 0.032220215 -0.011814607
000290 5b 92 1e bc 4b 88 39 83 d3 6c 9f 3d 2d 9f f2 bc
       -0.009678449 -5.452307e-37 0.077844284 -0.029616917
0002a0 38 bd d8 3d de 1f b1 2d ec 4f 41 3e 0f 1d ef bb
       0.105829656 2.0136722e-11 0.18878144 -0.007297165
0002b0 fe dc 71 3e 38 10 93 bc ec 84 6c 3e e1 d7 31 3e
       0.23619458 -0.01795207 0.2309758 0.17367508
0002c0 28 93 22 bc 8e 7f 91 bb 32 46 15 3e b7 d5 5c 3e
       -0.00992278 -0.0044402545 0.14577559 0.215659
0002d0 6d 44 f9 3d 70 6e 10 bd 4e 40 aa 3d ae 4c 30 3d
       0.12171254 -0.03526157 0.083130464 0.043041877
0002e0 d6 e9 42 be a5 88 09 3e b7 09 fe 39 1c 6b 6c 3e
       -0.19034514 0.13431032 0.00048453893 0.23087734
0002f0 dc 36 49 3d 54 ef 61 3e 61 15 51 bc da 2f 34 be
       0.049124584 0.22063953 -0.012761445 -0.17596379
000300 de 0f 90 83 d6 81 d6 bd db cb c0 bd 3f 48 36 be
       -8.467202e-37 -0.10473983 -0.09413882 -0.17800997
000310 f2 78 20 30 d2 0b 27 3e 81 29 07 bc 18 4e 86 3e
       5.8379535e-10 0.16313103 -0.008249641 0.26231456
000320 81 21 80 bd cd e2 24 3e 85 03 f5 3d 5f d0 81 bc
       -0.0625639 0.16102143 0.11963562 -0.01584643
000330 8a 9f 58 3c f9 f8 83 bd 16 84 a4 ba 6f 83 ae bd
       0.013221631 -0.06443972 -0.0012551572 -0.08521163
000340 b8 93 5a be 2f a9 52 3e 2b 43 41 bd de 64 1f be
       -0.21345413 0.20572351 -0.047183197 -0.15565822
000350 45 80 17 3e 75 99 d1 b3 13 f1 3d 3e b3 db ab 3c
       0.14795025 -9.7602346e-08 0.18548994 0.020978784
000360 94 b7 e0 2e 33 50 fa 0a 97 4e d2 b8 f7 c5 a3 0b
       1.0218951e-10 2.4104292e-32 -0.00010028219 6.308318e-32
000370 9c 00 20 ba 02 f0 33 b9 9d 03 8a b0 a8 fa 69 26
       -0.00061036064 -0.0001716018 -1.0041848e-09 8.1177817e-16
000380 11 72 27 b5 90 b4 80 00 75 81 94 b8 72 78 28 ba
       -6.2378336e-07 1.1819717e-38 -7.081303e-05 -0.0006426639
000390 f4 99 20 b2 6e 8a ba 2e 6a 6a 4f 02 f4 a3 58 0b
       -9.348231e-09 8.482891e-11 1.5238498e-37 4.172343e-32
0003a0 d8 87 9a 31 90 9c 7e b5 0b 45 77 b5 ba eb 8a b9
       4.4974335e-09 -9.48502e-07 -9.211514e-07 -0.0002649704
0003b0 c2 3f c7 b0 68 5a 12 ba 7e 2d 8b ba 25 7c 8f b3
       -1.4497277e-09 -0.00055829296 -0.0010618416 -6.681538e-08
0003c0 8c f9 d7 00 87 c5 60 b7 4a 7d b3 af 5c 8d 88 bd
       1.9834152e-38 -1.3397431e-05 -3.2648934e-10 -0.06667587
0003d0 9b e1 30 3c 1c c8 26 3e f4 3a db 81 90 1c 4d 3e
       0.010795976 0.16287273 -8.053249e-38 0.20030427
0003e0 fd 98 67 3e cf e1 7e 3c 0d c4 96 07 6e 67 89 bc
       0.22616954 0.015556767 2.268472e-34 -0.016772952
0003f0 29 58 aa 3b e2 10 62 bd f5 69 8e 3e dd 9c 1d be
       0.005198498 -0.055191882 0.27815214 -0.1539187

linears.3.bias f4 [21]
000000 0c 49 46 3e 54 e6 03 be 7b 61 4c 3d f6 66 f9 3c
       0.19363803 -0.12880832 0.049897652 0.030444603
000010 80 91 4e bb 28 97 02 3e d9 d2 52 3d dd 47 cb 3d
       -0.003151983 0.12752974 0.05147061 0.09925816
000020 66 4b 80 b9 e0 88 bf 3d 02 66 5b 3c 7b 48 56 bd
       -0.0002447024 0.09352279 0.01339102 -0.052315217
000030 52 23 cc 3d b9 54 fd bd 51 14 c6 3d ec df 22 bd
       0.09967674 -0.12369675 0.09671844 -0.03976433
000040 c6 5d 3e 3e 68 a1 47 3e a6 01 0b 3e 8e cc d1 3d
       0.18590459 0.19495165 0.13574848 0.10244094
000050 c6 27 60 3e
       0.21890172

output.weight f4 [1, 21]
000000 a0 74 76 3e 3a 7a 0f 3e 1a 87 97 be a8 e6 94 3e
       0.24067926 0.1401147 -0.29595262 0.29082227
000010 48 50 51 bb 93 11 5a 3e 13 6d 90 3e 67 a2 92 3e
       -0.003193872 0.21295767 0.28208217 0.28639528
000020 ad c4 1e 3b 94 09 3e be 46 ba 84 3e 14 ff 92 be
       0.0024226115 -0.18558341 0.25923365 -0.28710234
000030 47 ac 45 3e 45 b2 dc 3b a6 07 18 3e 9a 78 99 3d
       0.19304 0.0067351186 0.14846668 0.07493706
000040 56 e0 2d be 89 e8 3b be eb 2d ab bd 46 07 23 be
       -0.16980109 -0.18350424 -0.083583675 -0.15920743
000050 9a e5 97 be
       -0.2966736
