models/german_classifier_09122021-164545.pth (torch, 5703 bytes, 9 tensors)

linears.0.weight f4 [14, 29]
0.27271512 0.49417317 0.2991525 0.12415417 0.029792858 -0.43584597 0.0060992436 0.30990186
-0.113004744 -0.05965566 0.100663 -0.137696 -0.07255483 0.017511057 0.20932283 -0.3445649
0.2975274 -0.29528216 0.13529769 -0.16579594 0.26365831 0.030157007 0.10510263 0.23943253
0.23233762 -0.36724508 0.15928957 -0.10907506 0.18015443 -0.05367776 0.2290057 0.23035938
0.59439707 0.0365437 0.22494645 0.4456903 0.1471725 -0.23649885 -0.10703869 0.051047552
0.1908357 0.29364792 0.44610876 -0.48391366 0.27278286 0.2699742 0.099449225 0.09285394
-0.34412438 -0.08263027 0.11547369 0.3535702 0.2584148 0.4105213 -0.03888035 0.06860129
-0.23861012 -0.15677406 0.37436813 0.50090545 -0.09783815 -0.026126616 0.23812878 0.34932318
0.2624533 0.4871182 -0.46786037 -0.075085394 -0.15782923 0.12105387 -0.0050541447 0.066468425
-0.8199777 0.21285784 -0.084492855 -0.022308277 0.38374576 -0.709624 0.0017765671 0.1432586
-0.18563576 0.039316833 0.19509637 0.12466055 -0.15683047 0.13655883 0.030580333 -0.41831976
-0.048794813 0.6882611 0.26075742 -0.13379043 -0.36529812 -0.05393769 0.05035734 0.16499537
-0.34717402 0.13862845 -0.055804715 0.18111263 -0.096396655 -0.15772864 -0.5867883 0.018131096
0.25914308 -0.21715145 -0.40649468 0.33102447 0.2980028 0.13482027 0.0649853 -0.1426525
0.07081943 -0.17375162 -0.19281685 -0.43844292 -0.20912586 -0.85674787 0.2846413 0.24137196
-0.13038997 -0.0626832 -0.20516591 -0.3332604 0.05154892 0.284461 -0.081100665 0.21277966
0.068030685 0.23811074 0.14123663 -0.17528112 -0.8174753 -0.43144706 0.4484033 -0.07416973
-0.020801248 0.046375543 0.29244357 -0.027113093 0.0062337806 -0.112277575 -0.6375445 -0.678877
-0.4353764 0.29807678 -0.037366346 0.30224964 -0.075058594 0.2837147 -0.12564209 0.04722972
-0.011095673 -0.02127979 -0.057773393 -0.020698596 0.1054055 -0.010327684 -0.17474167 -0.038936067
0.115602106 -0.18251634 -0.0041551953 0.018895997 0.4875461 0.09596969 0.017744048 0.03372001
-0.044175673 0.03729186 -0.14830521 0.346242 0.10514093 -0.17740916 -0.067684025 0.038952198
-0.21452115 0.5196494 -0.17034014 0.06941052 0.24589166 0.31799275 0.012621709 -0.031737167
0.19817182 0.09039459 -0.040034264 0.13069889 -0.183681 0.004432109 -0.045730803 0.0031706362
-0.16632365 -0.18212461 0.20347412 0.07551745 0.07487068 -0.03337677 0.26678738 0.08415533
0.0731902 -0.11692424 0.19536431 0.0054025096 -0.013710643 -0.4090698 0.2836575 0.009974031
0.13670044 0.09302401 0.2814171 0.077482685 0.10136203 -0.09826901 0.22675863 0.16919088
0.29075474 -0.20736514 0.16361947 -0.11366139 0.15016817 0.034558672 -0.25628352 0.19242989
-0.03897365 0.2108591 0.17745197 0.11186111 0.27655953 -0.12877889 0.062228747 0.25961342
-0.017360045 0.10864368 0.68381095 0.19985941 0.114528924 0.061078023 0.42219308 0.5201667
-0.015692078 0.7804899 -0.10789017 0.5742426 0.020695219 1.020356 -0.19023733 1.2746263
-0.08981585 -0.27394256 0.078468286 -0.67587966 0.21021305 -0.03312905 0.30806586 0.9157502
00000000: 51a1 8b3e 4404 fd3e 842a 993e 8b44 fe3d
00000010: 2710 f43c 3427 dfbe 2adc c73b 75ab 9e3e
00000020: 086f e7bd 7e59 74bd 6728 ce3d 2e00 0dbe
00000030: a097 94bd 5973 8f3c b958 563e d06a b0be
00000040: 8355 983e 392f 97be 7a8b 0a3e 69c6 29be
00000050: 39fe 863e d40b f73c 0c40 d73d cd2d 753e
00000060: eae9 6d3e 8c07 bcbe ce1c 233e bf62 dfbd
00000070: 677a 383e 36dd 5bbd 7880 6a3e 54e3 6b3e
00000080: 682a 183f d9ae 153d 5d58 663e 8531 e43e
00000090: 63b4 163e c12c 72be 1a37 dbbd 3d17 513d
000000a0: 6f6a 433e 0559 963e 5e68 e43e 88c3 f7be
000000b0: 32aa 8b3e 0f3a 8a3e 09ac cb3d 352a be3d
000000c0: 1231 b0be 0f3a a9bd 787d ec3d 2707 b53e
000000d0: f24e 843e d92f d23e 0041 1fbd d57e 8c3d
000000e0: 3656 74be 6189 20be 2ead bf3e 573b 003f
000000f0: 5e5f c8bd 7c07 d6bc 08d8 733e 7dda b23e
00000100: 4760 863e 8f67 f93e 658b efbe 5fc6 99bd
00000110: fc9d 21be 17eb f73d 3d9d a5bb 9920 883d
00000120: 0fea 51bf 68f7 593e 970a adbd d9bf b6bc
00000130: 537a c43e eba9 35bf b3db e83a 62b2 123e
00000140: 4d17 3ebe b00a 213d 58c7 473e 084e ff3d
00000150: 2b98 20be 14d6 0b3e 9b83 fa3c 022e d6be
00000160: 12dd 47bd e131 303f ff81 853e 5c00 09be
00000170: 5b08 bbbe c4ed 5cbd 8043 4e3d 8cf4 283e
00000180: cbc0 b1be 9ef4 0d3e 7c93 64bd 9775 393e
00000190: 9c6b c5bd 9e83 21be c237 16bf aa87 943c
000001a0: 67ae 843e f35c 5ebe 1220 d0be 0a7c a93e
000001b0: d393 983e 530e 0a3e 0317 853d 7f13 12be
000001c0: c709 913d f2eb 31be c871 45be 977b e0be
000001d0: 1725 56be d453 5bbf 81bc 913e 362a 773e
000001e0: f384 05be 0d60 80bd 0317 52be 1ba1 aabe
000001f0: f624 533d dfa4 913e 1b18 a6bd e9e2 593e
00000200: ac53 8b3d 4dd3 733e 56a0 103e e57c 33be
00000210: 1046 51bf a1e6 dcbe 1e95 e53e 4de6 97bd
00000220: 6167 aabc 48f4 3d3d 2abb 953e 471c debc
00000230: be44 cc3b c9f1 e5bd 1e36 23bf e2ca 2dbf
00000240: a8e9 debe 859d 983e 740d 19bd 77c0 9a3e
00000250: 52b8 99bd 0e43 913e 52a8 00be f373 413d
00000260: a0ca 35bc f452 aebc cba3 6cbd 1a90 a9bc
00000270: d7de d73d 7235 29bc 7bef 32be 6d7b 1fbd
00000280: ccc0 ec3d 90e5 3abe 4e28 88bb c7cb 9a3c
00000290: a49f f93e c28b c43d f75b 913c fe1d 0a3d
000002a0: 8df1 34bd 59bf 183d 52dd 17be a246 b13e
000002b0: 2154 d73d bfaa 35be ec9d 8abd 578c 1f3d
000002c0: 6fab 5bbe be07 053f a56d 2ebe 1a27 8e3d
000002d0: 06cb 7b3e f2cf a23e 49cb 4e3c d5fe 01bd
000002e0: 8eed 4a3e cc20 b93d f8fa 23bd eed5 053e
000002f0: df16 3cbe 3a3b 913b 3950 3bbd 73ca 4f3b
00000300: bf50 2abe e07e 3abe 855b 503e e5a8 9a3d
00000310: cd55 993d 14b6 08bd 5b98 883e a159 ac3d
00000320: bee4 953d fa75 efbd 950d 483e 8907 b13b
00000330: 9ba2 60bc 9971 d1be 8e3b 913e 1e6a 233c
00000340: 33fb 0b3e 5f83 be3d e715 903e 3eaf 9e3d
00000350: e596 cf3d 4341 c9bd 6a33 683e 6040 2d3e
00000360: cedd 943e 8757 54be dd8b 273e 4ec7 e8bd
00000370: afc5 193e 658d 0d3d 9837 83be 570c 453e
00000380: d6a2 1fbd 73eb 573e f8b5 353e 7017 e53d
00000390: 3699 8d3e 9dde 03be 92e3 7e3d 0dec 843e
000003a0: a736 8ebc 9480 de3d 3c0e 2f3f f2a7 4c3e
000003b0: 248e ea3d f32c 7a3d b129 d83e a529 053f
000003c0: ac8c 80bc 30ce 473f 85f5 dcbd 9001 133f
000003d0: 0589 a93c 079b 823f 93cd 42be f426 a33f
000003e0: 5ff1 b7bd 3342 8cbe fbb3 a03d 7306 2dbf
000003f0: 1742 573e 54b2 07bd cfba 9d3e 9b6e 6a3f

linears.0.bias f4 [14]
-0.04881823 0.40770864 -0.0062002908 0.16672452 -0.06649946 0.05766156 0.3060396 0.29291403
0.053081434 0.28612804 0.13837099 0.05303614 0.21409239 0.109579735
00000000: a0f5 47bd 30bf d03e cf2b cbbb d5b9 2a3e
00000010: de30 88bd 872e 6c3d 39b1 9c3e d4f8 953e
00000020: eb6b 593d 607f 923e 20b1 0d3e 6c3c 593d
00000030: 093b 5b3e 576b e03d

linears.1.weight f4 [9, 14]
0.28087622 0.3496135 -0.599089 -0.23695442 -1.0329429 -0.116351165 0.4635539 0.430978
0.0526459 0.4161405 0.13802516 -0.599683 0.048649505 -0.7251244 0.1488501 0.08038999
-0.5942827 -0.56174344 -0.73025876 0.042875234 0.21727377 0.3735346 0.43804958 0.21357232
0.22209698 -0.9213332 0.44555625 -0.16077568 -0.52550846 0.14872417 0.6162283 0.47157344
0.7479702 0.353882 -0.096517466 -0.57394993 0.31170452 0.15081236 -0.60384715 0.31884387
0.16622029 0.7666561 -0.38235775 -0.24731089 0.4141706 0.1600925 0.97878444 0.32541013
-0.24064678 0.08729713 0.034700368 -0.049791962 0.15097447 0.27344567 0.24361987 0.6269794
0.22306843 0.44224265 -0.6512107 -0.7510293 -0.73910356 -0.26574373 0.1575387 0.27296653
0.365979 0.28890884 0.45560217 -0.5360777 0.41569752 -0.39841208 0.28399697 0.45621547
-0.51977044 -0.5510867 -0.9472363 -0.46979448 0.2911668 0.40000886 0.38016868 0.45026708
0.029152771 -0.63573384 0.2709073 -0.65103245 0.101978116 0.26925912 -0.35548273 -0.71527874
-0.70721173 -0.14888188 0.16579454 0.25876534 0.15348926 0.15615112 0.3893636 -0.6861895
0.4709953 -0.65810114 -0.49842718 0.13044643 0.55401355 0.6494462 1.0810206 0.35621992
0.028509533 0.031076964 0.060187362 -0.0069860523 -0.5459305 0.7747169 0.08422011 0.63387394
-4.516608e-06 -0.003034815 7.663741e-06 -3.7373034e-06 1.8673822e-14 -5.4571414e-05 -0.00015431963 -0.00023722052
0.0009475961 -0.0005465617 2.1623167e-05 3.2437724e-06 0.00013291408 -2.3113073e-06
00000000: 02cf 8f3e 8a00 b33e e65d 19bf 2ea4 72be
00000010: 7937 84bf 8549 eebd f056 ed3e 26a9 dc3e
00000020: 3aa3 573d 5e10 d53e 7856 0d3e d384 19bf
00000030: b444 473d c1a1 39bf 296c 183e 82a3 a43d
00000040: e922 18bf 6bce 0fbf 3df2 3abf f19d 2f3d
00000050: 047d 5e3e ed3f bf3e 0948 e03e b4b2 5a3e
00000060: 646d 633e 7edc 6bbf f31f e43e 61a2 24be
00000070: b987 06bf 264b 183e 23c1 1d3f 1372 f13e
00000080: fa7a 3f3f 0630 b53e f3aa c5bd 62ee 12bf
00000090: bc97 9f3e 8e6e 1a3e ba95 1abf 813f a33e
000000a0: a735 2a3e 9343 443f 65c4 c3be 113f 7dbe
000000b0: 2b0e d43e 4aef 233e 9e91 7a3f 289c a63e
000000c0: 1c6c 76be d6c8 b23d f921 0e3d a8f2 4bbd
000000d0: 0d99 1a3e 1201 8c3e 7d77 793e b981 203f
000000e0: 0d6c 643e a16d e23e bfb5 26bf 7543 40bf
000000f0: e435 3dbf 900f 88be d351 213e 45c2 8b3e
00000100: 9961 bb3e dceb 933e b044 e93e 633c 09bf
00000110: 4ed6 d43e abfc cbbe 0d68 913e 1395 e93e
00000120: ad0f 05bf 0514 0dbf 147e 72bf e788 f0be
00000130: d113 953e f6cd cc3e 78a5 c23e 6889 e63e
00000140: cbd1 ee3c 74bf 22bf 5db4 8a3e 10aa 26bf
00000150: e7d9 d03d 55dc 893e d501 b6be 821c 37bf
00000160: d40b 35bf 7e74 18be 0bc6 293e e47c 843e
00000170: 4a2c 1d3e 14e6 1f3e aa5a c73e 1daa 2fbf
00000180: 4c26 f13e 5179 28bf d931 ffbe c093 053e
00000190: d5d3 0d3f 1b42 263f e25e 8a3f 7562 b63e
000001a0: d38c e93c 1e95 fe3c 0687 763d 41eb e4bb
000001b0: 1ac2 0bbf d953 463f 987b ac3d 9045 223f
000001c0: 5e8d 97b6 bfe3 46bb 8493 0037 62ce 7ab6
000001d0: e732 a828 9ce3 64b8 dcd0 21b9 66be 78b9
000001e0: 1968 783a 2347 0fba 6663 b537 96af 5936
000001f0: da5e 0b39 f51b 1bb6

linears.1.bias f4 [9]
-0.0011134504 0.20385332 -0.006966969 0.28893217 0.17556982 0.22471742 0.08921884 -0.23041281
-0.002450116
00000000: 32f1 91ba edbe 503e 2c4b e4bb ebee 933e
00000010: 93c8 333e 531c 663e 5eb8 b63d 56f1 6bbe
00000020: 2092 20bb

linears.2.weight f4 [7, 9]
0.36609867 0.45842502 -0.74172103 -0.13859591 0.55232286 0.64426875 0.44647646 -0.796293
-0.0012886846 -4.2428928e-07 -0.000100113764 -7.6036565e-07 -5.9310576e-08 -9.552695e-05 -6.042e-05 -9.728383e-07
-2.940572e-07 3.967814e-38 -0.06466989 0.032208566 -0.062300548 -0.030105889 0.051269263 0.07276531
-0.09985622 -0.02280099 4.93297e-38 -0.14593129 0.15112664 0.8062319 0.20778121 -0.1032822
-0.22371818 -0.0037713917 0.5525128 0.0011753563 -0.016066032 0.59967643 -0.031866558 0.12726331
0.17942485 0.04569981 0.4613715 -0.73534983 1.7473308e-38 -0.60081345 -0.12104959 0.5437625
0.6874653 -0.2709183 -0.37799227 -0.3918626 0.9026651 -0.00067182194 -2.2163969e-23 -2.0525799e-17
-4.404575e-39 4.721301e-38 -2.4600414e-17 -4.1963116e-18 -4.3437225e-30 1.6134833e-34 -2.036255e-39
00000000: 4971 bb3e afb6 ea3e 6ee1 3dbf 16ec 0dbe
00000010: 0865 0d3f ccee 243f 9098 e43e dcd9 4bbf
00000020: 14e9 a8ba e0c9 e3b4 2bf4 d1b8 ee1b 4cb5
00000030: abbc 7eb3 a455 c8b8 7b6b 7db8 7892 82b5
00000040: eade 9db4 4107 5801 a671 84bd 21ed 033d
00000050: dc2e 7fbd a0a0 f6bc b8ff 513d fb05 953d
00000060: 6b81 ccbd 24c9 babc c949 8601 036f 15be
00000070: f1c0 1a3e 3765 4e3f 99c4 543e 9e85 d3bd
00000080: 6116 65be 7429 77bb 7b71 0d3f 6a0e 9a3a
00000090: e99c 83bc 6584 193f 8286 02bd 5051 023e
000000a0: 26bb 373e b92f 3b3d e338 ec3e e33f 3cbf
000000b0: 7944 be00 e9ce 19bf d9e8 f7bd 0534 0b3f
000000c0: bafd 2f3f ceb5 8abe 3488 c1be 37a2 c8be
000000d0: 0f15 673f 351d 30ba 545b d699 2c51 bda3
000000e0: 2af6 2f80 aa86 8001 16e6 e2a3 0bd1 9aa2
000000f0: cb33 b08e fe77 5607 402c 1680

linears.2.bias f4 [7]
-0.020893365 -1.8423826e-06 -0.1058709 0.15557607 0.51514244 0.38374105 1.8918676e-38
00000000: 9028 abbc c947 f7b5 d8d2 d8bd 554f 1f3e
00000010: 60e0 033f b579 c43e 9201 ce00

linears.3.weight f4 [5, 7]
-0.19019286 3.8044902e-05 0.002565153 0.65404755 0.9731246 0.028944883 -6.720364e-11 0.8889881
-0.0007757618 0.026100818 -0.6111282 0.2787054 -2.1645284 3.2634756e-11 0.21677814 0.0001432162
0.011198889 0.34451377 1.0207376 0.21045244 -8.921968e-08 -2.7146976e-05 -4.753701e-38 1.6182359e-38
-1.5998964e-06 5.983265e-38 -1.0473129e-09 -1.3085811e-38 0.64878345 -0.00026389197 0.021760892 -0.44737723
0.34700143 -1.7912787 3.0581568e-12
00000000: ebc1 42be 6792 1f38 201c 283b a96f 273f
00000010: b21e 793f d21d ed3c 49c8 93ae b994 633f
00000020: 7e5c 4bba 62d1 d53c e672 1cbf 79b2 8e3e
00000030: a287 0ac0 7887 0f2e 17fb 5d3e 4e2c 1639
00000040: 8c7b 373c 1c64 b03e 88a7 823f d880 573e
00000050: 0a99 bfb3 b0b9 e3b7 7668 8181 d535 b000
00000060: 06bc d6b5 45e1 a201 0cf1 8fb0 eb7d 8e80
00000070: ac16 263f fb5a 8ab9 e643 b23c a10e e5be
00000080: 2caa b13e 9f48 e5bf db32 572c

linears.3.bias f4 [5]
0.27311707 0.09162244 0.16640969 -2.151854e-08 -0.0003971309
00000000: 00d6 8b3e 8ca4 bb3d 4d67 2a3e c5d7 b8b2
00000010: 0236 d0b9

output.weight f4 [1, 5]
0.3322302 -1.8379419 0.51187116 6.891111e-10 -1.8931848
00000000: 141a aa3e ae41 ebbf fd09 033f e26b 3d30
00000010: e153 f2bf
