models/synthetic_classifier_02122021-145139.pth (torch, 4623 bytes, 7 tensors)

linears.0.weight f4 [13, 26]
0	0x3d9c7ab8	0.07640594
1	0x3d99b2fd	0.075048424
2	0x3e80d123	0.2515956
3	0x3da24df2	0.07925023
4	0x3e0ea842	0.13931373
5	0x3d9561db	0.07294055
6	0x3c781cdf	0.015143602
7	0x3e80d2f1	0.25160936
8	0xbeba5bbe	-0.3639812
9	0xbec910ab	-0.3927053
10	0x3ed327f1	0.4124141
11	0x3dd22b38	0.102621496
12	0xbe30c4e0	-0.17262602
13	0xbef59d00	-0.47971344
14	0xbe102222	-0.1407552
15	0x3c0ca52e	0.008584304
16	0x3df979c2	0.121814266
17	0x3d96e4bf	0.073678486
18	0x3e8e0662	0.27739245
19	0x3e6c94bb	0.23103611
20	0x3e75b6b8	0.23995483
21	0x3da7fc65	0.08202437
22	0x3e83045c	0.25589263
23	0x3e13b453	0.14424257
24	0x3d9ea20d	0.077457525
25	0xbbb5c62e	-0.0055473065
26	0x3e419889	0.18905844
27	0x3dba45d8	0.09095353
28	0x3cd16995	0.02556304
29	0x3dab89a2	0.08375861
30	0x3e01e3fe	0.12684628
31	0x3e025491	0.12727572
32	0x3e08e3e5	0.13368185
33	0x3e135f83	0.14391904
34	0x3ecbfa89	0.3983958
35	0x3ed2abed	0.41146794
36	0xbf14dacc	-0.5814636
37	0xbec2ca6c	-0.3804506
38	0x3e1ae210	0.15125299
39	0x3e52da37	0.20591055
40	0x3ecb573b	0.3971499
41	0x3e8732e5	0.26406017
42	0x3e1020a6	0.14074954
43	0x3d28b0b8	0.041184157
44	0x3e14849a	0.14503708
45	0x3e20e035	0.15710528
46	0x3e6a6960	0.2289176
47	0xbbbe73b6	-0.0058121337
48	0x3db78d3b	0.089624844
49	0x3d6086f8	0.054816216
50	0x3e890cb3	0.267675
51	0x3e56cf36	0.20977482
52	0x3e6aafca	0.2291862
53	0x3cefb79e	0.02926236
54	0x3e41afb1	0.18914677
55	0xbdc38324	-0.095464975
56	0x3d976c97	0.07393759
57	0x3c92393b	0.017849555
58	0x3e59cac9	0.21268763
59	0x3da2a0ad	0.07940803
60	0xbef79383	-0.4835473
61	0xbea097b2	-0.31365734
62	0x3edf7c9d	0.4364976
63	0x3ec57504	0.38565838
64	0xbe2c7088	-0.16839802
65	0xbf0a7b2e	-0.5409421
66	0xbeadcf0c	-0.33947027
67	0xbdc95338	-0.09830326
68	0xbdb76a69	-0.08955843
69	0xbd943ac5	-0.07237772
70	0x3c2cbad8	0.010542594
71	0x3e2a5a43	0.16635995
72	0xbcbd4209	-0.023102777
73	0x3d6a10bf	0.057144877
74	0xbd540906	-0.051766418
75	0x3d0386f4	0.032111123
76	0x3e5e4598	0.21706235
77	0x3ddf0629	0.10889847
78	0xbe016b99	-0.12638701
79	0x3e011eca	0.12609401
80	0xbe1d2592	-0.15346363
81	0xbde1a078	-0.11016935
82	0xbdc761dc	-0.09735462
83	0xbe378e01	-0.17925264
84	0xbdf4f0c0	-0.11959982
85	0xbdc0a662	-0.09406735
86	0x3e0ac947	0.13553344
87	0xbd52d3e4	-0.051471606
88	0xbd191a0e	-0.037378363
89	0x3dee77a3	0.11643913
90	0x3d199a31	0.037500564
91	0x3d21a699	0.03946552
92	0xb59511dc	-1.1106563e-06
93	0xbd84bfed	-0.064819194
94	0x3d31cd2b	0.043408554
95	0x3d718291	0.05896241
96	0xbe4c2e4e	-0.19939539
97	0xbc247e2f	-0.01003985
98	0xbb87f9e9	-0.0041496647
99	0xbde5d1be	-0.11221646
100	0x3de72e06	0.11288075
101	0xbc8dbdb6	-0.017302375
102	0xbe204b12	-0.15653637
103	0x3de01e4e	0.1094328
104	0x3e0c25f7	0.13686357
105	0x3e271407	0.16316234
106	0x3e1a830e	0.15089056
107	0x3e862f3e	0.26207918
108	0x3e1b5ced	0.15172167
109	0x3e0a9924	0.13534981
110	0x3dccb87c	0.09996125
111	0x3e173ec2	0.14770034
112	0x3eb1857c	0.34672153
113	0x3e2a43d4	0.16627437
114	0xbeba26a6	-0.3635761
115	0xbec39a7c	-0.382038
116	0x3ee9d461	0.45669845
117	0x3e593912	0.21213177
118	0x3e3897cd	0.18026657
119	0x3e69114f	0.22760509
120	0x3cafb4ba	0.021448482
121	0x3cf1fdf6	0.029540043
122	0xbd939c9d	-0.07207606
123	0x3e255fcc	0.16149825
124	0xbc849d23	-0.01618821
125	0x3e60efb2	0.21966437
126	0x3e30d965	0.1727043
127	0x3e292a13	0.16519956
128	0x3d86c99f	0.06581425
129	0x3c88f3be	0.016717788
130	0x3c7992b4	0.015232731
131	0x3f06226f	0.5239629
132	0x3d43cfd4	0.047805622
133	0xbcf49444	-0.029855855
134	0x3e26561a	0.16243783
135	0x3e33d5b5	0.17561992
136	0x3e4f93a3	0.20271163
137	0x3e928a7e	0.28621286
138	0x3e936017	0.28784248
139	0x3de4a6b4	0.111646086
140	0xbf13df6c	-0.5776279
141	0xbba420ef	-0.005008809
142	0x3e576615	0.21035035
143	0x3e3b1a04	0.18271643
144	0x3edefa66	0.43550414
145	0x3e67d3c0	0.2263937
146	0xbd777115	-0.060410578
147	0x3e32031e	0.17384002
148	0x3e755ebd	0.23961921
149	0x3e2d18bc	0.16903967
150	0x3d9d2ae6	0.07674198
151	0x3dd811c2	0.10550262
152	0x3e3c0c1b	0.18363993
153	0x3d5cef13	0.053938936
154	0xbc25c5ca	-0.010117957
155	0x3cd2d3a0	0.025735676
156	0x3de1065d	0.10987542
157	0x3de1b49f	0.11020779
158	0xbd6f6b2e	-0.058451824
159	0xbd4a5a8a	-0.04940275
160	0xbd63f76f	-0.055655893
161	0xbdab7c39	-0.08373303
162	0xbc161ae2	-0.009161683
163	0x3e2b7b10	0.16746163
164	0x3eee8d88	0.46592355
165	0x3eabb8ad	0.33539334
166	0xbe465a2a	-0.19370332
167	0xbc91475b	-0.01773422
168	0x3e95c4c4	0.29251683
169	0x3e4c64b1	0.19960286
170	0x3e7cb75d	0.24679323
171	0x3e1da929	0.1539656
172	0x3dec2c7b	0.115319215
173	0x3cc67f9b	0.024230769
174	0x3bf97948	0.007613335
175	0x3dc0bb4f	0.09410726
176	0x3c667021	0.01406482
177	0x3e175320	0.14777803
178	0xbc863e5d	-0.016387159
179	0xbb982109	-0.00464261
180	0x3e230ccf	0.15922855
181	0x3e6ff656	0.23433813
182	0x3d584117	0.05279645
183	0x3eb9a726	0.36260337
184	0x3d07f24c	0.033190057
185	0x3c00efef	0.007869705
186	0x3d1948a1	0.03742278
187	0x3d59d353	0.05318005
188	0x3c8ff762	0.017574016
189	0x3cd36a89	0.025807636
190	0xbedaa693	-0.4270521
191	0xbea8b350	-0.32949305
192	0xbf08f883	-0.535042
193	0x3f13109d	0.57447225
194	0xbe8bf9d4	-0.2733904
195	0xbea7eaac	-0.32796228
196	0xbddfb4db	-0.10923167
197	0xbf19bfea	-0.6005846
198	0x3ee03d86	0.4379694
199	0x3d5244ed	0.051335264
200	0x3d30b276	0.043138944
201	0x3d5eeae8	0.054423243
202	0x3d9f4bb0	0.07778108
203	0x3d4a7238	0.049425334
204	0x3d413fd3	0.04718001
205	0xbd624b71	-0.055247728
206	0xbd92f15d	-0.07174943
207	0xbd9aa22e	-0.075504646
208	0x3e4fc5b6	0.20290264
209	0x3ea144e9	0.31497887
210	0x3e69b7f1	0.22824074
211	0x3d381c49	0.04494885
212	0xbd4fa042	-0.050689943
213	0xbd892e80	-0.06698322
214	0x3d0bee2a	0.034162678
215	0x3e1bf461	0.15229942
216	0x3e8d65ba	0.27616674
217	0x3eaad03a	0.3336199
218	0xbdcf6a9b	-0.10127755
219	0x3da5a3c8	0.080878794
220	0x3e9787cc	0.29595792
221	0x3e14f09f	0.14544915
222	0x3e225f05	0.1585656
223	0x3e300f72	0.17193392
224	0x3dee98c6	0.11650233
225	0x3d9a3633	0.07529869
226	0x3e097b64	0.13425976
227	0x3d763218	0.060106367
228	0x3e375fcf	0.17907642
229	0x3e2465d3	0.16054468
230	0x3e57603c	0.21032804
231	0x3e8607bc	0.26177776
232	0x3e3b4ede	0.18291804
233	0x3df0fe18	0.117672145
234	0xbb0e45be	-0.002170905
235	0x3eb20bcb	0.34774622
236	0x3ca381cb	0.019959351
237	0x3dcda792	0.10041727
238	0x3dc16cc6	0.09444575
239	0x3dc23a08	0.09483725
240	0x3dc3bb77	0.095572405
241	0x3dce3257	0.10068195
242	0x3efb2357	0.490504
243	0x3ebc8414	0.36819518
244	0xbe57d17a	-0.21076003
245	0x3eefb78c	0.46819723
246	0x3e11fc2b	0.1425635
247	0x3e11876d	0.14211817
248	0x3e6a7066	0.22894439
249	0x3e962121	0.2932215
250	0xbf0a36f7	-0.5399012
251	0xbe2418d4	-0.16025096
252	0xbe2554ab	-0.1614558
253	0xbb1d8f70	-0.0024041794
254	0x3a621830	0.000862482
255	0xbbc70533	-0.006073618

linears.0.bias f4 [13]
0	0x3c0b7d53	0.008513766
1	0xbcb706c1	-0.022342088
2	0x3ea6fe06	0.3261568
3	0xbe3137bc	-0.17306417
4	0x3cd7b69a	0.026332188
5	0x3e67f8b1	0.22653462
6	0x3e21f2f7	0.1581534
7	0xbd9dad4d	-0.0769907
8	0x3db06a5c	0.086140364
9	0xbd0a1eed	-0.0337209
10	0x3de7d047	0.113190226
11	0x3e0611db	0.13092749
12	0x3e30b2bc	0.17255682

linears.1.weight f4 [8, 13]
0	0xbe66c6e4	-0.22536808
1	0x3e93ad8a	0.28843337
2	0xbe11bf5a	-0.14233151
3	0xbce849f8	-0.028355584
4	0x3e63c70d	0.222439
5	0x3e6eb30d	0.2331049
6	0x3e0a49e3	0.13504748
7	0xbec65305	-0.38735214
8	0x3d93dd09	0.072198935
9	0x3f0501f4	0.51956105
10	0x3e32d25b	0.17463057
11	0xbd32747e	-0.043568127
12	0x3e2ae5e1	0.16689254
13	0xbd06a5e1	-0.03287304
14	0x3eaeb2e3	0.34120855
15	0x3d895cd9	0.067071624
16	0x3e6de192	0.2323058
17	0x3ea6d10d	0.32581368
18	0x3f2445e2	0.6416913
19	0x3eb066d8	0.34453464
20	0x3ec67c72	0.3876682
21	0xbd3d7662	-0.046255477
22	0x3e80f7ab	0.25188956
23	0x3e462418	0.19349706
24	0x3e824dae	0.2544989
25	0x3e24d8f8	0.16098392
26	0xbec030e6	-0.37537307
27	0x3ee0f34c	0.4393562
28	0xbea85e31	-0.32884362
29	0x3e083bb9	0.13304032
30	0x3d5200c9	0.05127028
31	0x3eec1376	0.46108598
32	0x3d6f384c	0.0584033
33	0xbed202ac	-0.41017663
34	0x3e238924	0.15970284
35	0x3ee16348	0.44021058
36	0xbe25045c	-0.16114944
37	0x3d4f1a9b	0.050562482
38	0x3de37680	0.111065865
39	0x2272dbfe	3.2913579e-18
40	0xbc0b7c5b	-0.008513535
41	0xba74e19e	-0.0009341481
42	0x3e4bcbba	0.19901934
43	0x1d275458	2.214587e-21
44	0x3d9c7548	0.07639557
45	0x3cb5c88a	0.022190351
46	0x3e3f0cfa	0.18657294
47	0xbd36d8a6	-0.044640206
48	0x3d075fff	0.033050533
49	0xbdfcd475	-0.123452105
50	0xbd1f868d	-0.038946677
51	0xbabb72db	-0.0014301197
52	0x3dd0486e	0.10170065
53	0x3eabc6d4	0.3355013
54	0xbe316392	-0.1732314
55	0xbd17eae1	-0.037089232
56	0x3ef09cb4	0.46994555
57	0x3d1f17f2	0.038841195
58	0x3ed394a5	0.41324344
59	0xbf188ce9	-0.5959001
60	0x3e161ffa	0.14660636
61	0x3f3b1287	0.73075145
62	0x3e67608e	0.22595426
63	0xbe510905	-0.20413597
64	0x3ec19df8	0.37815833
65	0x3e84b0a5	0.2591602
66	0xbdb37b4f	-0.087637536
67	0x3edf5bff	0.43624875
68	0x3d9a1cd2	0.07525028
69	0xbe72d6dd	-0.23714776
70	0xbd48dbcb	-0.049037736
71	0xbe815018	-0.2525642
72	0x3f286a94	0.65787625
73	0xbe55909b	-0.20855944
74	0xbe90270d	-0.28154793
75	0x3ebd6591	0.36991552
76	0x3ecbf08b	0.39831957
77	0xbe703b2a	-0.2346007
78	0x3f007fc1	0.50194937
79	0xbed024a7	-0.40652964
80	0x3e50b5e0	0.2038188
81	0xbd972b34	-0.07381287
82	0xbefbb019	-0.4915779
83	0xbd846c2d	-0.064659454
84	0xbdab6587	-0.08368974
85	0x3eba225b	0.36354336
86	0x3e8e9d40	0.27854347
87	0xbf07b417	-0.5300917
88	0x3e802a10	0.2503209
89	0x3f00ab88	0.50261736
90	0x3e4d5dc1	0.20055296
91	0xbe5236fa	-0.20528784
92	0x3eb1cac5	0.34725013
93	0xbe48d136	-0.19611058
94	0x3e2ef926	0.1708723
95	0x3ec8e18e	0.39234585
96	0x3eff0697	0.49809715
97	0x3ae8893a	0.0017741092
98	0xbe95a436	-0.29226846
99	0x3e5c0f52	0.21490219
100	0x3f196702	0.599228
101	0xbe889032	-0.26672512
102	0x3c90e27c	0.017686121
103	0x3e41c0aa	0.18921152

linears.1.bias f4 [8]
0	0xbdc8dcfd	-0.09807775
1	0x3eacc973	0.33747444
2	0x3e806a70	0.25081205
3	0xbe278a7f	-0.16361426
4	0xbd223f7f	-0.039611336
5	0x3e4365d0	0.19081807
6	0x3ea8abc6	0.32943553
7	0xbe38d72f	-0.18050836

linears.2.weight f4 [6, 8]
0	0xbf1399ec	-0.5765674
1	0x3e04f68f	0.1298468
2	0xbef93102	-0.48670202
3	0x22a06b01	4.348138e-18
4	0xbd6deddc	-0.05808817
5	0x3d28fbcb	0.041255753
6	0x3f078a3b	0.529453
7	0xbec2894c	-0.37995374
8	0xbee5ccaf	-0.44882724
9	0x3f0447ad	0.5167187
10	0xbeaec943	-0.34137926
11	0x3d8a7f35	0.06762544
12	0xbe8771cb	-0.26454005
13	0x3efc04ab	0.4922231
14	0x3f0e5c7d	0.55609876
15	0xbf240e34	-0.6408417
16	0x3f0be938	0.5465274
17	0xbd0d1934	-0.034447864
18	0x3e497905	0.19675072
19	0x3bc278c7	0.005934808
20	0x3f0bced3	0.54612464
21	0x3d87fac7	0.06639629
22	0x3d420812	0.047370978
23	0x3f6036f5	0.8758386
24	0x3f085ab9	0.5326343
25	0x3ec2fee1	0.38085082
26	0x3ec1e0cf	0.37866828
27	0x3da836a0	0.08213544
28	0x3f1de022	0.61670125
29	0xbec71bef	-0.388885
30	0xbebea3f4	-0.3723446
31	0x3dd836b5	0.105573095
32	0x3e61a051	0.22033812
33	0x3ec9b4ef	0.39395854
34	0x3eec5369	0.46157387
35	0x3def3099	0.11679191
36	0x3f21ddc3	0.63229007
37	0xbefa66be	-0.4890651
38	0xbe96e8dd	-0.29474536
39	0x3edfc25f	0.4370298
40	0xb826296b	-3.9616058e-05
41	0xbe9f0b68	-0.3106339
42	0x3d20f2d5	0.039294083
43	0x3cba83a8	0.022767857
44	0xbe1a7fd1	-0.1508782
45	0x3e379ad3	0.17930155
46	0xbdd723ae	-0.10504852
47	0x3d893d12	0.06701101

linears.2.bias f4 [6]
0	0x3e3e4bf2	0.18583658
1	0xbd61b0cf	-0.05510026
2	0xbd2e8a40	-0.042612314
3	0x3e469431	0.19392468
4	0x3e27f2cf	0.16401218
5	0x3e4fa4f5	0.2027777

output.weight f4 [1, 6]
0	0xbf15f981	-0.5858384
1	0xbf020316	-0.5078596
2	0x3ebebd8f	0.37253997
3	0x3efc69c7	0.49299452
4	0x3f34d215	0.7063306
5	0x3d7f33dc	0.062305316
