models/synthetic_long_classifier_21122021-124908.pth (torch, 7183 bytes, 7 tensors)

linears.0.weight f4 [19, 39]
00000000: 621a 60bd fd3d d9bd 7b06 2f3e fb7a 373d
00000010: cdfe 71bd 6484 3e3e da5e 48be 28f2 ca3e
00000020: 5a9b 22be f32e 03be 4793 56bd b6bb e93c
00000030: c277 153e a92c 1fbe 4b91 963e dc4f 3e3e
00000040: 8c73 ce3d d48b 1b3d 0e30 473e e276 2f3e
00000050: 6eb9 613e e9ac 683d ae05 213e daef 9f3d
00000060: 3348 cf3d 0c2a 3fbd 7e99 323e 5796 bdbc
00000070: 89a3 203b 5695 7dbc e2e0 e13d 6fd3 3d3e
00000080: fb02 ab3e 4adb 813e b87e a63e 5364 353d
00000090: 1609 54be af82 b1be ffe1 babe dc09 38bd
000000a0: 9000 453d c234 6d3e 3379 d73d 7a4e bcbd
000000b0: e769 d43e 6429 ce3c 702a ce3e 51ad aebd
000000c0: 2380 98bc e6ee 04be f904 653e db11 023d
000000d0: cb4e ccbc bd33 843e 721d a83e 4101 b2bd
000000e0: 1a61 8f3d e5b8 0ebc 6f77 343e fa20 183e
000000f0: f2c0 5fbb 9c63 5c3d 47f8 1a3e 869d 253e
00000100: 672c 4d3e 6ec4 5d3c 505b 8f3d 243d 19bd
00000110: 29aa e33c 6978 a0bd c0e3 8e3c 1f62 aa3e
00000120: 1e43 ac3d 47b8 583e 1bda a2bc 929f a2bd
00000130: e605 d6bc cc05 30be 4c98 643d c8fc 943d
00000140: aa87 543d 4b70 14bd cdb5 66bd d3e3 6e3e
00000150: 9fd3 09be 482e 823e 9640 56bd df08 a7bd
00000160: 9692 0fbe 7a81 c63e 924e 123a eb76 a9bd
00000170: 5a80 f23d af8d 243e e907 813e 5934 453e
00000180: 689f 17bc 9a68 273e fec5 423e 94de 743d
00000190: 4132 2f3e 3934 013e 5f62 5f3d 0bac 743e
000001a0: 3e4f 5e3e 52b3 2b3d 7bbb 263e e60c 393e
000001b0: 50f5 5a3e f67e 5f3e 9b38 9d3e b2a9 8c3e
000001c0: 6102 9e3e 7f81 a2bd ca9e 62bd 6e41 a1be
000001d0: 9dcb febd 4106 0d3c 4866 b73d cdad 4d3e
000001e0: 9b1a a43d b29c 393d 4ee7 dbbe 0d31 273e
000001f0: 5025 c5be 256a 913e d118 073e 76e6 9c3e
00000200: d317 3bbe 2bf6 86bd c055 013e 7fef a1bd
00000210: bccc 92be e43b ccbd 9956 333e 60b6 333e
00000220: 3596 423e 0164 1e3e 8cf8 1e3d 8687 42bd
00000230: 0fcb 4ebd 3328 97bd 601c 03bd 7924 a5bd
00000240: 5515 1b3e 9b16 233e 761a 61bd 688a 603d
00000250: 6e5b fd3d 6345 19be a4e1 8dbe 05b7 97be
00000260: 57b8 243e 81fa 703d 9474 df3d 9b04 3a3e
00000270: 8c0f 203d 474a e4bd 23d1 50bd 811b 1cbd
00000280: 1006 83bc 8adc 1a3e f634 e63c 4034 7a3e
00000290: 608c bb3d 3dbe f73c b1d8 bb3d b6d9 9a3d
000002a0: ed42 9ebe 2421 edbb 1bbb 3e3e 18bc a13e
000002b0: fbfe a03b 2730 113d d69b 9e3c aa10 373d
000002c0: 531c 873d 4356 d03d 2be5 c43c 94cb 873d
000002d0: 8c60 ca3d 9e89 be3d e651 c43d 8e58 a43d
000002e0: a1d8 863d 00bd f9bc e5b6 fa3c d789 83bc
000002f0: 26f2 c43e 62f2 573e 2d73 af3d 4385 1cbe
00000300: de8f 95be 04f1 2d3d 41be 4a3d ec0c dc3d
00000310: 5a29 19be 7e3f 4fbb 59db df3d 6a68 c2bd
00000320: 4eb0 b83e 273d 98bd c458 c73e 6bcb d8bd
00000330: b47c 853d 2a5f 6cbe 73ab 2a3d 9645 f43c
00000340: 8fc3 753c 475e fd3d f826 aa3e 35e9 f93d
00000350: 3bcf 47bd 9124 a4bc 1869 803d 69f1 ec3d
00000360: 126f 133e af8f 483e 16b1 583e b392 cbbc
00000370: ba5d fe3d b6bb ab3d 73a8 9b3d 49f2 283e
00000380: dc01 6f3d bd07 ab3c 8d3c 423e 31d2 763e
00000390: bbba 9a3e 4100 8d3e 1676 e73d 600c a73d
000003a0: 6ca9 09be 5cf3 37be 61d2 6d3e 2300 a63c
000003b0: 04e9 943e 787b 8f3e aee7 7a3e b1dd 4c3e
000003c0: ceee c0bc c4f1 cb3e dacc 453e d206 453e
000003d0: d734 203e e1c3 b73e b3f2 6e3c c962 16be
000003e0: 279e 833e da79 b83e 949b e93d c5b3 b93d
000003f0: d249 463d afe3 713e 48c8 683e 0e75 d23d
-0.05471266 -0.106075265 0.17092316 0.044795018 -0.059080888 0.1860519 -0.19567433 0.39637876
-0.15879574 -0.12810878 -0.05238655 0.02853189 0.14596465 -0.1554438 0.29407725 0.18585151
0.100806326 0.037975147 0.19451925 0.17135194 0.22043392 0.056805525 0.15724823 0.0780942
0.10121193 -0.04667096 0.17441365 -0.023142977 0.0024511537 -0.015477499 0.11029221 0.18537687
0.3340071 0.25362617 0.32518554 0.04428513 -0.20706591 -0.34670016 -0.36500546 -0.044931278
0.04809624 0.23164657 0.10521164 -0.09194656 0.41487047 0.025166221 0.40266752 -0.08529151
-0.018615788 -0.12981758 0.22365178 0.03175531 -0.024939915 0.25820723 0.32834965 -0.086916454
0.070009425 -0.0087110745 0.17623685 0.1485633 -0.0034142104 0.053805932 0.15133773 0.16173372
0.2003647 0.013535602 0.06999838 -0.037411824 0.0277911 -0.078354664 0.017442584 0.33277985
0.08411239 0.21164046 -0.019879391 -0.07940592 -0.02612586 -0.17189711 0.055809304 0.07274777
0.05188719 -0.036239903 -0.056325722 0.23329096 -0.13459633 0.25425935 -0.052307688 -0.08155989
-0.14020762 0.38770658 0.0005581166 -0.08274635 0.11840887 0.16069673 0.25201347 0.1925825
-0.009254314 0.16348496 0.1902084 0.05978258 0.17109014 0.12617578 0.054537173 0.23893754
0.21709916 0.04191906 0.16282456 0.18071327 0.21382642 0.21825776 0.3070725 0.27473217
0.3086119 -0.07934856 -0.055327214 -0.3149523 -0.1244118 0.008607448 0.089550555 0.20085831
0.08012887 0.045315452 -0.4294991 0.16327305 -0.3850503 0.28401294 0.1319306 0.30644578
-0.18270807 -0.065899216 0.12630367 -0.079070084 -0.28671825 -0.09972361 0.17513503 0.1755004
0.19002612 0.15467836 0.03881125 -0.047492526 -0.05048662 -0.07380714 -0.032009482 -0.08063597
0.15144856 0.15926592 -0.054956876 0.054819494 0.123709545 -0.14967875 -0.27711213 -0.2963182
0.16085945 0.05883265 0.109109074 0.1816582 0.039077327 -0.1114698 -0.0509807 -0.038112167
-0.015994102 0.15123191 0.028101426 0.24433994 0.09157634 0.03024208 0.0917219 0.07561056
-0.30910435 -0.0072366167 0.18626063 0.31588817 0.0049132085 0.035446312 0.019361418 0.044693626
0.06597199 0.10172703 0.024035057 0.06630626 0.09881696 0.09303592 0.095859334 0.08024703
0.065842874 -0.03048563 0.030604789 -0.016056938 0.38465995 0.21088555 0.0856689 -0.1528521
-0.29211324 0.04246618 0.049497847 0.10744652 -0.1495718 -0.0031623538 0.10930509 -0.09492572
0.3607201 -0.07433539 0.3893491 -0.10585674 0.06517926 -0.23083177 0.041667413 0.029818337
0.015000238 0.123714976 0.33232856 0.12202684 -0.048781615 -0.020036967 0.06270045 0.11569483
0.14397839 0.19586061 0.21161303 -0.024850225 0.12420221 0.083854124 0.076004885 0.16498674
0.058351383 0.020877713 0.18968411 0.24103619 0.3022059 0.27539256 0.1130182 0.08156657
-0.13443536 -0.17963928 0.23224784 0.020263737 0.29084027 0.28023887 0.24502441 0.20006444
-0.023551371 0.3983289 0.19316426 0.19240883 0.15645157 0.3589163 0.014584231 -0.14686121
0.25706598 0.36030465 0.11406627 0.090674914 0.048410244 0.2362201 0.22732651 0.10276233

linears.0.bias f4 [19]
00000000: 92e7 c23d 11f6 5cbc 40c2 e63d 5b10 64bd
00000010: d6a9 cbbc b27d 193e c626 e73d 4826 5a3e
00000020: 1952 2b3e 8051 02bd 2ca7 583e cd16 763e
00000030: 8a45 8e3d 5a1b c03d 2409 573d 39c2 1a3e
00000040: b0b2 163c 8d2f 1e3d d369 833e
0.09516825 -0.013486401 0.11267519 -0.05567966 -0.024861258 0.14989355 0.11286692 0.21303666
0.16730537 -0.031816006 0.21157521 0.24032135 0.06946857 0.09380217 0.05249895 0.15113153
0.009197876 0.038619567 0.25666675

linears.1.weight f4 [13, 19]
00000000: c58a c53e 656f 883e 5408 3b3e d98d 2cbe
00000010: 50f0 9b3e fd22 dc3e 50f9 5b3e 92c2 b03c
00000020: d1c2 aa3e 97d4 d6bd 49b7 e03d 6e01 b83e
00000030: 6067 85be 1f30 3abe 1422 c3be 2e38 803e
00000040: fc59 a63e 97e3 1e3e d925 b0bd 058f 03bc
00000050: b12c ac3d 2dfd 013d c4ce a43e 781b d0be
00000060: bc28 30be 0515 44be 0f01 393d 790a aabe
00000070: 4cab 763e dd4f cbbd 1947 afbe b592 983e
00000080: 10a2 703e 0911 853e 3b88 db3c c59c 94bd
00000090: 6502 6cbe bf48 673e debf 03be cdf3 d3bc
000000a0: b2d5 ba3c bfa5 afbc 32d4 4f3d 99ac 923d
000000b0: e01e d8bd 2e41 7cbe 805b 42bb ac65 6b3d
000000c0: 5cbf 43be 56ad bd3d d458 e53d 18cd e23d
000000d0: 90d7 733d 9468 bf3c cca2 2f3e 12fe 7ebd
000000e0: 95b3 eebc f992 913e 8c5e d63e 62f0 1a3e
000000f0: e502 e53c f129 dc3e 9d28 c93e 5e45 f33d
00000100: feb8 86bd eeb2 a93e 7573 a3be f05f 903d
00000110: 5d0b 0b3d 1387 b0be e79c 36be e35a 083d
00000120: 3644 833e 9332 b33d e24e 8ebb 37cc 36be
00000130: a5c7 12be 495b d83c 67f9 5abd 247e 663e
00000140: c3eb 73be 37ef 673e 5168 be3e 2006 4f3e
00000150: 7835 1dbe 4bca c43e ac8a 033d 3957 1dbe
00000160: f238 c73b a431 c83e d4f2 263e 3b7e 3e3d
00000170: 87be bfbd e8ad 783d 9c3d 323e 343f 403e
00000180: a44e 55be cb3d da3d 8c35 03be 68c3 0a3d
00000190: 1e3f 57be a756 42be abbb 933d 6fe7 46be
000001a0: 379b 83be 1910 0cbe f498 133e 02e5 59be
000001b0: 7b2b 59be 8d6e 1d3e c399 c33d f5ce 8a3d
000001c0: dbdb ab3d 7393 b5bd f4fc dcbe 3d97 2ebe
000001d0: 3c34 34be 6cde b73e c8e6 80be 090d a1be
000001e0: 3c3d f0bd 00c2 b83e 5f30 3dbe 29b7 ca3e
000001f0: 6f92 41be 15be 2abe 309c 813e 7ff0 b13d
00000200: 17eb d63d a0b3 a1bd a321 78be dfff b13d
00000210: 4c35 c43e 4e8f 5c3e c659 1a3e d409 b63e
00000220: 07c8 3ebe 4bdc 733e b530 2c3e dd9d 383e
00000230: 996e 17bd ecb5 453e ead5 95be 84dd 723e
00000240: 9e7c e33e 0d72 50be e5f3 b33d 66f5 9abe
00000250: 1ab1 673e 1625 d73e 9769 223e 2b2c 44bd
00000260: 83cb 9bbe aa0c 31be 5d6b 36be 8670 863e
00000270: c1e1 adbe 3eda 9bbe a298 9e3e bb93 c83e
00000280: 0e90 91be f174 7b3e 9bfb 693e 3688 64be
00000290: 930c c73e ac16 ab3e c6a6 ad3e 0317 5c3e
000002a0: 2120 0cbe 4ae5 0a3e b5a2 d13e f86a d53c
000002b0: cdfa 0c3c 0b44 1c3c ae18 acbc b422 5a3d
000002c0: 1c76 b93d d37a 323d be0d b4bd 1341 52bc
000002d0: 59ff 043d 2a51 563d 987b a93c adc7 dd3d
000002e0: a040 0cbd e820 aebb 993b aa3b 8ee0 983c
000002f0: 9976 1f3d f0b5 86bc fb10 d93e a736 a13d
00000300: 569b a23e 1069 85be 1dc5 433e 3cfe 4c3d
00000310: 854a 883e 0a99 5ebb 41df 3c3e 9abc c8be
00000320: 791c e03e 4099 6a3e 445e b3be 0801 243e
00000330: 9a48 cbbe 9610 9c3e 4bf1 bc3e 4b5b b63e
00000340: a99f 0b3e bea6 f1b9 a210 0abc 829a 3f3b
00000350: a185 082f 5b2e 92b3 7933 07b3 233e 31b8
00000360: acfe cb38 903c 55ae 6e1a 862f ae2f 87b8
00000370: 11e0 57ba 3a49 152e d366 91bb b752 dbad
00000380: 71a3 f62b 9260 b5b9 39fd 83ae ae42 3f38
00000390: d76c d6bd c87a 753e e235 cf3e 2d20 b83e
000003a0: 0f8d 89bc 98f2 4f3e df5c 8c3e c318 253e
000003b0: c577 573e e304 763e 1d99 a03d cc5c aa3e
000003c0: 94fa c83d 9739 b63e c00c a33e dd7b a03e
000003d0: 3bd6 c53d 736a 8b3d 9c32 b73e
0.38582435 0.26647487 0.18264896 -0.16850986 0.3045678 0.42995444 0.21481824 0.021577153
0.33351758 -0.10489767 0.10972459 0.3593859 -0.2605543 -0.18182419 -0.38111937 0.25042862
0.32490528 0.15516506 -0.08600969 -0.008029704 0.08406962 0.031735588 0.32189 -0.40645957
-0.17203039 -0.19148643 0.045167025 -0.33211115 0.24088782 -0.09927342 -0.3423393 0.2979943
0.23499322 0.2598956 0.026798358 -0.07256464 -0.23047788 0.22586344 -0.1286616 -0.02587309
0.022806976 -0.021441339 0.050739475 0.07161827 -0.10552764 -0.24634239 -0.002965659 0.05747001
-0.19115967 0.09261577 0.11198583 0.11074275 0.05953175 0.023365296 0.17151946 -0.06225402
-0.029138366 0.28432444 0.4186901 0.15130761 0.027955482 0.4300075 0.39288798 0.11878465
-0.06578253 0.33144325 -0.31924024 0.070495486 0.033946384 -0.34478053 -0.17833291 0.0332898
0.25637978 0.08749881 -0.0043428997 -0.1785134 -0.14333971 0.026410716 -0.053460505 0.22509056
-0.23820405 0.22649847 0.37188962 0.2021718 -0.15352428 0.38435587 0.03211467 -0.15365304
0.0060797865 0.39100373 0.16303569 0.0465071 -0.09362512 0.060712725 0.17406315 0.1877411
-0.2083078 0.10656317 -0.12813395 0.03387776 -0.21020171 -0.18978368 0.07213529 -0.19424222
-0.25704357 -0.13678016 0.14413816 -0.21278766 -0.21207993 0.15374203 0.09550812 0.06777755
0.083915435 -0.08866014 -0.43161738 -0.1704988 -0.17598051 0.35911882 -0.25176072 -0.31455258
-0.117304295 0.3608551 -0.18475483 0.39592865 -0.18903516 -0.16674073 0.25314474 0.08688449
0.104940586 -0.07895589 -0.24231581 0.08691382 0.38321912 0.21539041 0.15073308 0.35554373
-0.18630992 0.23814504 0.16815455 0.1802897 -0.03697071 0.19307679 -0.29264766 0.23717314
0.44431013 -0.20356007 0.087867536 -0.3026535 0.22626153 0.42020482 0.15860592 -0.047893684
-0.30428705 -0.17289987 -0.17814393 0.26257724 -0.339613 -0.30439943 0.30975825 0.3917521
-0.28430218 0.24556328 0.22849886 -0.22317585 0.3887678 0.33415735 0.339163 0.21493153
-0.13684131 0.1356403 0.40944448 0.026051983 0.008604717 0.009537707 -0.021007862 0.05325575
0.09055731 0.043574166 -0.087916836 -0.012832898 0.03247008 0.052323498 0.020688817 0.10829101
-0.03424132 -0.0053139813 0.005195093 0.018661764 0.038931463 -0.016444176 0.42395768 0.07871752
0.31759137 -0.2605672 0.19118161 0.050047144 0.26619354 -0.003396573 0.1844454 -0.39206392
0.43771723 0.22910023 -0.35032856 0.16016018 -0.39703828 0.30481404 0.36902842 0.35616526
0.13635124 -0.00046091335 -0.008426817 0.002923638 1.2416602e-10 -6.807087e-08 -3.147895e-08 -4.2257958e-05
9.727231e-05 -4.8484383e-11 2.4393237e-10 -6.446183e-05 -0.00082349876 3.3943716e-11 -0.0044373064 -2.493415e-11
1.7524715e-12 -0.0003459496 -6.002172e-11 4.560005e-05 -0.10469978 0.23972619 0.40470797 0.35962048
-0.016790895 0.20307386 0.27414605 0.16122727 0.21041782 0.24025302 0.07841704 0.33273923
0.09813419 0.35590813 0.31845665 0.313445 0.09660002 0.06807413 0.357808

linears.1.bias f4 [13]
00000000: 007d 943e e5e2 1fbe a3cf 9ebd 9700 7e3e
00000010: a3d7 553e c1fe 703d 9f89 9a3a ad85 7a3e
00000020: 7ec7 233e 4e68 08be 8072 a93e 24a4 d6bb
00000030: 356f b13e
0.29001617 -0.15613897 -0.07754447 0.24804913 0.2088304 0.058836702 0.0011790282 0.24465056
0.15994069 -0.13321039 0.3309517 -0.006550329 0.34655157

linears.2.weight f4 [9, 13]
00000000: 5cda babe dc29 f13e e582 0136 7fd9 69bd
00000010: 410e b13e ecae d4ba c72b e03e 3c5e aebe
00000020: 60cd 523d 0da9 b6bb 8bfc 9cbe 90c8 ea39
00000030: c1bb 523e 9c36 44be 8e6a a1bd 35ce 763d
00000040: 53cf 7a3e ffda ee3d ef7e 683d 9da6 01be
00000050: 6668 483d 6214 273e 74b9 6bbc 915c 99bd
00000060: 5e52 a02d ac27 84be f0b9 953e 79eb 70be
00000070: da6a 593d ca66 273e 250f 4a3e a038 34be
00000080: 0c78 fdbe 0454 ba3e 5a14 993d f276 303d
00000090: b45f 033f 0b4d 1739 f43f 9a3e dda4 9bbe
000000a0: 97f7 de3e 3062 eebd 0a48 d2be fb5a e13b
000000b0: 0918 103e 5ac4 e33e 7520 c0be 40df a13e
000000c0: 504c bbba de20 02be a084 cb3b f02d 283e
000000d0: 8e34 7fbe d15d 8d3e 1cd2 91bb f0d8 03bf
000000e0: 3e28 6e3e 42d2 82bd 057b fa3e 910c edbe
000000f0: 3d97 e03e 2065 443e d578 f9be 2cee 0aaf
00000100: d619 793e 280b b23d ae9d 76bc 2559 4fbd
00000110: b66c 1cbe 0507 07bd 5538 803d b14f e3bc
00000120: ac79 933d 703e 8bbd a8ac 863a ea71 943d
00000130: 823e 37bc 45ae 15be c4cc fabe df8f 333e
00000140: f787 3bbe 8205 04bf 6e5b e53e 312f 2cbe
00000150: ff3f 5d3e 4d08 d4be 3b25 523e 4b99 3dbe
00000160: f3da 8fbe 703d ec2c f789 513e 7794 4cbe
00000170: 9f69 cc3e cad3 1c2a ed1e 8fbe 79ef af3e
00000180: f909 9fbb bed6 c53e 1a2d b1be 77b4 143d
00000190: d179 97bb 1af7 98be cb97 a92c ab7c 823e
000001a0: fc6d b1bd d072 e538 9f81 723b 431e e93d
000001b0: 5640 c23b a46a 90b6 0663 cabc 69ba 3abc
000001c0: d637 353d 1eee a62d 8d70 dc3c e891 7d3c
000001d0: 73ae 6fbc
-0.3649472 0.4710225 1.9298689e-06 -0.057092186 0.34581187 -0.0016226447 0.437834 -0.3405627
0.051465392 -0.0055743516 -0.30661425 0.0004478139 0.20579435 -0.19161457 -0.07881652 0.060255248
0.2449315 0.11662864 0.05676168 -0.12661214 0.048927687 0.16316369 -0.014387477 -0.07488359
1.8226472e-11 -0.25811517 0.29243422 -0.23527326 0.053080417 0.16347805 0.1973234 -0.17599726
-0.4950565 0.36392224 0.07474585 0.043082185 0.51317906 0.00014429183 0.30126917 -0.30399218
0.4354827 -0.116398215 -0.41070586 0.006877301 0.14071669 0.44485742 -0.37524763 0.3161564
-0.0014289711 -0.1270785 0.0062108785 0.16423774 -0.24922392 0.2761064 -0.004450096 -0.51502895
0.23257539 -0.0638776 0.4892198 -0.4629865 0.43865386 0.19179201 -0.48725 -1.2635643e-10
0.24326262 0.08693534 -0.015052242 -0.050622124 -0.15275845 -0.03296568 0.062607445 -0.02774796
0.072009414 -0.067990184 0.0010274844 0.0724829 -0.011184337 -0.1461726 -0.4898435 0.17535351
-0.18313585 -0.51570904 0.44796318 -0.16814877 0.21606444 -0.41412583 0.20522015 -0.18515508
-0.28096732 6.7143444e-12 0.20462786 -0.1997851 0.39924332 1.3929062e-13 -0.27953282 0.3436239
-0.0048534838 0.38640398 -0.34604722 0.036304917 -0.004622676 -0.29876024 4.8201213e-12 0.2548574
-0.08663556 0.000109409564 0.003700353 0.11382725 0.0059280796 -4.303949e-06 -0.024705421 -0.011396983
0.044242702 1.897776e-11 0.026909137 0.015476681 -0.014628994

linears.2.bias f4 [9]
00000000: 2876 9bbd 6855 36bd abfd a63d 9fa9 0a3e
00000010: e53e 373e 9e4a 2fbd 1f0b 673e b42a 2cbe
00000020: 2e02 e5bd
-0.07590896 -0.044515043 0.08153852 0.13541268 0.17895086 -0.04279577 0.22562836 -0.16813165
-0.11182056

output.weight f4 [1, 9]
00000000: 6210 84be 32a9 863d 8492 1a3f 7713 62be
00000010: 87e5 ddbe ae28 32bd 7126 f4be 32c4 b7be
00000020: a389 60bc
-0.2579375 0.0657524 0.60379815 -0.22077738 -0.43339178 -0.043495826 -0.47685578 -0.35891873
-0.01370469
